Ising_Gauge_Theory/experiments/my_exp/model_final.pt (torch, 55744 bytes, 26 tensors)

embedding.patch_embeddings.projection.weight f4 [6, 8]
00000000: 7a88 a6bd 3775 d3be 1ca9 37bf 898c b1be
00000010: 9bc4 17be 3080 a1bd 6560 493f 9747 6cbf
00000020: 7b15 a83d d3f1 273f abe3 b43e 86a2 5f3f
00000030: 9e8a 803e a263 42bf 19a3 803e b7bd 3d3e
00000040: 0b37 453e c70a 32be 7820 193f 646f 12be
00000050: 09d3 1a3e b44b 7b3f f81b 1dbf 7817 43bf
00000060: c12d bdbc cd0f 7dbe c3c8 05bf e0b0 7bbe
00000070: 2486 2abe 137b d7be 4fbf d03e f27b 653f
00000080: 797e 17bd 7b93 b43e f34f 0cbf f05e 4ebe
00000090: 2731 3c3e baaa 88bd 53da c73d b807 423f
000000a0: acc1 07be 790a 36bd 68d3 393f 7526 c9bd
000000b0: 8348 f2be 4aa4 d63e cdd1 5abf e714 c8be
-0.081314996 -0.41300365 -0.71742415 -0.34677532 -0.14821093 -0.07885778 0.7866271 -0.9229674
0.08207222 0.6560337 0.35329947 0.87357366 0.25105757 -0.7593328 0.25124434 0.18529402
0.19259278 -0.17386924 0.5981517 -0.14300305 0.15119566 0.9816239 -0.613708 -0.76207685
-0.023093106 -0.24713059 -0.52259463 -0.24579191 -0.16652733 -0.42086086 0.40770957 0.8964225
-0.036985848 0.3526877 -0.5480949 -0.20153403 0.18378125 -0.066731885 0.09758439 0.7579303
-0.13257474 -0.04444358 0.72588205 -0.09821788 -0.47320947 0.41922218 -0.8547638 -0.39078447

encoder.blocks.0.q_proj.weight f4 [6, 6]
00000000: dcf9 363f 5d1b a0be 108e 953d a4b9 3dbf
00000010: e68b b73e b294 913d 09cc d23d 3781 34be
00000020: 3e2b 17bf f41c 3a3c e6e1 c53d 0afe 6fbe
00000030: 51ee 1fbe 57f5 9bbd 88e2 543f b2dd 9abe
00000040: 6db9 98be 1765 233f 7eaf a4be 2ef2 a8be
00000050: 8848 043f f1b7 173d b89c 4dbe 364c 493e
00000060: b976 71be 5a73 00be 7e45 8b3e a989 aabe
00000070: 7d75 8dbd a9e0 613f 6e17 58be a631 babe
00000080: bf94 0a3f a7c0 0abf 9ec9 9dbe 2bc9 593e
0.71475005 -0.31270877 0.07302487 -0.7411139 0.35848922 0.071084395 0.10292823 -0.17627417
-0.5905036 0.011359442 0.09662227 -0.23436752 -0.15618254 -0.07615154 0.8315816 -0.30247265
-0.2982897 0.63826126 -0.3216514 -0.32997268 0.51673174 0.037040655 -0.20079315 0.19657978
-0.23580445 -0.12544003 0.27201456 -0.3330815 -0.06907175 0.8823343 -0.21102688 -0.36366004
0.5413322 -0.54200214 -0.30817884 0.21268146

encoder.blocks.0.k_proj.weight f4 [6, 6]
00000000: 445a 30be 73ea 98be 0cff f7be c238 abbe
00000010: 6275 0b3f 5062 9e3d ba4d ee3a 3663 093e
00000020: e1e9 debd ad1a b0be d302 abbd 65f2 8cbe
00000030: 685f 57bf fbe3 f9be ef07 89bd d241 b3be
00000040: 8e9f db3e af97 2e3f 39ee 81bd 1f37 b43e
00000050: 8789 ff3d b57f 1bbd 32cf 37be 7c4e 55be
00000060: ca18 e4be d19b c6be 22e1 333e 43f1 45be
00000070: a581 3e3d 8591 013f c5fb f9be 7643 90bd
00000080: f7b8 503e 95fd 8fbe dee7 613e 6240 993e
-0.17221934 -0.2986637 -0.48436773 -0.3344174 0.54475987 0.07733595 0.0018181123 0.13416752
-0.108844526 -0.34395352 -0.08350148 -0.27528682 -0.84129953 -0.48806748 -0.06690966 -0.35011154
0.42895168 0.682002 -0.063442655 0.35198304 0.12477403 -0.037963588 -0.17950132 -0.2083072
-0.44550163 -0.38790753 0.1756635 -0.19330315 0.046510357 0.5061267 -0.48824897 -0.07044117
0.20383058 -0.28123155 0.22061107 0.29931933

encoder.blocks.0.v_proj.weight f4 [6, 6]
00000000: b854 30bf 2ead 22be 2102 c8be 6ff2 8bbe
00000010: 5763 8fbd 3032 f4be 373c 8b3f d16a 8dbe
00000020: c363 ec3e 4e7f ef3e baca 1c3f 8e51 e43e
00000030: eb5e cebc 524a 05bf 18ad 8d3e a1fb d13d
00000040: fa80 e93e 290c cf3c 244c d03d bc3c 333e
00000050: 60c4 c8be 803e 2abf 5b67 97be c394 9cbe
00000060: 59ef 19bf 6fc3 793f 9195 7bbe b66e 10bd
00000070: 2380 bf3e 9bdb 543e 24a1 de3d cdd4 70be
00000080: 584d ac3e 5e9b 023f 4d62 353e 6661 0c3c
-0.6887927 -0.15886375 -0.39064124 -0.273334 -0.070013694 -0.4769454 1.0877751 -0.27620557
0.46169862 0.46776813 0.61246836 0.4459347 -0.025191745 -0.5206653 0.27671123 0.102530725
0.45606214 0.025274353 0.10170773 0.17503637 -0.39212322 -0.6650162 -0.2957104 -0.30582246
-0.6013084 0.97563833 -0.24568774 -0.035261832 0.37402448 0.20786898 0.10870579 -0.23518677
0.3365276 0.5101832 0.1771328 0.0085681435

encoder.blocks.0.layernorm_1.weight f4 [6]
00000000: e787 213e a9f9 053f 8556 073e 6a1e 7d3f
00000010: 6ea6 063f d5c8 033d
0.15774499 0.52334076 0.13216598 0.98874533 0.525977 0.03217395

encoder.blocks.0.layernorm_1.bias f4 [6]
00000000: 9531 cebe a0a1 62be be39 22be 4866 89bb
00000010: 6a44 943d 2522 843e
-0.40272203 -0.22131968 -0.1584234 -0.004193101 0.072396114 0.258073

encoder.blocks.0.layernorm_2.weight f4 [6]
00000000: 154e 81be 3fc9 fcbd 26d6 8c3f b331 4e3f
00000010: fd1d 643e 2f6a 8e3f
-0.25254884 -0.12343072 1.1002853 0.80544585 0.22277065 1.1126155

encoder.blocks.0.layernorm_2.bias f4 [6]
00000000: ba93 ffbd 2b33 b2be 9b0c 19bf 85f2 fe3e
00000010: 9a84 063e c8f0 27bf
-0.124793485 -0.34804663 -0.5978486 0.49794403 0.13136521 -0.6560178

encoder.blocks.0.pos_embed.pe f4 [1, 625, 6]
00000000: 0000 0000 0000 803f 0000 0000 0000 803f
00000010: 0000 0000 0000 803f a46a 573f 4151 0a3f
00000020: 477a b03c caf0 7f3f 5c5a f339 feff 7f3f
00000030: b7c7 683f 3311 d5be cb6f 303d 2cc3 7f3f
00000040: 5b5a 733a f9ff 7f3f c381 103e 2670 7dbf
00000050: bd46 843d 2977 7f3f c283 b63a f0ff 7f3f
00000060: cfbd 41bf 3055 27bf df45 b03d cc0c 7f3f
00000070: 545a f33a e3ff 7f3f 107c 75bf 2c3c 913e
00000080: 0e30 dc3d 2184 7e3f 7118 183b d3ff 7f3f
00000090: 8c0f 8fbe b8cd 753f 0900 043e 38dd 7d3f
000000a0: b783 363b bfff 7f3f 4630 283f bdff 403f
000000b0: 5dd8 193e 2518 7d3f f8ee 543b a8ff 7f3f
000000c0: 9546 7d3f f6fd 14be 699e 2f3e ff34 7c3f
000000d0: 385a 733b 8cff 7f3f 3201 d33e d53f 69bf
000000e0: 974f 453e e133 7b3f bae2 883b 6eff 7f3f
000000f0: f844 0bbf 64cd 56bf 53e9 5a3e eb14 7a3f
00000100: 5618 983b 4bff 7f3f 5cff 7fbf 7205 913b
00000110: 0c69 703e 3ed8 783f f04d a73b 25ff 7f3f
00000120: d85c 09bf d006 583f 1ae6 823e ff7d 773f
00000130: 8883 b63b fcfe 7f3f 2220 d73e 6f4e 683f
00000140: 2188 8d3e 5806 763f 1db9 c53b cffe 7f3f
00000150: 7298 7d3f d704 0c3e 5619 983e 7571 743f
00000160: afee d43b 9efe 7f3f 4479 263f e87a 42bf
00000170: 7998 a23e 87bf 723f 3e24 e43b 69fe 7f3f
00000180: 1068 93be 2c29 75bf 4a04 ad3e c1f0 703f
00000190: ca59 f33b 31fe 7f3f 251e 76bf 36e2 8cbe
000001a0: 8c5b b73e 5b05 6f3f a947 013c f6fd 7f3f
000001b0: b340 40bf 840a 293f 069d c13e 8dfd 6c3f
000001c0: 6ce2 083c b6fd 7f3f 6979 193e bf1b 7d3f
000001d0: 7dc7 cb3e 97d9 6a3f 2c7d 103c 74fd 7f3f
000001e0: c8b6 693f 22f0 d03e bed9 d53e b999 683f
000001f0: eb17 183c 2dfd 7f3f 102f 563f fc37 0cbf
00000200: 96d2 df3e 383e 663f a7b2 1f3c e3fc 7f3f
00000210: 1505 11bc 6ffd 7fbf d6b0 e93e 5cc7 633f
00000220: 614d 273c 95fc 7f3f e6a1 58bf bf67 08bf
00000230: 5273 f33e 6f35 613f 19e8 2e3c 44fc 7f3f
00000240: fcd3 67bf fe2d d93e df18 fd3e c088 5e3f
00000250: cf82 363c effb 7f3f 3887 07be 78bf 7d3f
00000260: 2e50 033f 9fc1 5b3f 811d 3e3c 96fb 7f3f
00000270: 0837 433f 819c 253f 5104 083f 62e0 583f
00000280: 31b8 453c 3afb 7f3f 0ed5 743f 3893 95be
00000290: 4ba8 0c3f 60e5 553f de52 4d3c dbfa 7f3f
000002a0: 2ab4 8a3e 576d 76bf 8f3b 113f f4d0 523f
000002b0: 88ed 543c 77fa 7f3f e9e3 29bf b380 3fbf
000002c0: 91bd 153f 7ba3 4f3f 3088 5c3c 10fa 7f3f
000002d0: a4ef 7cbf 18f4 1d3e c82d 1a3f 565d 4c3f
000002e0: d422 643c a6f9 7f3f 06de cebe 8e2c 6a3f
000002f0: ae8b 1e3f e9fe 483f 75bd 6b3c 37f9 7f3f
00000300: 4d2a 0d3f a98f 553f bcd6 223f 9a88 453f
00000310: 1358 733c c5f8 7f3f 39fa 7f3f b786 59bc
00000320: 720e 273f d2fa 413f adf2 7a3c 50f8 7f3f
00000330: f771 073f e73b 59bf 4d32 2b3f fe55 3e3f
00000340: a146 813c d7f7 7f3f c23a dbbe 5f58 67bf
00000350: d341 2f3f 8c9a 3a3f eb13 853c 5af7 7f3f
00000360: 38e5 7dbf ea08 03be 843c 333f efc8 363f
00000370: 33e1 883c daf6 7f3f eabe 24bf 2df2 433f
00000380: e921 373f 99e1 323f 79ae 8c3c 56f6 7f3f
00000390: 9fbd 973e b57f 743f 8cf1 3a3f 02e5 2e3f
000003a0: bc7b 903c cef5 7f3f 4bbb 763f 6c85 883e
000003b0: f9aa 3e3f a4d3 2a3f fe48 943c 43f5 7f3f
000003c0: bcbf 3e3f 74bc 2abf be4d 423f f8ad 263f
000003d0: 3d16 983c b4f4 7f3f fb6d 22be 44c2 7cbf
000003e0: 6dd9 453f 7f74 223f 7be3 9b3c 22f4 7f3f
000003f0: 28a1 6abf e0ca ccbe 994d 493f b927 1e3f
0.0 1.0 0.0 1.0 0.0 1.0 0.84147096 0.54030234
0.021542681 0.9997679 0.00046415895 0.9999999 0.9092974 -0.41614684 0.043075364 0.99907184
0.00092831784 0.9999996 0.14112 -0.9899925 0.06458805 0.997912 0.0013924765 0.99999905
-0.7568025 -0.6536436 0.08607077 0.996289 0.0018566349 0.9999983 -0.9589243 0.2836622
0.10751353 0.9942036 0.0023207928 0.9999973 -0.2794155 0.96017027 0.12890638 0.9916568
0.0027849504 0.9999961 0.6569866 0.75390226 0.15023942 0.98864967 0.003249107 0.99999475
0.98935825 -0.14550003 0.17150272 0.98518366 0.0037132632 0.9999931 0.4121185 -0.91113025
0.19268642 0.98126036 0.0041774185 0.9999913 -0.5440211 -0.8390715 0.21378069 0.9768817
0.004641573 0.9999892 -0.9999902 0.004425698 0.23477572 0.9720496 0.0051057264 0.99998695
-0.53657293 0.84385395 0.2556618 0.9667663 0.005569879 0.9999845 0.42016703 0.9074468
0.2764292 0.9610343 0.00603403 0.9999818 0.9906074 0.13673721 0.2970683 0.9548562
0.00649818 0.9999789 0.65028787 -0.7596879 0.31756952 0.948235 0.006962328 0.99997574
-0.2879033 -0.9576595 0.33792335 0.9411736 0.007426475 0.9999724 -0.96139747 -0.27516335
0.35812032 0.93367547 0.00789062 0.9999689 -0.75098723 0.6603167 0.37815112 0.9257439
0.008354764 0.9999651 0.1498772 0.9887046 0.39800635 0.91738266 0.008818906 0.99996114
0.9129453 0.40808207 0.41767687 0.9085956 0.009283046 0.9999569 0.8366556 -0.54772925
0.43715352 0.8993869 0.009747184 0.9999525 -0.008851309 -0.99996084 0.45642728 0.88976073
0.01021132 0.99994785 -0.8462204 -0.53283304 0.4754892 0.8797216 0.010675454 0.999943
-0.9055784 0.42417902 0.49433038 0.86927414 0.011139586 0.99993795 -0.13235176 0.99120283
0.5129422 0.8584232 0.011603714 0.99993265 0.76255846 0.6469193 0.53131586 0.8471738
0.01206784 0.99992716 0.95637596 -0.29213881 0.54944295 0.83553123 0.012531964 0.9999215
0.2709058 -0.9626059 0.56731504 0.8235009 0.012996085 0.99991554 -0.6636339 -0.74805754
0.5849238 0.81108826 0.013460204 0.9999094 -0.9880316 0.15425146 0.60226107 0.7982992
0.013924319 0.9999031 -0.40403765 0.91474235 0.61931884 0.7851396 0.014388432 0.99989647
0.5514267 0.83422333 0.6360891 0.7716156 0.0148525415 0.9998897 0.99991184 -0.013276747
0.65256417 0.75773346 0.0153166475 0.9998827 0.5290827 -0.8485703 0.6687363 0.74349964
0.015780749 0.9998755 -0.42818266 -0.9036922 0.68459815 0.7289207 0.01624485 0.99986804
-0.99177885 -0.12796369 0.70014215 0.7140035 0.016708946 0.9998604 -0.6435381 0.76541406
0.7153612 0.69875485 0.017173039 0.99985254 0.29636857 0.95507365 0.7302482 0.6831819
0.017637126 0.99984443 0.96379536 0.26664293 0.74479634 0.6672919 0.018101212 0.99983615
0.74511313 -0.66693807 0.75899875 0.65109205 0.018565292 0.9998276 -0.15862267 -0.98733926
0.7728489 0.6345901 0.01902937 0.9998189 -0.91652155 -0.3999853 0.7863403 0.6177936

encoder.blocks.1.q_proj.weight f4 [6, 6]
00000000: 64d7 1d3d 83eb edbc 7960 eabe 2963 1a3f
00000010: 4fa0 33bc 624d 45be 2360 ce3e d691 003e
00000020: 3966 06bf 5a2f 153f 2676 823e 19ce d5be
00000030: facd d5bd aa1e 10bd 9eec 9bbe 5e45 f7bc
00000040: fcc7 853c 9eb1 7dbe 2bb1 703e 0c49 f83d
00000050: 1c84 563f 5d4f 2dbf 463b 57bd 0b76 563d
00000060: 678e debd 32a9 d53d 33dc 8e3e 802e f4bd
00000070: cc1a 03bd 66ed 2d3e 7e75 16bf 5934 f2be
00000080: 104c c5bd 760d bf3e a9a1 fd3e 12b4 203f
0.03853549 -0.029042965 -0.45776728 0.60307556 -0.0109635135 -0.192678 0.40307721 0.12555632
-0.5249973 0.5827538 0.25480765 -0.41758803 -0.104396775 -0.035185494 -0.30453962 -0.030184444
0.016330712 -0.24774787 0.23505084 0.121233076 0.8379533 -0.67699224 -0.052546762 0.05235867
-0.10867005 0.10432662 0.27902374 -0.11922932 -0.032007977 0.16985092 -0.5877303 -0.47305563
-0.096336484 0.37314957 0.495374 0.62774765

encoder.blocks.1.k_proj.weight f4 [6, 6]
00000000: fada bbbe 6ef9 09be 79ab f6be a75d c63e
00000010: 47b3 3b3e 7266 5e3e 44af 0c3f ed73 9bbe
00000020: aeff debe 6fe2 453f e7ec 8e3e f325 debd
00000030: bb0e 17be 8bd7 21be 6028 99bd 650a 303e
00000040: 3391 b4bd 5db6 09be b350 02bd d3b3 a4be
00000050: d8c6 e83e 827e b23d 99b1 29bf f8e6 61bd
00000060: 7a1f 04be 2dcd 3a3e e9fa 793c 707c f3bc
00000070: 4cf7 25be ca29 9b3e 5589 22bf adf8 673e
00000080: 4459 8cbe f6bd 31bf 1855 963e 8994 913e
-0.36690503 -0.13474056 -0.48177698 0.38743326 0.18330108 0.21718767 0.54954934 -0.30361882
-0.43554443 0.77298635 0.27915117 -0.10847082 -0.14751713 -0.1580488 -0.07478404 0.17191465
-0.08816757 -0.13448472 -0.031815242 -0.32168445 0.45464206 0.08715536 -0.6628662 -0.05515191
-0.12902632 0.18242331 0.015257576 -0.029722422 -0.16207618 0.3030532 -0.634908 0.22653456
-0.27411854 -0.6943048 0.29361796 0.28433636

encoder.blocks.1.v_proj.weight f4 [6, 6]
00000000: d099 0a3e e67c 403f e942 37bc a79c 93be
00000010: 4209 fd3d a1f5 de3b c0be 263e 6c61 31bf
00000020: ae48 6dbf 2562 0c3e a556 8abe 9461 203e
00000030: 702d d53e bd13 983d 3b82 173f 3aca ea3d
00000040: f7d1 df3e 7690 503e 9e91 dabe 8b73 69bd
00000050: 35f6 01be 9ce1 0b3f e758 c33e a987 033f
00000060: 82f7 01bf 1e9d d53d fd23 a63e fd25 00be
00000070: 4659 da3e 6aa9 7cbe 5984 5a3e f49b 40be
00000080: 8c59 fd3d 408a babe af34 0abd e358 28bf
0.13535237 0.7519058 -0.011185386 -0.28830454 0.123552814 0.0068041836 0.16283703 -0.6928928
-0.92689025 0.13709314 -0.2701923 0.15662223 0.4163623 0.0742564 0.5918309 0.11464353
0.43714878 0.20367607 -0.42689222 -0.056994956 -0.12691577 0.5464113 0.38153765 0.51378876
-0.5076829 0.10430358 0.32449332 -0.12514491 0.42646235 -0.24674001 0.21339549 -0.18809491
0.12370595 -0.364336 -0.03374165 -0.6576063

encoder.blocks.1.layernorm_1.weight f4 [6]
00000000: f04b 663f 982f 473f 22b5 183f 52b2 733f
00000010: 510f 0e3e 6a7b 2c3f
0.8995962 0.77807 0.59651387 0.9519397 0.1387303 0.67375815

encoder.blocks.1.layernorm_1.bias f4 [6]
00000000: e684 ecbe b1cc f53e 9d24 c1be de68 ffbe
00000010: 4436 cf3e bb28 b83e
-0.46195143 0.4800773 -0.37723246 -0.49884695 0.4047109 0.35968575

encoder.blocks.1.layernorm_2.weight f4 [6]
00000000: b493 d63e 4c94 c83e 5338 a03f 7da7 963f
00000010: b1c8 163f 2174 273f
0.41909564 0.39175642 1.2517189 1.1769863 0.5889998 0.65411574

encoder.blocks.1.layernorm_2.bias f4 [6]
00000000: a68d e6be 4d36 f7be 7779 e93e 8456 5bbe
00000010: 4921 04be a4eb 353f
-0.45029944 -0.48283616 0.45600483 -0.21419722 -0.12903322 0.71062684

encoder.blocks.1.pos_embed.pe f4 [1, 625, 6]
00000000: 0000 0000 0000 803f 0000 0000 0000 803f
00000010: 0000 0000 0000 803f a46a 573f 4151 0a3f
00000020: 477a b03c caf0 7f3f 5c5a f339 feff 7f3f
00000030: b7c7 683f 3311 d5be cb6f 303d 2cc3 7f3f
00000040: 5b5a 733a f9ff 7f3f c381 103e 2670 7dbf
00000050: bd46 843d 2977 7f3f c283 b63a f0ff 7f3f
00000060: cfbd 41bf 3055 27bf df45 b03d cc0c 7f3f
00000070: 545a f33a e3ff 7f3f 107c 75bf 2c3c 913e
00000080: 0e30 dc3d 2184 7e3f 7118 183b d3ff 7f3f
00000090: 8c0f 8fbe b8cd 753f 0900 043e 38dd 7d3f
000000a0: b783 363b bfff 7f3f 4630 283f bdff 403f
000000b0: 5dd8 193e 2518 7d3f f8ee 543b a8ff 7f3f
000000c0: 9546 7d3f f6fd 14be 699e 2f3e ff34 7c3f
000000d0: 385a 733b 8cff 7f3f 3201 d33e d53f 69bf
000000e0: 974f 453e e133 7b3f bae2 883b 6eff 7f3f
000000f0: f844 0bbf 64cd 56bf 53e9 5a3e eb14 7a3f
00000100: 5618 983b 4bff 7f3f 5cff 7fbf 7205 913b
00000110: 0c69 703e 3ed8 783f f04d a73b 25ff 7f3f
00000120: d85c 09bf d006 583f 1ae6 823e ff7d 773f
00000130: 8883 b63b fcfe 7f3f 2220 d73e 6f4e 683f
00000140: 2188 8d3e 5806 763f 1db9 c53b cffe 7f3f
00000150: 7298 7d3f d704 0c3e 5619 983e 7571 743f
00000160: afee d43b 9efe 7f3f 4479 263f e87a 42bf
00000170: 7998 a23e 87bf 723f 3e24 e43b 69fe 7f3f
00000180: 1068 93be 2c29 75bf 4a04 ad3e c1f0 703f
00000190: ca59 f33b 31fe 7f3f 251e 76bf 36e2 8cbe
000001a0: 8c5b b73e 5b05 6f3f a947 013c f6fd 7f3f
000001b0: b340 40bf 840a 293f 069d c13e 8dfd 6c3f
000001c0: 6ce2 083c b6fd 7f3f 6979 193e bf1b 7d3f
000001d0: 7dc7 cb3e 97d9 6a3f 2c7d 103c 74fd 7f3f
000001e0: c8b6 693f 22f0 d03e bed9 d53e b999 683f
000001f0: eb17 183c 2dfd 7f3f 102f 563f fc37 0cbf
00000200: 96d2 df3e 383e 663f a7b2 1f3c e3fc 7f3f
00000210: 1505 11bc 6ffd 7fbf d6b0 e93e 5cc7 633f
00000220: 614d 273c 95fc 7f3f e6a1 58bf bf67 08bf
00000230: 5273 f33e 6f35 613f 19e8 2e3c 44fc 7f3f
00000240: fcd3 67bf fe2d d93e df18 fd3e c088 5e3f
00000250: cf82 363c effb 7f3f 3887 07be 78bf 7d3f
00000260: 2e50 033f 9fc1 5b3f 811d 3e3c 96fb 7f3f
00000270: 0837 433f 819c 253f 5104 083f 62e0 583f
00000280: 31b8 453c 3afb 7f3f 0ed5 743f 3893 95be
00000290: 4ba8 0c3f 60e5 553f de52 4d3c dbfa 7f3f
000002a0: 2ab4 8a3e 576d 76bf 8f3b 113f f4d0 523f
000002b0: 88ed 543c 77fa 7f3f e9e3 29bf b380 3fbf
000002c0: 91bd 153f 7ba3 4f3f 3088 5c3c 10fa 7f3f
000002d0: a4ef 7cbf 18f4 1d3e c82d 1a3f 565d 4c3f
000002e0: d422 643c a6f9 7f3f 06de cebe 8e2c 6a3f
000002f0: ae8b 1e3f e9fe 483f 75bd 6b3c 37f9 7f3f
00000300: 4d2a 0d3f a98f 553f bcd6 223f 9a88 453f
00000310: 1358 733c c5f8 7f3f 39fa 7f3f b786 59bc
00000320: 720e 273f d2fa 413f adf2 7a3c 50f8 7f3f
00000330: f771 073f e73b 59bf 4d32 2b3f fe55 3e3f
00000340: a146 813c d7f7 7f3f c23a dbbe 5f58 67bf
00000350: d341 2f3f 8c9a 3a3f eb13 853c 5af7 7f3f
00000360: 38e5 7dbf ea08 03be 843c 333f efc8 363f
00000370: 33e1 883c daf6 7f3f eabe 24bf 2df2 433f
00000380: e921 373f 99e1 323f 79ae 8c3c 56f6 7f3f
00000390: 9fbd 973e b57f 743f 8cf1 3a3f 02e5 2e3f
000003a0: bc7b 903c cef5 7f3f 4bbb 763f 6c85 883e
000003b0: f9aa 3e3f a4d3 2a3f fe48 943c 43f5 7f3f
000003c0: bcbf 3e3f 74bc 2abf be4d 423f f8ad 263f
000003d0: 3d16 983c b4f4 7f3f fb6d 22be 44c2 7cbf
000003e0: 6dd9 453f 7f74 223f 7be3 9b3c 22f4 7f3f
000003f0: 28a1 6abf e0ca ccbe 994d 493f b927 1e3f
0.0 1.0 0.0 1.0 0.0 1.0 0.84147096 0.54030234
0.021542681 0.9997679 0.00046415895 0.9999999 0.9092974 -0.41614684 0.043075364 0.99907184
0.00092831784 0.9999996 0.14112 -0.9899925 0.06458805 0.997912 0.0013924765 0.99999905
-0.7568025 -0.6536436 0.08607077 0.996289 0.0018566349 0.9999983 -0.9589243 0.2836622
0.10751353 0.9942036 0.0023207928 0.9999973 -0.2794155 0.96017027 0.12890638 0.9916568
0.0027849504 0.9999961 0.6569866 0.75390226 0.15023942 0.98864967 0.003249107 0.99999475
0.98935825 -0.14550003 0.17150272 0.98518366 0.0037132632 0.9999931 0.4121185 -0.91113025
0.19268642 0.98126036 0.0041774185 0.9999913 -0.5440211 -0.8390715 0.21378069 0.9768817
0.004641573 0.9999892 -0.9999902 0.004425698 0.23477572 0.9720496 0.0051057264 0.99998695
-0.53657293 0.84385395 0.2556618 0.9667663 0.005569879 0.9999845 0.42016703 0.9074468
0.2764292 0.9610343 0.00603403 0.9999818 0.9906074 0.13673721 0.2970683 0.9548562
0.00649818 0.9999789 0.65028787 -0.7596879 0.31756952 0.948235 0.006962328 0.99997574
-0.2879033 -0.9576595 0.33792335 0.9411736 0.007426475 0.9999724 -0.96139747 -0.27516335
0.35812032 0.93367547 0.00789062 0.9999689 -0.75098723 0.6603167 0.37815112 0.9257439
0.008354764 0.9999651 0.1498772 0.9887046 0.39800635 0.91738266 0.008818906 0.99996114
0.9129453 0.40808207 0.41767687 0.9085956 0.009283046 0.9999569 0.8366556 -0.54772925
0.43715352 0.8993869 0.009747184 0.9999525 -0.008851309 -0.99996084 0.45642728 0.88976073
0.01021132 0.99994785 -0.8462204 -0.53283304 0.4754892 0.8797216 0.010675454 0.999943
-0.9055784 0.42417902 0.49433038 0.86927414 0.011139586 0.99993795 -0.13235176 0.99120283
0.5129422 0.8584232 0.011603714 0.99993265 0.76255846 0.6469193 0.53131586 0.8471738
0.01206784 0.99992716 0.95637596 -0.29213881 0.54944295 0.83553123 0.012531964 0.9999215
0.2709058 -0.9626059 0.56731504 0.8235009 0.012996085 0.99991554 -0.6636339 -0.74805754
0.5849238 0.81108826 0.013460204 0.9999094 -0.9880316 0.15425146 0.60226107 0.7982992
0.013924319 0.9999031 -0.40403765 0.91474235 0.61931884 0.7851396 0.014388432 0.99989647
0.5514267 0.83422333 0.6360891 0.7716156 0.0148525415 0.9998897 0.99991184 -0.013276747
0.65256417 0.75773346 0.0153166475 0.9998827 0.5290827 -0.8485703 0.6687363 0.74349964
0.015780749 0.9998755 -0.42818266 -0.9036922 0.68459815 0.7289207 0.01624485 0.99986804
-0.99177885 -0.12796369 0.70014215 0.7140035 0.016708946 0.9998604 -0.6435381 0.76541406
0.7153612 0.69875485 0.017173039 0.99985254 0.29636857 0.95507365 0.7302482 0.6831819
0.017637126 0.99984443 0.96379536 0.26664293 0.74479634 0.6672919 0.018101212 0.99983615
0.74511313 -0.66693807 0.75899875 0.65109205 0.018565292 0.9998276 -0.15862267 -0.98733926
0.7728489 0.6345901 0.01902937 0.9998189 -0.91652155 -0.3999853 0.7863403 0.6177936

encoder.blocks.2.q_proj.weight f4 [6, 6]
00000000: d0ee 003e c4b1 4bbe 91a0 113d 5346 0fbd
00000010: a539 433d c66b dbbe 607a 243e 1b88 acbc
00000020: d04b ef3e a799 82be 600e 57be 54ac a93d
00000030: 26c6 adbd cd5b 6d3e 1ba2 5ebd 665a 66be
00000040: 6ed2 3ebd f2f1 9ebe aff6 363e 61ec fa3d
00000050: 4338 0b3d 5c63 b03e 3970 50be b1fa 27be
00000060: 8693 20be 9475 263e c45c 63be 7b3e b9be
00000070: 4b60 8abe c8be 98bd 3a4c 503e f46a 0f3d
00000080: 04b5 873e 9679 a33e e1c2 d1be 8674 f23d
0.125911 -0.19892031 0.03555352 -0.034979176 0.047662396 -0.42855662 0.16062307 -0.021060994
0.46737528 -0.25507852 -0.21001577 0.08284822 -0.084850594 0.2317955 -0.054353815 -0.22495422
-0.0465874 -0.31043965 0.1786754 0.12252117 0.033989202 0.34450805 -0.2035531 -0.16404225
-0.15681276 0.1625579 -0.22203356 -0.3618048 -0.2702659 -0.07458264 0.20341578 0.035014108
0.2650529 0.319287 -0.40968993 0.11838631

encoder.blocks.2.k_proj.weight f4 [6, 6]
00000000: 2c8b 92bd 5db0 c43c 2bd3 403e 97a4 9cbc
00000010: 21e5 703e 0855 9c3d 8155 1e3d ebb2 d93d
00000020: 1d3f d33e 709a eb3e 316e d33c b384 d0be
00000030: fcc0 d23d 079b 65bd 3970 9f3d bac6 d5bd
00000040: 7c22 c23e 0d6c 253d 45b9 e1bd f90c 873d
00000050: 2694 753e b692 b43d 8706 4dbd 160c 973e
00000060: bf30 b13c 7dcb f83d 59f1 35bd 11f7 0bbd
00000070: 1293 943e e95c 4bbd 5609 92be 7a0b 97be
00000080: 77e4 993e 3bcd 933e 8dc1 a63c 9ea2 8fbe
-0.07155451 0.024009878 0.18830554 -0.019121451 0.23524906 0.07633406 0.03865576 0.10629829
0.4125909 0.46016264 0.02580938 -0.4072624 0.10290715 -0.05605605 0.07785077 -0.10438295
0.37916934 0.04038625 -0.110216655 0.06594271 0.23982295 0.088170454 -0.050055053 0.29501408
0.02162969 0.12148187 -0.04441962 -0.034171168 0.29018456 -0.049649153 -0.28522748 -0.29500943
0.30057117 0.28867516 0.020355964 -0.28053755

encoder.blocks.2.v_proj.weight f4 [6, 6]
00000000: bbeb 55be 5aa4 b7be a587 77be 66ce fcbd
00000010: fe68 7cbd 9faf b3bd 73ed 26be b83a 21be
00000020: 07cc 073e 7e46 f93e 0b4b 873e d44d d13e
00000030: 5d8c 33be 52c5 683e 8735 493e a0c6 c0bd
00000040: d790 803c e910 4fbd 6207 bfbd 9cdd 4e3e
00000050: 5b7f 303e 0b99 34be 0007 f63e eefa 453e
00000060: d6bb 873e 9a33 c33e 773e ddbd b643 e63e
00000070: 6237 c13d a087 f03e 352a e93e 8d8e e1bd
00000080: 2675 91bd 9d91 e9bd c0b4 d63b 0e24 743e
-0.20890705 -0.35867578 -0.24172838 -0.12344055 -0.061623566 -0.087737314 -0.16301517 -0.15745056
0.13261424 0.48686594 0.2642444 0.4087969 -0.17534013 0.22731522 0.19649325 -0.09412885
0.015694065 -0.050553236 -0.0932758 0.20201725 0.17236082 -0.17636506 0.48052216 0.19334003
0.26510495 0.38125306 -0.1080293 0.44973534 0.094343916 0.46978474 0.45540014 -0.110135175
-0.071024224 -0.11404727 0.006552309 0.23841879

encoder.blocks.2.layernorm_1.weight f4 [6]
00000000: 1625 f73e 6eda 463e 023d 683f 614e 5a3f
00000010: ed5c d43e 7619 7f3f
0.48270482 0.19419262 0.9071809 0.85275847 0.41477147 0.99648225

encoder.blocks.2.layernorm_1.bias f4 [6]
00000000: 6e56 cabd 25c6 09be 038a f73e fdb6 f93e
00000010: fe56 27be a906 01bf
-0.098797664 -0.13454492 0.48347482 0.4877242 -0.16341779 -0.5040079

encoder.blocks.2.layernorm_2.weight f4 [6]
00000000: 8795 6abe 8d84 483e 3e7d 803e a308 663f
00000010: 8843 313d 72b2 4b3f
-0.22908603 0.19581814 0.25095552 0.8985693 0.043277293 0.7956916

encoder.blocks.2.layernorm_2.bias f4 [6]
00000000: 9d09 78bd 4f26 07bc 484d 75be cf78 003e
00000010: d8c1 b93d 67a4 0dbd
-0.060556043 -0.00824888 -0.23955262 0.12546085 0.09070176 -0.034580614

encoder.blocks.2.pos_embed.pe f4 [1, 625, 6]
00000000: 0000 0000 0000 803f 0000 0000 0000 803f
00000010: 0000 0000 0000 803f a46a 573f 4151 0a3f
00000020: 477a b03c caf0 7f3f 5c5a f339 feff 7f3f
00000030: b7c7 683f 3311 d5be cb6f 303d 2cc3 7f3f
00000040: 5b5a 733a f9ff 7f3f c381 103e 2670 7dbf
00000050: bd46 843d 2977 7f3f c283 b63a f0ff 7f3f
00000060: cfbd 41bf 3055 27bf df45 b03d cc0c 7f3f
00000070: 545a f33a e3ff 7f3f 107c 75bf 2c3c 913e
00000080: 0e30 dc3d 2184 7e3f 7118 183b d3ff 7f3f
00000090: 8c0f 8fbe b8cd 753f 0900 043e 38dd 7d3f
000000a0: b783 363b bfff 7f3f 4630 283f bdff 403f
000000b0: 5dd8 193e 2518 7d3f f8ee 543b a8ff 7f3f
000000c0: 9546 7d3f f6fd 14be 699e 2f3e ff34 7c3f
000000d0: 385a 733b 8cff 7f3f 3201 d33e d53f 69bf
000000e0: 974f 453e e133 7b3f bae2 883b 6eff 7f3f
000000f0: f844 0bbf 64cd 56bf 53e9 5a3e eb14 7a3f
00000100: 5618 983b 4bff 7f3f 5cff 7fbf 7205 913b
00000110: 0c69 703e 3ed8 783f f04d a73b 25ff 7f3f
00000120: d85c 09bf d006 583f 1ae6 823e ff7d 773f
00000130: 8883 b63b fcfe 7f3f 2220 d73e 6f4e 683f
00000140: 2188 8d3e 5806 763f 1db9 c53b cffe 7f3f
00000150: 7298 7d3f d704 0c3e 5619 983e 7571 743f
00000160: afee d43b 9efe 7f3f 4479 263f e87a 42bf
00000170: 7998 a23e 87bf 723f 3e24 e43b 69fe 7f3f
00000180: 1068 93be 2c29 75bf 4a04 ad3e c1f0 703f
00000190: ca59 f33b 31fe 7f3f 251e 76bf 36e2 8cbe
000001a0: 8c5b b73e 5b05 6f3f a947 013c f6fd 7f3f
000001b0: b340 40bf 840a 293f 069d c13e 8dfd 6c3f
000001c0: 6ce2 083c b6fd 7f3f 6979 193e bf1b 7d3f
000001d0: 7dc7 cb3e 97d9 6a3f 2c7d 103c 74fd 7f3f
000001e0: c8b6 693f 22f0 d03e bed9 d53e b999 683f
000001f0: eb17 183c 2dfd 7f3f 102f 563f fc37 0cbf
00000200: 96d2 df3e 383e 663f a7b2 1f3c e3fc 7f3f
00000210: 1505 11bc 6ffd 7fbf d6b0 e93e 5cc7 633f
00000220: 614d 273c 95fc 7f3f e6a1 58bf bf67 08bf
00000230: 5273 f33e 6f35 613f 19e8 2e3c 44fc 7f3f
00000240: fcd3 67bf fe2d d93e df18 fd3e c088 5e3f
00000250: cf82 363c effb 7f3f 3887 07be 78bf 7d3f
00000260: 2e50 033f 9fc1 5b3f 811d 3e3c 96fb 7f3f
00000270: 0837 433f 819c 253f 5104 083f 62e0 583f
00000280: 31b8 453c 3afb 7f3f 0ed5 743f 3893 95be
00000290: 4ba8 0c3f 60e5 553f de52 4d3c dbfa 7f3f
000002a0: 2ab4 8a3e 576d 76bf 8f3b 113f f4d0 523f
000002b0: 88ed 543c 77fa 7f3f e9e3 29bf b380 3fbf
000002c0: 91bd 153f 7ba3 4f3f 3088 5c3c 10fa 7f3f
000002d0: a4ef 7cbf 18f4 1d3e c82d 1a3f 565d 4c3f
000002e0: d422 643c a6f9 7f3f 06de cebe 8e2c 6a3f
000002f0: ae8b 1e3f e9fe 483f 75bd 6b3c 37f9 7f3f
00000300: 4d2a 0d3f a98f 553f bcd6 223f 9a88 453f
00000310: 1358 733c c5f8 7f3f 39fa 7f3f b786 59bc
00000320: 720e 273f d2fa 413f adf2 7a3c 50f8 7f3f
00000330: f771 073f e73b 59bf 4d32 2b3f fe55 3e3f
00000340: a146 813c d7f7 7f3f c23a dbbe 5f58 67bf
00000350: d341 2f3f 8c9a 3a3f eb13 853c 5af7 7f3f
00000360: 38e5 7dbf ea08 03be 843c 333f efc8 363f
00000370: 33e1 883c daf6 7f3f eabe 24bf 2df2 433f
00000380: e921 373f 99e1 323f 79ae 8c3c 56f6 7f3f
00000390: 9fbd 973e b57f 743f 8cf1 3a3f 02e5 2e3f
000003a0: bc7b 903c cef5 7f3f 4bbb 763f 6c85 883e
000003b0: f9aa 3e3f a4d3 2a3f fe48 943c 43f5 7f3f
000003c0: bcbf 3e3f 74bc 2abf be4d 423f f8ad 263f
000003d0: 3d16 983c b4f4 7f3f fb6d 22be 44c2 7cbf
000003e0: 6dd9 453f 7f74 223f 7be3 9b3c 22f4 7f3f
000003f0: 28a1 6abf e0ca ccbe 994d 493f b927 1e3f
0.0 1.0 0.0 1.0 0.0 1.0 0.84147096 0.54030234
0.021542681 0.9997679 0.00046415895 0.9999999 0.9092974 -0.41614684 0.043075364 0.99907184
0.00092831784 0.9999996 0.14112 -0.9899925 0.06458805 0.997912 0.0013924765 0.99999905
-0.7568025 -0.6536436 0.08607077 0.996289 0.0018566349 0.9999983 -0.9589243 0.2836622
0.10751353 0.9942036 0.0023207928 0.9999973 -0.2794155 0.96017027 0.12890638 0.9916568
0.0027849504 0.9999961 0.6569866 0.75390226 0.15023942 0.98864967 0.003249107 0.99999475
0.98935825 -0.14550003 0.17150272 0.98518366 0.0037132632 0.9999931 0.4121185 -0.91113025
0.19268642 0.98126036 0.0041774185 0.9999913 -0.5440211 -0.8390715 0.21378069 0.9768817
0.004641573 0.9999892 -0.9999902 0.004425698 0.23477572 0.9720496 0.0051057264 0.99998695
-0.53657293 0.84385395 0.2556618 0.9667663 0.005569879 0.9999845 0.42016703 0.9074468
0.2764292 0.9610343 0.00603403 0.9999818 0.9906074 0.13673721 0.2970683 0.9548562
0.00649818 0.9999789 0.65028787 -0.7596879 0.31756952 0.948235 0.006962328 0.99997574
-0.2879033 -0.9576595 0.33792335 0.9411736 0.007426475 0.9999724 -0.96139747 -0.27516335
0.35812032 0.93367547 0.00789062 0.9999689 -0.75098723 0.6603167 0.37815112 0.9257439
0.008354764 0.9999651 0.1498772 0.9887046 0.39800635 0.91738266 0.008818906 0.99996114
0.9129453 0.40808207 0.41767687 0.9085956 0.009283046 0.9999569 0.8366556 -0.54772925
0.43715352 0.8993869 0.009747184 0.9999525 -0.008851309 -0.99996084 0.45642728 0.88976073
0.01021132 0.99994785 -0.8462204 -0.53283304 0.4754892 0.8797216 0.010675454 0.999943
-0.9055784 0.42417902 0.49433038 0.86927414 0.011139586 0.99993795 -0.13235176 0.99120283
0.5129422 0.8584232 0.011603714 0.99993265 0.76255846 0.6469193 0.53131586 0.8471738
0.01206784 0.99992716 0.95637596 -0.29213881 0.54944295 0.83553123 0.012531964 0.9999215
0.2709058 -0.9626059 0.56731504 0.8235009 0.012996085 0.99991554 -0.6636339 -0.74805754
0.5849238 0.81108826 0.013460204 0.9999094 -0.9880316 0.15425146 0.60226107 0.7982992
0.013924319 0.9999031 -0.40403765 0.91474235 0.61931884 0.7851396 0.014388432 0.99989647
0.5514267 0.83422333 0.6360891 0.7716156 0.0148525415 0.9998897 0.99991184 -0.013276747
0.65256417 0.75773346 0.0153166475 0.9998827 0.5290827 -0.8485703 0.6687363 0.74349964
0.015780749 0.9998755 -0.42818266 -0.9036922 0.68459815 0.7289207 0.01624485 0.99986804
-0.99177885 -0.12796369 0.70014215 0.7140035 0.016708946 0.9998604 -0.6435381 0.76541406
0.7153612 0.69875485 0.017173039 0.99985254 0.29636857 0.95507365 0.7302482 0.6831819
0.017637126 0.99984443 0.96379536 0.26664293 0.74479634 0.6672919 0.018101212 0.99983615
0.74511313 -0.66693807 0.75899875 0.65109205 0.018565292 0.9998276 -0.15862267 -0.98733926
0.7728489 0.6345901 0.01902937 0.9998189 -0.91652155 -0.3999853 0.7863403 0.6177936

classifier.weight f4 [2, 4]
00000000: 8c34 1dbf 3cbe f6bd f7b0 67bd 7063 d540
00000010: b029 3bbe efcb ea3d e209 8fbe 44d0 bdc0
-0.61408305 -0.12048003 -0.05656525 6.6683884 -0.18277621 0.114646785 -0.27937227 -5.931673
