1d_z2_lgt/experiments/my_exp/model_final.pt (torch, 101878 bytes, 16 tensors)

embedding.pos_embed f4 [1, 8, 12]
0	0x3e05fdb2	0.13085058
1	0xbd352318	-0.04422292
2	0x3c7a917a	0.015293473
3	0x3bc736ec	0.0060795452
4	0x3ce4e17b	0.027939549
5	0xbd4ab4d9	-0.049488876
6	0x3cd33211	0.02578071
7	0x3dd06e5c	0.101772994
8	0xbd202371	-0.0390963
9	0x3d1e54e6	0.038655184
10	0x3cf380a7	0.029724432
11	0xbd840fb5	-0.064483084
12	0x3e08a205	0.13343056
13	0x3dd343ad	0.103156425
14	0xbe5b95ff	-0.21443938
15	0x3ccd7cbc	0.025083892
16	0xbd3e72fa	-0.04649637
17	0x3a93cf6e	0.0011277029
18	0x3d68ba91	0.05681855
19	0x3bc9d65e	0.0061595878
20	0xbd79a053	-0.060943913
21	0x3ccd852e	0.02508792
22	0x3c0452a7	0.0080763465
23	0x3db269e8	0.08711606
24	0x3ee1f4b8	0.44132018
25	0x3ca0d6a5	0.0196336
26	0xbcd816da	-0.026378084
27	0x3dc481fa	0.095951036
28	0x3e1cfcb4	0.15330774
29	0xbdaaba7e	-0.08336352
30	0xbd892dae	-0.06698166
31	0x3e2b2d5e	0.16716525
32	0xbd87e64a	-0.06635721
33	0xbc4d3b40	-0.012526333
34	0x3e1c978c	0.15292186
35	0x3db48f27	0.08816367
36	0xbe44032f	-0.1914184
37	0x3c8dec25	0.017324517
38	0xbdb38732	-0.08766021
39	0x3d352387	0.044223335
40	0xbac0197c	-0.0014656032
41	0x3cfd4874	0.030918337
42	0xbca38962	-0.01996297
43	0xbd9ad736	-0.075605795
44	0xbd916fb6	-0.07101385
45	0xbd6db1d8	-0.058030933
46	0xbde243fe	-0.11048125
47	0x3d647be8	0.05578223
48	0x3cd5c831	0.026096435
49	0xbd4a9760	-0.04946077
50	0xbd64bf1a	-0.05584631
51	0x3d65519f	0.055986043
52	0x3cf26482	0.029588941
53	0xbaa4c6a1	-0.0012571403
54	0x3dd5b117	0.10434168
55	0x3f32b83a	0.6981236
56	0xba99466e	-0.0011693963
57	0xbc9da08e	-0.019241598
58	0xbc60d00e	-0.013721479
59	0xbe678015	-0.22607453
60	0xbc5ecd42	-0.013598742
61	0x3fb5bb00	1.4197693
62	0xbce7e392	-0.028306756
63	0xbf92265f	-1.141796
64	0xbf81616d	-1.0107857
65	0xbd570034	-0.052490428
66	0xbf592313	-0.84819144
67	0xbcae3534	-0.021265604
68	0xbec76f47	-0.38952085
69	0x3f920f6f	1.141096
70	0xbd008928	-0.031380802
71	0xbf0e147a	-0.55499995
72	0x3d962942	0.07332088
73	0x3fb6c55f	1.4278983
74	0x3c8274bb	0.015924802
75	0x3e8c18e8	0.27362752
76	0xbf882bb0	-1.0638332
77	0x3bffc09f	0.0078049446
78	0x3edcf41c	0.4315499
79	0xbe9e8d52	-0.30967194
80	0x3f8b58f9	1.0886527
81	0xbf999877	-1.1999654
82	0x3bd2b3e0	0.006430134
83	0xbf52208c	-0.8208091
84	0x3e38659c	0.18007511
85	0xbd4d85a7	-0.05017629
86	0x3df2ca54	0.11854997
87	0x3cc38b3e	0.023870107
88	0x3c8a37ea	0.016872365
89	0xba75c48e	-0.0009375297
90	0x3d42bbda	0.04754243
91	0xbc75534c	-0.014973473
92	0x3c8518f0	0.016247243
93	0x3c8947c5	0.016757855
94	0xbcd74457	-0.026277704
95	0xbcab3168	-0.020897582

embedding.patch_embeddings.projection.weight f4 [12, 4]
0	0x3da02eb7	0.0782141
1	0xbe63a4e6	-0.22230873
2	0xbd9e978d	-0.0774375
3	0xbc1ab263	-0.009441945
4	0xbf718704	-0.9434664
5	0x3ca9309f	0.020653067
6	0xbce3efee	-0.027824368
7	0xbc314472	-0.010819541
8	0x3d12f79e	0.035880677
9	0xbcb17e02	-0.02166653
10	0xbd529a06	-0.05141642
11	0xbbd26160	-0.0064202994
12	0x3cb2847c	0.02179169
13	0xbf2f14b7	-0.68390983
14	0x3d68e9d0	0.056863606
15	0xbe41f6bb	-0.18941776
16	0x3b70dd5f	0.0036753041
17	0xbeeb4c48	-0.45956635
18	0x3cc15bae	0.023603287
19	0x3ee1b1b0	0.44080877
20	0xbd418d79	-0.04725406
21	0x3d087757	0.033316936
22	0xbd05d5e8	-0.0326747
23	0x3c921228	0.017830923
24	0x3d109d04	0.03530599
25	0x3c635712	0.01387574
26	0xbf72cccd	-0.9484375
27	0xbcb3b8e8	-0.021938756
28	0xbd0f6bb5	-0.035014827
29	0x3b273be5	0.0025517878
30	0xbf49070b	-0.7852637
31	0xbc5ca042	-0.013465943
32	0x3cf4a9d6	0.02986614
33	0xbe822e46	-0.2542593
34	0x3d808915	0.06276146
35	0xbf33bd2c	-0.7021053
36	0x3f4c1c4d	0.79730684
37	0x3c9911ee	0.018685307
38	0xbcbb5ce1	-0.022871437
39	0x3b756ba6	0.0037448197
40	0xbd12ec00	-0.0358696
41	0x3d9ff4a4	0.07810333
42	0x3d3b761e	0.045766942
43	0xbc11aba7	-0.008891023
44	0xbdc88886	-0.09791665
45	0x3c2fab40	0.0107219815
46	0xbf3dc7c1	-0.74132925
47	0x3c8758c0	0.016521811

encoder.blocks.0.q_proj.weight f4 [12, 12]
0	0x3eab7da9	0.3349431
1	0xbcaa27c5	-0.020770917
2	0xbee0d325	-0.4391109
3	0xbc1213da	-0.008915866
4	0xbbb8793c	-0.0056296866
5	0x3e6b1937	0.22958837
6	0x3ced31c3	0.028954392
7	0xbb937f00	-0.0045012236
8	0x3be6c870	0.007042937
9	0xbc8d280d	-0.017231012
10	0xbf30e23f	-0.69095224
11	0xba2189a4	-0.00061621726
12	0xbe077957	-0.13229881
13	0xbdcc722d	-0.09982715
14	0xbe4e6ff0	-0.20159888
15	0xbf10a655	-0.565038
16	0x3f25153e	0.6448554
17	0x3e18de82	0.1492863
18	0x3effa908	0.49933648
19	0xbf5a0b59	-0.85173565
20	0x3fd1e293	1.639727
21	0x3cab540f	0.020914106
22	0xbc86f07c	-0.016472094
23	0xbf849d57	-1.0360516
24	0x3eafca03	0.3433381
25	0xbc32e6c1	-0.010919274
26	0xbd0e0eb1	-0.03468198
27	0xbd638c30	-0.055553615
28	0x3d23691c	0.039895162
29	0x3e6be4e4	0.23036534
30	0x3ff4e7cd	1.913324
31	0x3fdc13cb	1.719354
32	0x3d8af5e8	0.06785184
33	0xbd085c30	-0.03329104
34	0xbd0281c9	-0.031862054
35	0x3e25560f	0.1614611
36	0x3f79cf1e	0.9758166
37	0x3c5b4664	0.013383482
38	0xbef687c5	-0.4815046
39	0x3ce0f7f5	0.027461985
40	0xbd9452a8	-0.07242328
41	0xbe538f18	-0.20660055
42	0xbba2dcb7	-0.004970159
43	0x3ca1c1b7	0.01974569
44	0xbdbad9df	-0.09123587
45	0xbad7fa7e	-0.0016477851
46	0x4004875a	2.0707612
47	0x3cc27acb	0.023740193
48	0xbe8e181f	-0.27752778
49	0xbd104761	-0.035224322
50	0xbebd4d17	-0.36972877
51	0xbcfb0f4b	-0.03064694
52	0xbadcca9c	-0.001684505
53	0x3e0fdc61	0.14048912
54	0xbd1f807d	-0.038940895
55	0x3c9a2382	0.01881576
56	0x3c4f90ef	0.012668832
57	0x3cd5d572	0.026102755
58	0xbf59b0d3	-0.8503544
59	0x3d171b60	0.03689134
60	0x3e43845d	0.19093461
61	0x3c9f0f58	0.019416496
62	0xbe346632	-0.1761711
63	0x3b73915a	0.0037165494
64	0xbd61ec9b	-0.055157285
65	0x3f0a920e	0.5412911
66	0xbc58942f	-0.0132189235
67	0x3cb68539	0.022280322
68	0xbda9026d	-0.08252416
69	0xbc5cf810	-0.013486877
70	0xbd855998	-0.06511229
71	0xbb507138	-0.0031805765
72	0xbe9f4463	-0.31106862
73	0x3d12601f	0.0357362
74	0xbe8e1240	-0.277483
75	0x3d8396e8	0.064252675
76	0x3d41cf09	0.047316585
77	0xbeccc734	-0.3999573
78	0x3d3c5807	0.045982387
79	0xbc86166f	-0.016368119
80	0xbc4a049e	-0.012330202
81	0xbc6f3212	-0.01459934
82	0xbeef176b	-0.46697554
83	0xbd5e77da	-0.054313518
84	0xbd719228	-0.058977276
85	0x3cbdc102	0.023163322
86	0xbbd93da0	-0.0066296607
87	0xbdbc981c	-0.092087
88	0x3d386f3d	0.04502796
89	0x3e33f8f6	0.1757544
90	0x3f84e21d	1.0381504
91	0xbfe1078d	-1.7580429
92	0x3dd6bedd	0.10485623
93	0xbd0b73c4	-0.03404595
94	0xbd47f6ae	-0.048819236
95	0x3fe28fe5	1.7700163
96	0x3d1550ab	0.036453884
97	0xbb0efa33	-0.002181661
98	0x3e33cdfc	0.17559046
99	0x3a45dfdd	0.0007548312
100	0x3c88b65d	0.01668852
101	0xbee8f71f	-0.45501038
102	0x3b821c6b	0.003970673
103	0xbc6e60cb	-0.014549444
104	0x3cdda799	0.027057456
105	0x3c9d6c57	0.0192167
106	0x3ec44c33	0.38339385
107	0xbc0a0b39	-0.008425527
108	0x3ea0260c	0.31279027
109	0xbcdf1822	-0.027233187
110	0x3f174b58	0.5909934
111	0x3eda2531	0.426065
112	0xbee6031b	-0.44924244
113	0xbe8a1ee2	-0.26976687
114	0x3f595752	0.84898865
115	0xbf9365d3	-1.1515449
116	0xbf9fecb8	-1.2494116
117	0x3cae47d9	0.021274494
118	0x3d38976c	0.045066282
119	0xbfb09cfd	-1.3797909
120	0xbf07b26b	-0.5300662
121	0x3c9561b4	0.018235065
122	0xbd8ae733	-0.06782379
123	0x3d42793d	0.047478903
124	0x3d27b77d	0.040946472
125	0xbf12441e	-0.5713519
126	0xbba53975	-0.00504225
127	0x3c3cb949	0.011518785
128	0x3bd15512	0.006388315
129	0x3cab941e	0.020944651
130	0x3f1fdce2	0.62446415
131	0xbcbda84a	-0.023151536
132	0xbd9ff69e	-0.0781071
133	0xbd0a087a	-0.03369949
134	0xbeb9976e	-0.36248344
135	0xbd355a38	-0.044275492
136	0xbd15e9fc	-0.036600098
137	0x3f52bdf9	0.82321125
138	0xbd4b1e99	-0.049589727
139	0x3c8a25cb	0.016863724
140	0xbcaef640	-0.021357656
141	0xba570b44	-0.0008203278
142	0x3e1947c7	0.14968787
143	0x3d4953f4	0.04915233

encoder.blocks.0.k_proj.weight f4 [12, 12]
0	0xbec0971c	-0.37615287
1	0xbcc348fe	-0.023838516
2	0x3dddfc64	0.10839155
3	0xbc72bab5	-0.014815022
4	0x3d14f4a3	0.036366116
5	0x3ebb4e57	0.36583206
6	0xbc805f8f	-0.015670566
7	0xbcd78e7a	-0.026313055
8	0xbb0892e9	-0.0020839518
9	0xbc6893e8	-0.01419542
10	0x3f591012	0.84790146
11	0xbc10dae6	-0.008841252
12	0xbd6ea48d	-0.058262397
13	0x3cde66bc	0.027148597
14	0x3cdc1750	0.026866585
15	0xbf0a2204	-0.53958154
16	0x3e9d23b1	0.30691293
17	0x3d78197d	0.060571183
18	0x3f15fc3b	0.58588
19	0xbecfe03d	-0.40600768
20	0x3f563670	0.83676815
21	0xbd3f54b9	-0.046711657
22	0x3e2325fb	0.15932457
23	0xbf9630f9	-1.1733695
24	0xbcd6eeae	-0.026236858
25	0xbd12e78b	-0.035865348
26	0xbe01d0bb	-0.1267728
27	0x3f281ebf	0.65671915
28	0x3ff68ad8	1.9261122
29	0xbdfee25b	-0.12445518
30	0x3b088216	0.002082949
31	0xbc95f0a3	-0.018303221
32	0xbf68a9c9	-0.9088407
33	0xbd2fc0cb	-0.04290847
34	0x3c5b9c03	0.013403895
35	0xbb8aefc4	-0.004240008
36	0xbd39e4fb	-0.04538439
37	0x3c641bd7	0.013922653
38	0x3dabb245	0.083836116
39	0x3d578a46	0.052622102
40	0xbc546612	-0.012963789
41	0xbf87a1d7	-1.0596265
42	0x3ce3bd27	0.027800156
43	0x3d6c1fae	0.0576474
44	0x3cdd64df	0.027025638
45	0xbc891e38	-0.016738042
46	0x3f5d082c	0.86340594
47	0x3cdc0a28	0.026860312
48	0x3c96319a	0.018334199
49	0x3a3e3418	0.00072556874
50	0xbf069d09	-0.52583367
51	0xbca4606c	-0.020065509
52	0x3ae04912	0.001711162
53	0x3dc0ec78	0.09420103
54	0xbc9557ad	-0.018230284
55	0xbd2d9a06	-0.042383216
56	0x3afe6a02	0.0019410255
57	0xb8f21cc0	-0.00011544814
58	0x3ea4fffc	0.3222655
59	0x3cf991f5	0.030465106
60	0xbea763a0	-0.32693195
61	0xbc1747da	-0.009233439
62	0x3f017f08	0.5058446
63	0x3d00b196	0.03141936
64	0x3c18c887	0.009325153
65	0xbe6705c1	-0.22560789
66	0xbbb31292	-0.0054648602
67	0x3d65bec8	0.056090146
68	0x3d59547f	0.053059097
69	0xbc010652	-0.007875042
70	0x3dffc270	0.12488258
71	0x3cf8d0c7	0.03037299
72	0x3e95e944	0.2927953
73	0x3dd88b94	0.105734974
74	0x3e9f0299	0.3105667
75	0x3b75e4fe	0.0037520523
76	0xbb4ceb4f	-0.0031268185
77	0x3d0c67cb	0.034278672
78	0x3ceddcf4	0.029036023
79	0x3d838a25	0.06422833
80	0x3c48ed4d	0.012263608
81	0xba84acb0	-0.0010122266
82	0x3f24c71b	0.6436631
83	0xbcb13efb	-0.021636477
84	0x3c0644f1	0.008195148
85	0xba444e2e	-0.00074884563
86	0xbb7271cc	-0.0036994098
87	0xbffdcad4	-1.9827523
88	0x3f4a26dc	0.78965545
89	0xbd31226c	-0.043245718
90	0x3b22b0ee	0.0024824697
91	0xbd63b643	-0.05559374
92	0xbf25c314	-0.6475079
93	0xbbfca536	-0.0077101244
94	0x3c8e42cf	0.017365841
95	0xbdc62aa8	-0.09676105
96	0x3e695d8c	0.22789592
97	0xbb9a86d7	-0.004715781
98	0xbee035f8	-0.43791175
99	0xbbf54419	-0.0074849245
100	0xbc9cbbc6	-0.019132506
101	0xbd978e50	-0.07400191
102	0x3c2c58a8	0.010519184
103	0xbc16af6d	-0.009197098
104	0xbccb3a59	-0.024808096
105	0xbb3113a6	-0.0027019768
106	0xbf0ab641	-0.5418435
107	0xbbe57eee	-0.0070036566
108	0xbdfcd4a5	-0.12345246
109	0x3d67444f	0.05646163
110	0x3d46a941	0.048501257
111	0xbf55d36f	-0.8352575
112	0x3ee0aa0b	0.43879732
113	0xbc721e7f	-0.014777779
114	0xbee2febc	-0.44334972
115	0x3ebd778c	0.3700527
116	0x3f8f45ea	1.1193211
117	0x3cef0bcc	0.02918043
118	0xbe492b39	-0.19645394
119	0x3f6067b9	0.8765827
120	0x3f276e30	0.6540251
121	0x3dd84fc4	0.10562089
122	0xbe19a21e	-0.15003249
123	0x3c51edb4	0.0128130205
124	0xbd138c26	-0.036022328
125	0xbecedfa4	-0.40405
126	0x3ccb1aab	0.02479299
127	0x3d49c15f	0.04925668
128	0x3b2ccbc8	0.002636658
129	0x3c198603	0.00937033
130	0xbe7bec6d	-0.24601908
131	0x3bdf46b0	0.0068138465
132	0xbe9c7fdb	-0.30566296
133	0xbd44c305	-0.048037548
134	0xbd354489	-0.044254813
135	0xba74d690	-0.00093398336
136	0x3c9e4747	0.019321097
137	0x3e398ae5	0.1811939
138	0xbcdba4ba	-0.026811946
139	0xbd03b8a2	-0.0321585
140	0x3c64e717	0.013971112
141	0x3bb4cac7	0.005517337
142	0x3d187869	0.037224207
143	0x3d056331	0.0325653

encoder.blocks.0.v_proj.weight f4 [12, 12]
0	0x3cff0be7	0.031133605
1	0x3d221769	0.039573107
2	0xbe33322c	-0.17499608
3	0x3e23f1c9	0.16010202
4	0xbee2ae26	-0.4427349
5	0xbd9db2c5	-0.07700113
6	0x3d786da4	0.060651436
7	0x3d76828c	0.060183093
8	0xbdafbc1f	-0.08580803
9	0xbdf4d23a	-0.1195416
10	0xbe2c97c8	-0.16854775
11	0x3dec2c7f	0.115319245
12	0xbc1b4e71	-0.009479151
13	0x3d490bff	0.049083706
14	0x3ccf6dbe	0.025320884
15	0x3dca7aaf	0.09886681
16	0xbe6c2c4d	-0.23063774
17	0xbe692797	-0.22769009
18	0x3e29f029	0.1659552
19	0xbdeb7be4	-0.1149824
20	0x3da0e522	0.078562036
21	0x3d3db01a	0.04631052
22	0x3ad5a4d0	0.0016299728
23	0x3e4bcf64	0.19903332
24	0x3d48c34e	0.049014382
25	0xbd38fbdd	-0.04516207
26	0x3e99463b	0.29936394
27	0x3e51a76e	0.20474026
28	0x3c5db216	0.0135312285
29	0xbe108f16	-0.14117083
30	0xbdc8df2e	-0.09808193
31	0xbe08b813	-0.13351469
32	0x3e902cf8	0.28159308
33	0xbdddfac5	-0.10838846
34	0x3b6a147f	0.0035717783
35	0x3dd9601a	0.10614033
36	0x3d269ca5	0.04067673
37	0xbcf72b7f	-0.030172108
38	0x3d530328	0.051516682
39	0xbddb910e	-0.10721026
40	0xbeb44c03	-0.35214242
41	0xbe27814c	-0.16357917
42	0xbdec9d45	-0.11553434
43	0x3e099ce0	0.1343875
44	0xbd6a54a3	-0.057209622
45	0x3bb76ee2	0.005597935
46	0xbed20b49	-0.41024235
47	0x3e7bc3b0	0.24586368
48	0x3cc0f4f1	0.023554297
49	0x3cc867d5	0.024463573
50	0xbd9b5f1f	-0.07586502
51	0x3d52a466	0.051426314
52	0xbe2d77de	-0.16940257
53	0xbe889904	-0.26679242
54	0xbd4bc266	-0.04974594
55	0x3daed6b8	0.08537048
56	0x3e109607	0.14119731
57	0x3d30e1d7	0.043184128
58	0x3e4e391d	0.20138974
59	0x3e69ce4a	0.228326
60	0x3d2b5a8b	0.041834395
61	0xbcc685ef	-0.024233786
62	0x3cc75883	0.024334198
63	0x3cdcd022	0.026954714
64	0xbe973c9b	-0.29538426
65	0xbe48f34b	-0.19624059
66	0x3d1abda3	0.037778508
67	0x3dd4c663	0.10389402
68	0xbc81777c	-0.015804045
69	0xbc8fe4fb	-0.017565241
70	0x3d0375a3	0.03209461
71	0x3d8a9c3c	0.067680806
72	0x3d9bbb54	0.076040894
73	0xbdc953bd	-0.09830425
74	0x3ed85596	0.42252797
75	0x3d7e08d9	0.062020157
76	0x3d69c258	0.057070106
77	0xbd0f16da	-0.034933902
78	0x3e866ea3	0.26256284
79	0xbe0582bf	-0.13038157
80	0x3ec510ea	0.38489467
81	0xbdb776b4	-0.08958188
82	0x3d82f69c	0.06394693
83	0x3d6db698	0.058035463
84	0x3cfca702	0.030841354
85	0x38ff51a8	0.00012174557
86	0x3da0d4a7	0.0785306
87	0x3ddcab45	0.107748546
88	0x3d613d91	0.054990355
89	0x3e614a61	0.2200103
90	0xbe658ada	-0.22416249
91	0xbe76a4ba	-0.24086276
92	0x3e107aa0	0.14109278
93	0x3e0bd2da	0.13654652
94	0xbe43ea11	-0.19132258
95	0xbe14155f	-0.14461277
96	0x3ba3a1b6	0.0049936427
97	0x3d516bcd	0.051128197
98	0xbd7274ad	-0.059193302
99	0x3e2cd7ba	0.16879168
100	0x3e511d19	0.20421256
101	0xbdd15b58	-0.102225006
102	0xbdd8b3c8	-0.105811656
103	0x3d9d8f0f	0.07693302
104	0x3e809cb1	0.25119546
105	0xbe797195	-0.24359734
106	0x3df76a59	0.12080831
107	0x3e25c734	0.16189271
108	0x3c938f8f	0.01801279
109	0xbcafbab7	-0.021451337
110	0x3eb4771c	0.35247123
111	0x3e4f8e04	0.20269018
112	0x3de67a94	0.11253849
113	0x3d27a4cd	0.04092865
114	0x3e49876a	0.19680563
115	0x3906a67b	0.00012841255
116	0xbdaf875e	-0.08570741
117	0xbe2f81a1	-0.17139293
118	0xbe4018ba	-0.18759432
119	0xbe3f0b22	-0.1865659
120	0xbfbd4f35	-1.4789797
121	0xbf7cabda	-0.98699725
122	0xbfd79c65	-1.6844603
123	0x3f9c7a67	1.2224854
124	0xbfc4eaff	-1.5384215
125	0xbcfc832a	-0.030824263
126	0xbf9fb65c	-1.2477527
127	0xbdb3d564	-0.087809354
128	0xbf9c3afd	-1.2205502
129	0xbcbb6d64	-0.02287931
130	0xbfd036fb	-1.6266779
131	0x3e96b9a9	0.29438522
132	0xbf2ec038	-0.6826205
133	0x3ea929d1	0.33039716
134	0x3f9bc6fc	1.21701
135	0xbeef4db3	-0.46738967
136	0x3fb064d8	1.3780775
137	0x3e881b23	0.26583204
138	0x3f79f126	0.9763359
139	0x3e8d6044	0.27612507
140	0x3f82c02e	1.0214899
141	0x3c983dc6	0.018584143
142	0x3fad5557	1.3541669
143	0xbcbcb3bd	-0.023034925

encoder.blocks.0.Pos_embed.pe f4 [1, 625, 12]
0	0x00000000	0.0
1	0x3f800000	1.0
2	0x00000000	0.0
3	0x3f800000	1.0
4	0x00000000	0.0
5	0x3f800000	1.0
6	0x00000000	0.0
7	0x3f800000	1.0
8	0x00000000	0.0
9	0x3f800000	1.0
10	0x00000000	0.0
11	0x3f800000	1.0
12	0x3f576aa4	0.84147096
13	0x3f0a5141	0.54030234
14	0x3e15c378	0.14625347
15	0x3f7d3f4d	0.98924714
16	0x3cb07a47	0.021542681
17	0x3f7ff0ca	0.9997679
18	0x3b4f3e22	0.0031622727
19	0x3f7fffac	0.999995
20	0x39f35a5c	0.00046415895
21	0x3f7ffffe	0.9999999
22	0x388ee095	6.812919e-05
23	0x3f800000	1.0
24	0x3f68c7b7	0.9092974
25	0xbed51133	-0.41614684
26	0x3e942735	0.28936163
27	0x3f750c5c	0.95721984
28	0x3d306fcb	0.043075364
29	0x3f7fc32c	0.99907184
30	0x3bcf3dde	0.006324514
31	0x3f7ffeb1	0.99998003
32	0x3a735a5b	0.00092831784
33	0x3f7ffff9	0.9999996
34	0x390ee095	0.00013625839
35	0x3f800000	1.0
36	0x3e1081c3	0.14112
37	0xbf7d7026	-0.9899925
38	0x3eda3d08	0.42624688
39	0x3f679451	0.9046069
40	0x3d8446bd	0.06458805
41	0x3f7f7729	0.997912
42	0x3c1b6e12	0.009486692
43	0x3f7ffd0d	0.999955
44	0x3ab683c2	0.0013924765
45	0x3f7ffff0	0.99999905
46	0x395650e0	0.00020438759
47	0x3f800000	1.0
48	0xbf41bdcf	-0.7568025
49	0xbf275530	-0.6536436
50	0x3f0dd0ad	0.5539654
51	0x3f552152	0.8325397
52	0x3db045df	0.08607077
53	0x3f7f0ccc	0.996289
54	0x3c4f3ccf	0.012648775
55	0x3f7ffac2	0.99992
56	0x3af35a54	0.0018566349
57	0x3f7fffe3	0.9999983
58	0x398ee095	0.00027251677
59	0x3f7fffff	0.99999994
60	0xbf757c10	-0.9589243
61	0x3e913c2c	0.2836622
62	0x3f2b7615	0.66977054
63	0x3f3e18f2	0.74256814
64	0x3ddc300e	0.10751353
65	0x3f7e8421	0.9942036
66	0x3c818582	0.015810732
67	0x3f7ff7cf	0.999875
68	0x3b181871	0.0023207928
69	0x3f7fffd3	0.9999973
70	0x39b298ba	0.00034064596
71	0x3f7fffff	0.99999994
72	0xbe8f0f8c	-0.2794155
73	0x3f75cdb8	0.96017027
74	0x3f456b82	0.7711717
75	0x3f22fa00	0.6366272
76	0x3e040009	0.12890638
77	0x3f7ddd38	0.9916568
78	0x3c9b6c48	0.018972531
79	0x3f7ff434	0.99982
80	0x3b3683b7	0.0027849504
81	0x3f7fffbf	0.9999961
82	0x39d650e0	0.00040877517
83	0x3f7fffff	0.99999994
84	0x3f283046	0.6569866
85	0x3f40ffbd	0.75390226
86	0x3f5b220e	0.8559884
87	0x3f0459ca	0.5169951
88	0x3e19d85d	0.15023942
89	0x3f7d1825	0.98864967
90	0x3cb552a7	0.022134138
91	0x3f7feff2	0.999755
92	0x3b54eef8	0.003249107
93	0x3f7fffa8	0.99999475
94	0x39fa0904	0.00047690433
95	0x3f7ffffe	0.9999999
96	0x3f7d4695	0.98935825
97	0xbe14fdf6	-0.14550003
98	0x3f6c222b	0.92239636
99	0x3ec5c1dc	0.38624465
100	0x3e2f9e69	0.17150272
101	0x3f7c34ff	0.98518366
102	0x3ccf3890	0.025295526
103	0x3f7feb08	0.99968004
104	0x3b735a38	0.0037132632
105	0x3f7fff8c	0.9999931
106	0x3a0ee095	0.00054503354
107	0x3f7ffffe	0.9999999
108	0x3ed30132	0.4121185
109	0xbf693fd5	-0.91113025
110	0x3f780e43	0.9689676
111	0x3e7d1ecd	0.24718781
112	0x3e454f97	0.19268642
113	0x3f7b33e1	0.98126036
114	0x3ce91df1	0.02845666
115	0x3f7fe576	0.99959505
116	0x3b88e2ba	0.0041774185
117	0x3f7fff6e	0.9999913
118	0x3a20bca7	0.0006131627
119	0x3f7ffffd	0.9999998
120	0xbf0b44f8	-0.5440211
121	0xbf56cd64	-0.8390715
122	0x3f7ea4b1	0.9947005
123	0x3dd2909d	0.10281489
124	0x3e5ae953	0.21378069
125	0x3f7a14eb	0.9768817
126	0x3d01815d	0.03161751
127	0x3f7fdf3c	0.99950004
128	0x3b981856	0.004641573
129	0x3f7fff4b	0.9999892
130	0x3a3298b9	0.00068129186
131	0x3f7ffffc	0.99999976
132	0xbf7fff5c	-0.9999902
133	0x3b910572	0.004425698
134	0x3f7fc132	0.9990417
135	0xbd334721	-0.043769006
136	0x3e70690c	0.23477572
137	0x3f78d83e	0.9720496
138	0x3d0e736c	0.034778044
139	0x3f7fd85b	0.9993951
140	0x3ba74df0	0.0051057264
141	0x3f7fff25	0.99998695
142	0x3a4474cc	0.0007494211
143	0x3f7ffffb	0.9999997
144	0xbf095cd8	-0.53657293
145	0x3f5806d0	0.84385395
146	0x3f7b5da7	0.9818978
147	0xbe41f51f	-0.18941163
148	0x3e82e61a	0.2556618
149	0x3f777dff	0.9667663
150	0x3d1b651e	0.03793823
151	0x3f7fd0d2	0.9992801
152	0x3bb68388	0.005569879
153	0x3f7ffefc	0.9999845
154	0x3a5650de	0.00081755023
155	0x3f7ffffa	0.99999964
156	0x3ed72022	0.42016703
157	0x3f684e6f	0.9074468
158	0x3f719239	0.94363743
159	0xbea97655	-0.33098093
160	0x3e8d8821	0.2764292
161	0x3f760658	0.9610343
162	0x3d28566a	0.041098036
163	0x3f7fc8a1	0.9991551
164	0x3bc5b91d	0.00603403
165	0x3f7ffecf	0.9999818
166	0x3a682cf0	0.0008856794
167	0x3f7ffffa	0.99999964
168	0x3f7d9872	0.9906074
169	0x3e0c04d7	0.13673721
170	0x3f6294d5	0.8850835
171	0xbeee4d23	-0.46543226
172	0x3e981956	0.2970683
173	0x3f747175	0.9548562
174	0x3d354748	0.044257432
175	0x3f7fbfc9	0.99902016
176	0x3bd4eeaf	0.00649818
177	0x3f7ffe9e	0.9999789
178	0x3a7a0903	0.0009538086
179	0x3f7ffff8	0.9999995
180	0x3f267944	0.65028787
181	0xbf427ae8	-0.7596879
182	0x3f4eb804	0.80749536
183	0xbf1701fa	-0.5898739
184	0x3ea29879	0.31756952
185	0x3f72bf87	0.948235
186	0x3d4237af	0.047416385
187	0x3f7fb649	0.9988752
188	0x3be4243e	0.006962328
189	0x3f7ffe69	0.99997574
190	0x3a85f28a	0.0010219377
191	0x3f7ffff7	0.99999946
192	0xbe936810	-0.2879033
193	0xbf75292c	-0.9576595
194	0x3f36691c	0.71254134
195	0xbf339e08	-0.7016301
196	0x3ead044a	0.33792335
197	0x3f70f0c1	0.9411736
198	0x3d4f2797	0.050574865
199	0x3f7fac22	0.9987203
200	0x3bf359ca	0.007426475
201	0x3f7ffe31	0.9999724
202	0x3a8ee093	0.0010900669
203	0x3f7ffff6	0.9999994
204	0xbf761e25	-0.96139747
205	0xbe8ce236	-0.27516335
206	0x3f1a2df2	0.60226357
207	0xbf4c5d36	-0.7982973
208	0x3eb75b8c	0.35812032
209	0x3f6f055b	0.93367547
210	0x3d5c16f7	0.05373284
211	0x3f7fa153	0.99855536
212	0x3c0147a9	0.00789062
213	0x3f7ffdf6	0.9999689
214	0x3a97ce9c	0.001158196
215	0x3f7ffff5	0.99999934
216	0xbf4040b3	-0.75098723
217	0x3f290a84	0.6603167
218	0x3ef543f0	0.47903395
219	0xbf60b743	-0.87779635
220	0x3ec19d06	0.37815112
221	0x3f6cfd8d	0.9257439
222	0x3d6905c6	0.05689027
223	0x3f7f95dc	0.9983804
224	0x3c08e26c	0.008354764
225	0x3f7ffdb6	0.9999651
226	0x3aa0bca5	0.0012263252
227	0x3f7ffff3	0.9999992
228	0x3e197969	0.1498772
229	0x3f7d1bbf	0.9887046
230	0x3eb0e5a8	0.34550214
231	0xbf703c29	-0.938418
232	0x3ecbc77d	0.39800635
233	0x3f6ad997	0.91738266
234	0x3d75f3fe	0.060047142
235	0x3f7f89be	0.9981955
236	0x3c107d2c	0.008818906
237	0x3f7ffd74	0.99996114
238	0x3aa9aaae	0.0012944543
239	0x3f7ffff2	0.99999917
240	0x3f69b6c8	0.9129453
241	0x3ed0f022	0.40808207
242	0x3e5172f3	0.20454006
243	0xbf7a9673	-0.9788582
244	0x3ed5d9be	0.41767687
245	0x3f6899b9	0.9085956
246	0x3d8170ca	0.06320341
247	0x3f7f7cf9	0.9980007
248	0x3c1817eb	0.009283046
249	0x3f7ffd2d	0.9999569
250	0x3ab298b6	0.0013625834
251	0x3f7ffff1	0.9999991
252	0x3f562f10	0.8366556
253	0xbf0c37fc	-0.54772925
254	0x3d726621	0.05917943
255	0xbf7f8d24	-0.9982474

encoder.blocks.1.q_proj.weight f4 [12, 12]
0	0xbbed5f60	-0.0072440356
1	0xbb64ec38	-0.0034930836
2	0xbd48df96	-0.049041353
3	0x3a927868	0.00111748
4	0xbc88e713	-0.016711747
5	0x3f0904f9	0.5352321
6	0x3ca04fa9	0.019569235
7	0xbdcbfad9	-0.09959955
8	0xbd4df573	-0.050282907
9	0x3ccd622f	0.025071232
10	0xbe29d25d	-0.16584153
11	0x3cc57591	0.024103912
12	0xbe8ff314	-0.2811514
13	0x3b825363	0.0039772256
14	0xbe17ee45	-0.14836986
15	0xbc857c40	-0.016294599
16	0x3d3b0f04	0.045668617
17	0x3e94cfe3	0.29064855
18	0xbc4e35cc	-0.012586068
19	0x3e1a0023	0.15039115
20	0x3db20534	0.08692399
21	0xbcdad3b0	-0.026712269
22	0x3eddf4fc	0.4335097
23	0xbdb38171	-0.08764923
24	0xbe394ba7	-0.18095265
25	0xbbf7765b	-0.007551951
26	0x3dd72c28	0.10506469
27	0xbdb545f3	-0.088512324
28	0xbca5e43c	-0.020250432
29	0xbe5024cb	-0.20326535
30	0x3aff2023	0.0019464534
31	0x3ba6f43f	0.0050950344
32	0x3dd28e43	0.102810405
33	0xbafd53ba	-0.0019327321
34	0x3d923ef2	0.07140912
35	0x3cbe97ae	0.023265686
36	0xbe200ec4	-0.15630633
37	0xbb8eaa98	-0.0043538325
38	0xbeafce2f	-0.34336993
39	0x3d2ae28e	0.041719966
40	0x3d0603cb	0.03271846
41	0x3ee1612c	0.4401945
42	0x3b4dc284	0.0031396458
43	0x3dafa909	0.08577163
44	0x3c868d45	0.016424784
45	0xbc265064	-0.010151003
46	0xbdfa539a	-0.12222977
47	0xbdb72ef3	-0.08944502
48	0x3ee29054	0.4425074
49	0x3c0d9ec8	0.008643813
50	0xbdf2215e	-0.118227705
51	0x3d3c87a6	0.046027802
52	0x3d264ebd	0.040602434
53	0x3e6a6bf4	0.22892743
54	0x3c328644	0.010896269
55	0xbca3c8f8	-0.01999329
56	0xbdfc4d37	-0.12319415
57	0xbbabc122	-0.005241529
58	0xbe75558f	-0.2395842
59	0xbc10779c	-0.00881758
60	0x3f297f97	0.6621031
61	0x3af8fd6b	0.0018996423
62	0xbd418e29	-0.047254715
63	0xbc44020f	-0.011963381
64	0xbd322aa6	-0.043497704
65	0xbf086e41	-0.53293234
66	0x3d97aacd	0.074056245
67	0x3c9558d0	0.018230826
68	0xbcc2d84c	-0.023784779
69	0xbc8b007a	-0.016968
70	0xbe761d14	-0.2403453
71	0x3c97bbce	0.01852217
72	0x3f058f83	0.52172107
73	0xbc1c9672	-0.009557353
74	0x3bda0c58	0.0066543035
75	0xbd053e1c	-0.032529935
76	0xbd285d6f	-0.04110473
77	0xbdf24c1f	-0.11830925
78	0x3d28cfcd	0.0412138
79	0xbe8415d9	-0.25797918
80	0xbd9bf50a	-0.07615097
81	0x3cf6312f	0.03005275
82	0xbd1597b7	-0.03652164
83	0x3e00954e	0.12556955
84	0x3b89eeb8	0.0042093657
85	0x3ba5df68	0.0050620325
86	0x3da66e2f	0.081264846
87	0xbc4762c9	-0.012169548
88	0x3c8d5363	0.017251676
89	0x3a432c58	0.00074452674
90	0x3a321ccc	0.0006794452
91	0x3d34766c	0.04405825
92	0x3cd41234	0.025887586
93	0xbfd892e3	-1.6919826
94	0xbbd253e5	-0.0064186924
95	0x3d629ccc	0.055325314
96	0xbb9ad684	-0.0047252793
97	0xb945c104	-0.00018859288
98	0xbf1da49a	-0.6157929
99	0x3aa963ea	0.0012923453
100	0x3d9fb08d	0.07797346
101	0x3f5a04d1	0.851636
102	0xbb717e50	-0.003684897
103	0x3879d220	5.956192e-05
104	0xbce0bca3	-0.027433699
105	0xbc318c25	-0.010836636
106	0xbe5243dd	-0.205337
107	0xbd21b122	-0.039475568
108	0x3e9b73f0	0.3036189
109	0x3b888908	0.004166726
110	0xbe7ff986	-0.2499753
111	0xbd31156d	-0.043233324
112	0x3c19f962	0.009397836
113	0xbe2349c6	-0.15946111
114	0x3cabc3a8	0.02096732
115	0xbd9aad14	-0.07552543
116	0xbd51b1d7	-0.051194992
117	0x3c0e0092	0.008667128
118	0x3d076a90	0.03306061
119	0x3daa5e44	0.08318761
120	0x3e41c1c4	0.18921572
121	0x3fce22a8	1.6104326
122	0x3d794999	0.060861204
123	0x3d9ca19f	0.07648014
124	0x3cef6955	0.02922503
125	0x3da433ea	0.08017714
126	0x3c9f0393	0.019410884
127	0x3a046b7f	0.00050514186
128	0xbc96d6ea	-0.018413026
129	0xbd8f3159	-0.06991834
130	0xbd18a5fb	-0.037267666
131	0xbd976fde	-0.07394384
132	0xbe7a06c3	-0.24416642
133	0xbb51f1d7	-0.0032035017
134	0xbdfa284e	-0.12214719
135	0x3cb250ea	0.021767098
136	0xbb6b65d8	-0.0035918858
137	0x3e5c5a4c	0.2151882
138	0xbc8116cc	-0.01575794
139	0x3d81a798	0.06330794
140	0x3da2ed23	0.079553865
141	0xbc2474b3	-0.010037589
142	0x3f25b3f2	0.647277
143	0xbdc26525	-0.09491948

encoder.blocks.1.k_proj.weight f4 [12, 12]
0	0x3ca53776	0.020168047
1	0x3d0af57e	0.033925526
2	0x3d2aaa89	0.04166654
3	0x3cfcf3b3	0.030877924
4	0xb8eed1c0	-0.00011387793
5	0x3d1d5683	0.038412582
6	0x3df525a7	0.11970072
7	0x3cbbe3cc	0.02293577
8	0xbda8cd6f	-0.08242308
9	0xbd805a5c	-0.06267235
10	0x3c51fe34	0.012816954
11	0xbd06e182	-0.032929905
12	0xbd59da99	-0.053186987
13	0x3caacbca	0.020849127
14	0x3d1e9dbf	0.038724657
15	0x3da53b5e	0.08067964
16	0xbcd063a2	-0.025438134
17	0x3c897f57	0.016784353
18	0x3d2253b3	0.039630603
19	0x3da2019c	0.07910463
20	0xbd1bc59c	-0.03803025
21	0xbc75d6b0	-0.015004799
22	0x3b289413	0.0025723025
23	0x3b0884d4	0.0020831125
24	0xbad771fc	-0.0016437168
25	0x3d9237f0	0.071395755
26	0xbda875ff	-0.08225631
27	0xbca665fa	-0.020312298
28	0xbd0c18f0	-0.03420347
29	0x3c0457fd	0.008077619
30	0xbd7d75f7	-0.06188008
31	0x3ccb946d	0.024851048
32	0x3e44016d	0.19141169
33	0x3df67d81	0.12035657
34	0x3d09868c	0.03357558
35	0x3ce560f3	0.02800033
36	0x3aea2244	0.0017862995
37	0xbceb2817	-0.02870564
38	0x3d4e40e0	0.05035484
39	0x3cd2198a	0.025646944
40	0xbd53ea8c	-0.051737353
41	0xbcfea9b9	-0.03108679
42	0x3d2fa2a1	0.042879704
43	0xbc2e7e8c	-0.010650288
44	0xbdcf46cb	-0.101209246
45	0x3d38eb2f	0.045146164
46	0xbcc2757d	-0.023737663
47	0xbbb229b7	-0.0054371017
48	0x3d6138fd	0.05498599
49	0xbdf14d11	-0.117822774
50	0x3c11e83a	0.008905465
51	0xbd687fdc	-0.05676256
52	0xbdac8062	-0.084229246
53	0x3bd06073	0.006359154
54	0x3d87dc55	0.06633822
55	0xbdc1fceb	-0.094720684
56	0xbe3d932d	-0.18513174
57	0xbd8ea1a7	-0.069644265
58	0xbce18bfa	-0.027532566
59	0xbd06d92d	-0.03292196
60	0xbd070be4	-0.032970324
61	0x3c0ac994	0.0084709115
62	0xbdb33e2c	-0.08752093
63	0xbd88c0bf	-0.066773884
64	0xbdaf53c6	-0.085609004
65	0xbcfbf47c	-0.030756228
66	0xbe1e4eb0	-0.15459704
67	0xbc9ad338	-0.018899545
68	0x3e8829c2	0.2659436
69	0x3c5f44a0	0.013627201
70	0x3cd1c2c6	0.02560557
71	0xb92af666	-0.00016304254
72	0x3d472587	0.048619773
73	0xbd950dbc	-0.0727801
74	0xbc9ce9a6	-0.019154381
75	0xbddcf76f	-0.10789382
76	0xbe3bd709	-0.18343748
77	0x3cf9be30	0.030486196
78	0xbd860af3	-0.06545057
79	0xbda6fcef	-0.08153712
80	0xbd3bb1a6	-0.045823716
81	0x3d8917c0	0.06693983
82	0x3b548ac6	0.0032431348
83	0xbc44a620	-0.012002498
84	0x3bbf43d4	0.005836943
85	0xba3d2edc	-0.00072167604
86	0x3b1c1e25	0.0023821678
87	0x3b2eb0dd	0.0026655712
88	0x3b925973	0.0044662296
89	0x3aaf614d	0.0013380438
90	0x3be65595	0.007029245
91	0x3ac7431a	0.0015202493
92	0xb9d25e82	-0.00040124735
93	0xbb89ac52	-0.0042014504
94	0xbacb2ed6	-0.0015501629
95	0xbf34eb7a	-0.7067181
96	0x3d9dedda	0.07711382
97	0xbd8ed84c	-0.06974849
98	0x3d77dd06	0.06051352
99	0xbd151273	-0.036394548
100	0xbcb6252a	-0.022234518
101	0x3cd7eba0	0.026357472
102	0x3e542b6f	0.20719694
103	0xbd9c04a9	-0.07618076
104	0xbe2a95ca	-0.16658702
105	0xbb562020	-0.0032672957
106	0xbcdc4003	-0.026885992
107	0xbc9c1041	-0.01905072
108	0x3d13354a	0.035939492
109	0xbd05d633	-0.03267498
110	0x3c76312e	0.015026374
111	0x3d040aa9	0.03223673
112	0x3d884a21	0.06654764
113	0xbcfe2a67	-0.031026078
114	0x3b9a937e	0.0047172895
115	0x3bdca0b5	0.006733025
116	0x3be3830d	0.0069431127
117	0xbd64e94f	-0.055886563
118	0x3c8bd2c9	0.017068284
119	0xbcfd18b8	-0.030895576
120	0x3b23be29	0.002498517
121	0xbc2c4e7b	-0.010516758
122	0x3bcc0f06	0.006227377
123	0x3a3adba0	0.00071280636
124	0xb8a26498	-7.743499e-05
125	0xb959d638	-0.00020774535
126	0x3c22e709	0.009942778
127	0xbb6da8ee	-0.003626402
128	0xbcf3752d	-0.02971896
129	0xbba67fdc	-0.00508116
130	0xbf6e3860	-0.9305477
131	0xbd1db0d8	-0.03849873
132	0x3dbc6573	0.091990374
133	0xbdf7fd72	-0.12108888
134	0x3d348dde	0.044080608
135	0x3d78cc33	0.060741615
136	0x3d968e7f	0.07351398
137	0xbce33ab5	-0.027737955
138	0x3d9f0d78	0.07766241
139	0xbcac8ead	-0.021064127
140	0xbe1be2e4	-0.1522327
141	0xbc636368	-0.013878681
142	0xbb606ce0	-0.0034244582
143	0x3badc400	0.005302906

encoder.blocks.1.v_proj.weight f4 [12, 12]
0	0x3eed5e55	0.46361032
1	0x3e9a3d15	0.30124727
2	0xbf2873e3	-0.6580183
3	0xbe54dc12	-0.20787075
4	0xbf2731b4	-0.65310216
5	0x3ca5fc20	0.020261824
6	0xbf1afc4a	-0.6054121
7	0xbe455aca	-0.19272915
8	0xbe94abdf	-0.29037377
9	0x3d788fc0	0.060683966
10	0xbe1758f9	-0.14780034
11	0xbe73713f	-0.23773669
12	0x3f1053bd	0.56377774
13	0x3a80313a	0.0009780296
14	0xbf3f48d1	-0.74720484
15	0xbe8f6f0d	-0.28014413
16	0xbef39ccb	-0.4758056
17	0xbc056b86	-0.008143311
18	0xbf09c197	-0.5381102
19	0x3d130e86	0.035902523
20	0xbe4d776f	-0.20065092
21	0xbe367563	-0.17818217
22	0xbe7ec936	-0.24881443
23	0x3dae01f4	0.08496466
24	0x3f47ba31	0.7801848
25	0x3e1817b5	0.14852794
26	0xbf857507	-1.0426339
27	0xbe5404ca	-0.20704952
28	0xbf18cef0	-0.5969076
29	0xbe881f66	-0.26586455
30	0xbf64df16	-0.894029
31	0xbe3ea9f0	-0.18619514
32	0xbebfcb25	-0.37459674
33	0xbe21d668	-0.15804446
34	0xbf5d2c5c	-0.8639581
35	0x3d9ba074	0.075989634
36	0x3f09c642	0.5381814
37	0x3e76adbc	0.24089712
38	0xbf34341c	-0.7039201
39	0x3da3fd41	0.08007289
40	0xbd870f48	-0.065947115
41	0x3c4c9e3c	0.012488898
42	0xbee212a5	-0.4415485
43	0xbe713cbb	-0.23558323
44	0xbeaf4705	-0.3423387
45	0xbe520918	-0.20511281
46	0xbe246edb	-0.16057913
47	0xbcbc25c6	-0.02296723
48	0x3f55c03a	0.8349644
49	0x3d7afc2b	0.061275642
50	0xbf1184d2	-0.5684329
51	0x3e3f588a	0.18686119
52	0xbe917ac4	-0.28413975
53	0xbe4b2727	-0.19839154
54	0xbe3d35cf	-0.18477558
55	0x3ddc4f2e	0.1075729
56	0xbeff0a97	-0.49812767
57	0x3e5f0154	0.2177785
58	0xbf322aeb	-0.6959674
59	0xbe017ced	-0.12645312
60	0x3f40f7b5	0.7537797
61	0x3e8afcf3	0.2714611
62	0xbeefe225	-0.46852222
63	0xbe69b4f9	-0.22822942
64	0xbf11202a	-0.56689703
65	0x3c001b08	0.007818945
66	0xbeead29d	-0.4586381
67	0x3e193eee	0.14965412
68	0xbf19b496	-0.6004118
69	0xba655f62	-0.000874987
70	0xbf159262	-0.5842649
71	0xbe617f22	-0.22021154
72	0x3ec7d5d2	0.3903032
73	0x3e7c6694	0.24648505
74	0xbf25f060	-0.6481991
75	0xbe33c5f2	-0.17555979
76	0xbeba131a	-0.36342698
77	0xbd7fd32b	-0.062457245
78	0xbe7a5349	-0.24445833
79	0xbda5dcae	-0.08098732
80	0xbf0c304d	-0.547612
81	0x3d57629e	0.052584283
82	0xbe97324b	-0.29530558
83	0xbe78508e	-0.24249479
84	0x3ecd79ec	0.40132082
85	0x3e53ff08	0.20702755
86	0xbf34995a	-0.70546496
87	0x3cc37ef2	0.023864243
88	0xbf06c81b	-0.52649087
89	0xbe597ea1	-0.21239711
90	0xbe3e2bca	-0.18571392
91	0x3e0c2f3b	0.13689892
92	0xbe9029e2	-0.28156954
93	0xbc09235d	-0.008370248
94	0xbf04c0e5	-0.51856834
95	0x3e058e97	0.13042675
96	0x3f37b5e6	0.7176193
97	0x3e0fd295	0.14045174
98	0xbed34d99	-0.4127014
99	0xbed1f9d2	-0.4101091
100	0xbf21ee27	-0.63254017
101	0xbe7245f7	-0.23659502
102	0xbf0034e2	-0.5008069
103	0xbd6c77d5	-0.05773147
104	0xbf2b430e	-0.6689919
105	0x3e202473	0.15638904
106	0xbf548c17	-0.8302626
107	0xbe1881b7	-0.14893232
108	0x3f231774	0.6370766
109	0x3d43229f	0.04764044
110	0xbeadbd29	-0.3393338
111	0xbc90e4ae	-0.017687168
112	0xbee4f6db	-0.44719586
113	0xbe9d6c91	-0.30746892
114	0xbec469b5	-0.38361898
115	0x3e3a3ecf	0.18188022
116	0xbec7d2a8	-0.39027905
117	0xbe52ce75	-0.2058657
118	0xbec840ac	-0.3911184
119	0x3df8c755	0.121473946
120	0x3f5419bb	0.8285176
121	0x3eccdf2e	0.40014023
122	0xbe92d38d	-0.28677025
123	0x3d7cf5ca	0.06175784
124	0xbeb71380	-0.35757065
125	0x3dd5a88f	0.104325406
126	0xbec8d70b	-0.39226565
127	0xbe3bf260	-0.18354177
128	0xbf33ea63	-0.7027952
129	0xbdda88a1	-0.10670591
130	0xbea49f10	-0.32152605
131	0x3d811d0f	0.063043706
132	0x3f512217	0.8169264
133	0x3ef24f7e	0.47326273
134	0xbf36a053	-0.71338385
135	0xbde435cf	-0.11143076
136	0xbdc47c85	-0.09594063
137	0xbe0b71f1	-0.13617684
138	0xbeccc5ab	-0.3999456
139	0x3ddb0cd8	0.10695809
140	0xbe02f8be	-0.127902
141	0xbdff239a	-0.12457962
142	0xbf1ffcaf	-0.6249494
143	0x3d8c418c	0.068484396

encoder.blocks.1.Pos_embed.pe f4 [1, 625, 12]
0	0x00000000	0.0
1	0x3f800000	1.0
2	0x00000000	0.0
3	0x3f800000	1.0
4	0x00000000	0.0
5	0x3f800000	1.0
6	0x00000000	0.0
7	0x3f800000	1.0
8	0x00000000	0.0
9	0x3f800000	1.0
10	0x00000000	0.0
11	0x3f800000	1.0
12	0x3f576aa4	0.84147096
13	0x3f0a5141	0.54030234
14	0x3e15c378	0.14625347
15	0x3f7d3f4d	0.98924714
16	0x3cb07a47	0.021542681
17	0x3f7ff0ca	0.9997679
18	0x3b4f3e22	0.0031622727
19	0x3f7fffac	0.999995
20	0x39f35a5c	0.00046415895
21	0x3f7ffffe	0.9999999
22	0x388ee095	6.812919e-05
23	0x3f800000	1.0
24	0x3f68c7b7	0.9092974
25	0xbed51133	-0.41614684
26	0x3e942735	0.28936163
27	0x3f750c5c	0.95721984
28	0x3d306fcb	0.043075364
29	0x3f7fc32c	0.99907184
30	0x3bcf3dde	0.006324514
31	0x3f7ffeb1	0.99998003
32	0x3a735a5b	0.00092831784
33	0x3f7ffff9	0.9999996
34	0x390ee095	0.00013625839
35	0x3f800000	1.0
36	0x3e1081c3	0.14112
37	0xbf7d7026	-0.9899925
38	0x3eda3d08	0.42624688
39	0x3f679451	0.9046069
40	0x3d8446bd	0.06458805
41	0x3f7f7729	0.997912
42	0x3c1b6e12	0.009486692
43	0x3f7ffd0d	0.999955
44	0x3ab683c2	0.0013924765
45	0x3f7ffff0	0.99999905
46	0x395650e0	0.00020438759
47	0x3f800000	1.0
48	0xbf41bdcf	-0.7568025
49	0xbf275530	-0.6536436
50	0x3f0dd0ad	0.5539654
51	0x3f552152	0.8325397
52	0x3db045df	0.08607077
53	0x3f7f0ccc	0.996289
54	0x3c4f3ccf	0.012648775
55	0x3f7ffac2	0.99992
56	0x3af35a54	0.0018566349
57	0x3f7fffe3	0.9999983
58	0x398ee095	0.00027251677
59	0x3f7fffff	0.99999994
60	0xbf757c10	-0.9589243
61	0x3e913c2c	0.2836622
62	0x3f2b7615	0.66977054
63	0x3f3e18f2	0.74256814
64	0x3ddc300e	0.10751353
65	0x3f7e8421	0.9942036
66	0x3c818582	0.015810732
67	0x3f7ff7cf	0.999875
68	0x3b181871	0.0023207928
69	0x3f7fffd3	0.9999973
70	0x39b298ba	0.00034064596
71	0x3f7fffff	0.99999994
72	0xbe8f0f8c	-0.2794155
73	0x3f75cdb8	0.96017027
74	0x3f456b82	0.7711717
75	0x3f22fa00	0.6366272
76	0x3e040009	0.12890638
77	0x3f7ddd38	0.9916568
78	0x3c9b6c48	0.018972531
79	0x3f7ff434	0.99982
80	0x3b3683b7	0.0027849504
81	0x3f7fffbf	0.9999961
82	0x39d650e0	0.00040877517
83	0x3f7fffff	0.99999994
84	0x3f283046	0.6569866
85	0x3f40ffbd	0.75390226
86	0x3f5b220e	0.8559884
87	0x3f0459ca	0.5169951
88	0x3e19d85d	0.15023942
89	0x3f7d1825	0.98864967
90	0x3cb552a7	0.022134138
91	0x3f7feff2	0.999755
92	0x3b54eef8	0.003249107
93	0x3f7fffa8	0.99999475
94	0x39fa0904	0.00047690433
95	0x3f7ffffe	0.9999999
96	0x3f7d4695	0.98935825
97	0xbe14fdf6	-0.14550003
98	0x3f6c222b	0.92239636
99	0x3ec5c1dc	0.38624465
100	0x3e2f9e69	0.17150272
101	0x3f7c34ff	0.98518366
102	0x3ccf3890	0.025295526
103	0x3f7feb08	0.99968004
104	0x3b735a38	0.0037132632
105	0x3f7fff8c	0.9999931
106	0x3a0ee095	0.00054503354
107	0x3f7ffffe	0.9999999
108	0x3ed30132	0.4121185
109	0xbf693fd5	-0.91113025
110	0x3f780e43	0.9689676
111	0x3e7d1ecd	0.24718781
112	0x3e454f97	0.19268642
113	0x3f7b33e1	0.98126036
114	0x3ce91df1	0.02845666
115	0x3f7fe576	0.99959505
116	0x3b88e2ba	0.0041774185
117	0x3f7fff6e	0.9999913
118	0x3a20bca7	0.0006131627
119	0x3f7ffffd	0.9999998
120	0xbf0b44f8	-0.5440211
121	0xbf56cd64	-0.8390715
122	0x3f7ea4b1	0.9947005
123	0x3dd2909d	0.10281489
124	0x3e5ae953	0.21378069
125	0x3f7a14eb	0.9768817
126	0x3d01815d	0.03161751
127	0x3f7fdf3c	0.99950004
128	0x3b981856	0.004641573
129	0x3f7fff4b	0.9999892
130	0x3a3298b9	0.00068129186
131	0x3f7ffffc	0.99999976
132	0xbf7fff5c	-0.9999902
133	0x3b910572	0.004425698
134	0x3f7fc132	0.9990417
135	0xbd334721	-0.043769006
136	0x3e70690c	0.23477572
137	0x3f78d83e	0.9720496
138	0x3d0e736c	0.034778044
139	0x3f7fd85b	0.9993951
140	0x3ba74df0	0.0051057264
141	0x3f7fff25	0.99998695
142	0x3a4474cc	0.0007494211
143	0x3f7ffffb	0.9999997
144	0xbf095cd8	-0.53657293
145	0x3f5806d0	0.84385395
146	0x3f7b5da7	0.9818978
147	0xbe41f51f	-0.18941163
148	0x3e82e61a	0.2556618
149	0x3f777dff	0.9667663
150	0x3d1b651e	0.03793823
151	0x3f7fd0d2	0.9992801
152	0x3bb68388	0.005569879
153	0x3f7ffefc	0.9999845
154	0x3a5650de	0.00081755023
155	0x3f7ffffa	0.99999964
156	0x3ed72022	0.42016703
157	0x3f684e6f	0.9074468
158	0x3f719239	0.94363743
159	0xbea97655	-0.33098093
160	0x3e8d8821	0.2764292
161	0x3f760658	0.9610343
162	0x3d28566a	0.041098036
163	0x3f7fc8a1	0.9991551
164	0x3bc5b91d	0.00603403
165	0x3f7ffecf	0.9999818
166	0x3a682cf0	0.0008856794
167	0x3f7ffffa	0.99999964
168	0x3f7d9872	0.9906074
169	0x3e0c04d7	0.13673721
170	0x3f6294d5	0.8850835
171	0xbeee4d23	-0.46543226
172	0x3e981956	0.2970683
173	0x3f747175	0.9548562
174	0x3d354748	0.044257432
175	0x3f7fbfc9	0.99902016
176	0x3bd4eeaf	0.00649818
177	0x3f7ffe9e	0.9999789
178	0x3a7a0903	0.0009538086
179	0x3f7ffff8	0.9999995
180	0x3f267944	0.65028787
181	0xbf427ae8	-0.7596879
182	0x3f4eb804	0.80749536
183	0xbf1701fa	-0.5898739
184	0x3ea29879	0.31756952
185	0x3f72bf87	0.948235
186	0x3d4237af	0.047416385
187	0x3f7fb649	0.9988752
188	0x3be4243e	0.006962328
189	0x3f7ffe69	0.99997574
190	0x3a85f28a	0.0010219377
191	0x3f7ffff7	0.99999946
192	0xbe936810	-0.2879033
193	0xbf75292c	-0.9576595
194	0x3f36691c	0.71254134
195	0xbf339e08	-0.7016301
196	0x3ead044a	0.33792335
197	0x3f70f0c1	0.9411736
198	0x3d4f2797	0.050574865
199	0x3f7fac22	0.9987203
200	0x3bf359ca	0.007426475
201	0x3f7ffe31	0.9999724
202	0x3a8ee093	0.0010900669
203	0x3f7ffff6	0.9999994
204	0xbf761e25	-0.96139747
205	0xbe8ce236	-0.27516335
206	0x3f1a2df2	0.60226357
207	0xbf4c5d36	-0.7982973
208	0x3eb75b8c	0.35812032
209	0x3f6f055b	0.93367547
210	0x3d5c16f7	0.05373284
211	0x3f7fa153	0.99855536
212	0x3c0147a9	0.00789062
213	0x3f7ffdf6	0.9999689
214	0x3a97ce9c	0.001158196
215	0x3f7ffff5	0.99999934
216	0xbf4040b3	-0.75098723
217	0x3f290a84	0.6603167
218	0x3ef543f0	0.47903395
219	0xbf60b743	-0.87779635
220	0x3ec19d06	0.37815112
221	0x3f6cfd8d	0.9257439
222	0x3d6905c6	0.05689027
223	0x3f7f95dc	0.9983804
224	0x3c08e26c	0.008354764
225	0x3f7ffdb6	0.9999651
226	0x3aa0bca5	0.0012263252
227	0x3f7ffff3	0.9999992
228	0x3e197969	0.1498772
229	0x3f7d1bbf	0.9887046
230	0x3eb0e5a8	0.34550214
231	0xbf703c29	-0.938418
232	0x3ecbc77d	0.39800635
233	0x3f6ad997	0.91738266
234	0x3d75f3fe	0.060047142
235	0x3f7f89be	0.9981955
236	0x3c107d2c	0.008818906
237	0x3f7ffd74	0.99996114
238	0x3aa9aaae	0.0012944543
239	0x3f7ffff2	0.99999917
240	0x3f69b6c8	0.9129453
241	0x3ed0f022	0.40808207
242	0x3e5172f3	0.20454006
243	0xbf7a9673	-0.9788582
244	0x3ed5d9be	0.41767687
245	0x3f6899b9	0.9085956
246	0x3d8170ca	0.06320341
247	0x3f7f7cf9	0.9980007
248	0x3c1817eb	0.009283046
249	0x3f7ffd2d	0.9999569
250	0x3ab298b6	0.0013625834
251	0x3f7ffff1	0.9999991
252	0x3f562f10	0.8366556
253	0xbf0c37fc	-0.54772925
254	0x3d726621	0.05917943
255	0xbf7f8d24	-0.9982474

encoder.blocks.2.q_proj.weight f4 [12, 12]
0	0xbf130559	-0.57430035
1	0xbe1c124b	-0.15241353
2	0x3f85dc43	1.0457844
3	0xbeab0c51	-0.33407834
4	0xbe5b60fa	-0.21423712
5	0xbf1b6839	-0.60705906
6	0xbe9a3045	-0.30114952
7	0x3e978716	0.2959525
8	0x3f10f5dd	0.5662516
9	0xbc722dac	-0.014781397
10	0xbe950598	-0.2910583
11	0x3e615fa6	0.22009143
12	0xbe274cf0	-0.16337943
13	0x3dddc5e3	0.108287595
14	0xbf6d6668	-0.92734385
15	0xbda04732	-0.078260794
16	0x3deae48e	0.114693746
17	0xbf14683d	-0.57971555
18	0xbe5cf305	-0.2157708
19	0xbebcd608	-0.36882043
20	0xbf417962	-0.7557584
21	0xbc650353	-0.013977843
22	0xbeb657a0	-0.35613728
23	0xbf0a4093	-0.5400478
24	0x3eda55f1	0.42643693
25	0xbe2f1df2	-0.17101267
26	0xbe8bd4e0	-0.27310848
27	0x3e57fe89	0.21093191
28	0xbed07c90	-0.40720034
29	0xbf2f8005	-0.6855472
30	0x3cbd0c25	0.02307708
31	0xbd5097ed	-0.050926138
32	0xbd61df10	-0.05514437
33	0xbcc42a74	-0.023946024
34	0x3ef2b31f	0.47402284
35	0x3d67da55	0.056604702
36	0xbecae8dd	-0.39630786
37	0xbdf1bc8e	-0.11803542
38	0x3caf5fc9	0.021407979
39	0x3e46cc36	0.19413838
40	0x3cfab581	0.030604126
41	0xbe1b8422	-0.15187123
42	0xbe53d202	-0.2068558
43	0xbd97469a	-0.07386513
44	0x3ea9b40e	0.33145183
45	0xbe17cee9	-0.14825024
46	0x3e5fbdc9	0.21849741
47	0x3e3c3849	0.18380846
48	0xbf86ad7c	-1.0521693
49	0xbd12da2a	-0.03585259
50	0x3f8c28ee	1.0949991
51	0xbf1fa6d0	-0.6236391
52	0x3c9eec70	0.019399852
53	0x3f2812a3	0.6565344
54	0xbe3f9b9a	-0.18711701
55	0xbd998002	-0.07495119
56	0x3dc6f8ac	0.09715399
57	0xbe031f01	-0.12804796
58	0xbe74b309	-0.23896421
59	0xbe25d20d	-0.1619341
60	0xbf50b194	-0.8152096
61	0xbe60e204	-0.21961218
62	0x3f48a5f2	0.7837821
63	0xbeb7195e	-0.3576154
64	0xbe12e624	-0.14345604
65	0xbe416dc2	-0.18889526
66	0x3da76077	0.08172696
67	0x3dc8929f	0.09793591
68	0x3df3e871	0.11909569
69	0x3d15a1fe	0.03653144
70	0xbf31739b	-0.69317025
71	0xbe2ff64e	-0.17183802
72	0x3da57a35	0.0807995
73	0xbdd31bc1	-0.10308028
74	0x3dc67686	0.09690575
75	0x3e7195ab	0.2359225
76	0xbea66f59	-0.32506827
77	0x3f5ff300	0.87480164
78	0x3ea09d53	0.3137003
79	0xbed87fde	-0.42285055
80	0xbe35fba9	-0.17771782
81	0x3d538abe	0.051645987
82	0x3dca1c1c	0.09868643
83	0x3d0433a7	0.032275822
84	0x3f7a6b19	0.9781967
85	0x3e5b9f74	0.21447545
86	0xbf550e7f	-0.83225244
87	0x3e1c4abb	0.15262882
88	0x3e8f637e	0.28005594
89	0xbe8b0b90	-0.2715726
90	0x3e9f6dd3	0.31138477
91	0xbe8e7fef	-0.2783198
92	0xbee8d007	-0.45471212
93	0x3e13bd70	0.14427733
94	0x3ed52202	0.41627508
95	0xbe975c93	-0.29562816
96	0xbf1fa8e8	-0.62367105
97	0xbc5f94cb	-0.013646315
98	0x3ee3cf8c	0.44494283
99	0xbef11a9a	-0.47090608
100	0x3e7fbddf	0.24974774
101	0x3ee4fa00	0.44721985
102	0xbda8aeac	-0.08236441
103	0x3ea0ce9f	0.3140764
104	0xbcb82f97	-0.02248363
105	0x3e06c096	0.13159403
106	0xbf0ee1b5	-0.5581315
107	0x3d191cf8	0.037381142
108	0x3edb1963	0.42792806
109	0x3aac3b50	0.0013140235
110	0xbeb9d7d2	-0.3629747
111	0x3e898cde	0.26865286
112	0xbe926855	-0.28595224
113	0xbd8bda12	-0.06828703
114	0x3e85ddcd	0.26145783
115	0xbf2c892c	-0.6739681
116	0xbe3999d9	-0.18125094
117	0xbe1ab91b	-0.15109675
118	0xbeaf2136	-0.34205025
119	0xbf0d9529	-0.55305725
120	0x3f97aec3	1.1850208
121	0x394c58b5	0.00019488002
122	0xbf66c493	-0.901437
123	0x3e8b7383	0.27236566
124	0xbe4e9878	-0.2017535
125	0xbf3b63c2	-0.73199093
126	0x3ec50cff	0.38486478
127	0xbf1ffd85	-0.62496215
128	0x3c16cfd4	0.0092048235
129	0x3d171ab6	0.036890708
130	0x3f546c76	0.82978
131	0xbe12f9ab	-0.14353053
132	0xbd1bfee7	-0.03808489
133	0x3e908258	0.28224444
134	0xbe0a3a7f	-0.13498877
135	0xbe1fb112	-0.1559489
136	0x3eaa7cbf	0.332983
137	0xbed58b1e	-0.417077
138	0xbd1a9028	-0.037735134
139	0x3ee79b61	0.45235732
140	0x3e009bf0	0.12559485
141	0x3e686fd5	0.2269891
142	0xbeb7cf36	-0.35900277
143	0x3e28722e	0.16449806

encoder.blocks.2.k_proj.weight f4 [12, 12]
0	0x3d7262d9	0.0591763
1	0xbe7ee61b	-0.24892466
2	0x3c6d5da2	0.014487656
3	0x3d815fcd	0.06317101
4	0xbccaf58c	-0.024775289
5	0xbd56cbd9	-0.052440498
6	0xbe70ece1	-0.23527862
7	0xbe162c7f	-0.14665411
8	0xbd6e2673	-0.058142137
9	0x3cd4f485	0.025995502
10	0xbc97e734	-0.018542863
11	0xbde0a7d6	-0.10969512
12	0x3e3d8f5f	0.18511723
13	0xbe54de69	-0.20787968
14	0x3e0417a9	0.1289965
15	0xbe30b112	-0.17255047
16	0x3d225611	0.03963286
17	0xbdea5073	-0.11441126
18	0xbe231252	-0.15924957
19	0x3de88199	0.11352844
20	0xbe3e1a7f	-0.18564795
21	0x3ce2e8df	0.027698932
22	0x3db8a206	0.090152785
23	0xbe190b84	-0.14945799
24	0x3ecd5490	0.4010358
25	0x3e3f2a63	0.18668513
26	0x3d93251d	0.07184813
27	0x3e89da50	0.26924372
28	0x3ecf7187	0.40516302
29	0x3e000e5d	0.12505479
30	0x3eb0cad4	0.34529746
31	0x3dc1c860	0.094620466
32	0xbd736e93	-0.059431624
33	0x3d8650c0	0.065583706
34	0x3e050eae	0.12993881
35	0x3de6859c	0.11255953
36	0xbd4ee816	-0.050514303
37	0x3e89a2ac	0.2688192
38	0xbde69348	-0.112585604
39	0x3ddbeaca	0.10738142
40	0xbb8ad1a9	-0.004236419
41	0x3d8fdcbf	0.07024526
42	0x3eb4624e	0.3523125
43	0x3ed1d062	0.40979296
44	0x3d59943c	0.053119883
45	0x3e8d6668	0.27617192
46	0x3e721b7f	0.23643301
47	0xbdd32b31	-0.103109725
48	0x3e2d29df	0.16910504
49	0xbe312fe2	-0.17303422
50	0x3dc9caab	0.09853109
51	0x3e3ea779	0.18618573
52	0x3e75b2e6	0.23994026
53	0xbe2fcd95	-0.17168267
54	0x3e2eb8a3	0.17062621
55	0x3e4c6305	0.19959648
56	0x3d73b99c	0.059503183
57	0xbc2cd4e6	-0.010548806
58	0x3da8263e	0.08210419
59	0xbe10ccfe	-0.14140698
60	0xbe5a41c5	-0.21314152
61	0x3d372e4c	0.044721887
62	0xbdba56a4	-0.09098557
63	0xbde1b293	-0.110203885
64	0xbc63d005	-0.013904576
65	0xbd903286	-0.070408866
66	0x3e444bfd	0.19169612
67	0xbe3f3f3f	-0.1867647
68	0xbce6cd75	-0.028174141
69	0xbe04f7c4	-0.1298514
70	0xbd517946	-0.051141046
71	0xbd35ecf4	-0.04441543
72	0x3e20481e	0.1565251
73	0xbdeebc6a	-0.11657031
74	0xbe0acbd6	-0.1355432
75	0x3dc2563a	0.09489103
76	0x3d799742	0.060935266
77	0xbe7224ae	-0.23646805
78	0x3cdfe541	0.027330996
79	0x3d3ec75a	0.046576835
80	0x3c957781	0.01824546
81	0x3dc8fcee	0.098138675
82	0xbddaf882	-0.1069193
83	0x3daca4cc	0.0842987
84	0xbda7942f	-0.08182561
85	0xbe2d8489	-0.1694509
86	0x3e1f7a86	0.15574083
87	0x3e29493b	0.16531841
88	0x3da03790	0.07823098
89	0xbdfbffba	-0.12304635
90	0xbd2a4464	-0.04156913
91	0x3e3c11d7	0.1836618
92	0x3d727a5e	0.05919873
93	0xbdb1491e	-0.08656524
94	0x3dec5e09	0.11541373
95	0xbd378c50	-0.044811547
96	0x3c205b80	0.00978744
97	0x3eb209d3	0.3477312
98	0x3dc58a8e	0.09645568
99	0x3d3e8203	0.046510708
100	0x3cdf6757	0.027270956
101	0x3e73e8b7	0.23819242
102	0x3ea02e94	0.31285536
103	0x3d8ba14f	0.068178765
104	0x3e59a52e	0.21254417
105	0x3e170874	0.14749318
106	0x3e82df8d	0.2556118
107	0x3d96ed05	0.07369427
108	0x3e6892f0	0.22712302
109	0x3d5d34c6	0.054005407
110	0x3c3184c1	0.010834874
111	0x3d80be9f	0.06286358
112	0x3d9aa8d6	0.07551734
113	0x3d9878c0	0.07444906
114	0x3e431b12	0.19053295
115	0x3c9225c9	0.017840283
116	0x3d9c4c1f	0.076317064
117	0x3e53c67e	0.20681188
118	0xbdbbadba	-0.09163995
119	0x3e388d1e	0.18022582
120	0x3bf9d229	0.00762393
121	0x3d81016f	0.062991016
122	0xbc5e4947	-0.013567275
123	0xbc9b21cc	-0.018937014
124	0xbd47fc59	-0.04882464
125	0x3e3b5626	0.18294582
126	0x3d74562d	0.059652496
127	0x3d2429cd	0.040078927
128	0xbe484600	-0.19557953
129	0xbdc31047	-0.09524589
130	0xbe8dbca4	-0.27682984
131	0x3de24523	0.11048343
132	0xbd2ab24c	-0.041673943
133	0x3df94009	0.12170417
134	0x3e2beca8	0.16789496
135	0x3e21008c	0.15722865
136	0x3e03d1b9	0.12872972
137	0x3c1e2ad7	0.0096537685
138	0xbca7247e	-0.020403143
139	0xbe797526	-0.24361095
140	0x3e9293c7	0.2862837
141	0xbd696bad	-0.056987453
142	0x3eb584c1	0.35452846
143	0xbd3b4f0f	-0.045729693
