H_AFM/experiments/my_exp/model_final.pt (torch, 139573 bytes, 15 tensors)

embedding.pos_embed f4 [1, 64, 16]
00000000: 8f66 dc3d 8919 ef3d 878b 27bf 1f56 9ebf
00000010: 1eae 17be e8fd 803f e476 cc3e d22a 35bf
00000020: c4ed 22bf e754 8f3d 154c 8b3e 0af0 5d3f
00000030: a9ff cabe 8b4c 833e ee82 1a3f 96dc 82be
00000040: a253 533f ad70 c93e 1337 f9be 8313 01c0
00000050: adef aa3e 53f9 983f 0c55 193e 0bef ae3e
00000060: 4392 22bf bfec 853f 4593 813f d6f8 b63f
00000070: 0cdb 893b 2252 5bbd b7e8 0d3f 6825 ff3e
00000080: 0065 13be 4e7e 01bd 0711 373c 6672 d8bf
00000090: c233 263f 072b 8b3d bb91 273f fb0c 633f
000000a0: 00d0 83be e5fd 0840 370c 64bf e66e 393f
000000b0: ea72 98bd 5c14 1040 f65f 4bbf cb46 17bf
000000c0: 9803 88be d297 133e eb2b 833e 08ff 2fbf
000000d0: cb8e 3fbe 69f1 ad3e 9b61 073f 1d67 a43e
000000e0: 3469 5f3f 8419 1b40 625d 0b3c 8e15 313e
000000f0: 73c6 1abf 20db fe3f 98ee 1b3d d986 1abf
00000100: dfb7 fcbf ba21 233d 7daf bc3f 6489 42bf
00000110: 5a33 92be 74a7 fe3e 9475 dcbe 0e8c b2bf
00000120: 2deb 23be d3c4 8c3e 23c2 35be e7de 8f3e
00000130: 2e09 04bf 8a72 dd3f 7865 0d3f 6d60 d03e
00000140: bdce 4dbf ea9d 51bc 37a2 d33e f895 89bf
00000150: 209e ac3e a108 793e 431e 03c0 a3c4 c2bf
00000160: 4e17 093f cff9 b6be a2ff f43e 8784 993f
00000170: 19c4 8dbe 307a 193f 1d47 9e3c 3f40 213f
00000180: 65f2 53be 1e11 f33e 7f3a 033f d7e1 243e
00000190: 561f a13f 4970 973f 4314 b9bf f13c 4fbf
000001a0: ad4b 073e 61e2 56be 81c7 8c3f cda7 823e
000001b0: 7265 95bf a22e 2bbd 0b0d 50bf 203f eabe
000001c0: b97c b6bf 6abd 943e 8123 0abf 8af1 c63d
000001d0: 129e bf3f 5165 203f aff7 1ebf 0b02 53bd
000001e0: 3a28 56bf e926 013e e5a1 b63f 273f 3dbe
000001f0: afdf cfbe 0df9 6dbd 4af0 913e 135a e2bf
00000200: bb73 553f 39c9 df3e 97ca 18bf f806 1dc0
00000210: 8e67 a73d 09b1 b83f 4af6 ba3e b603 fabf
00000220: f989 bfbf a71d 35bf 38da 943f dc1b 7c3f
00000230: a96b 363e 303d 43bf 1d5d 203f d2de 3e3f
00000240: 8175 b63f e303 c43e bc51 94be 8945 7fbf
00000250: 8fcd eb3e d252 c63f eac4 323d 9188 d2be
00000260: fed6 dd3d 22f1 d73e f5dd bb3f ef07 813f
00000270: ed3c 093f 6a8c c83f 83cb 09ba b758 673f
00000280: 865e f93d 9504 50bf f889 45bf 9720 debf
00000290: 0c59 c23f d227 7d3f a616 033f 8317 d9bd
000002a0: b58b 94bf f027 1240 b9b5 58bf 3176 b33f
000002b0: cacc 343d a3ec 0440 cb9e 73bf 2ef8 29bf
000002c0: 9790 7a3e 3194 b7bf 2956 83bd 81e3 44bf
000002d0: 24e1 c83f d888 383e 4193 bdbd 1550 11bf
000002e0: 39ae da3e 146a d13f e192 f8be a7f3 283f
000002f0: 8611 553b d339 0c40 16fe 9d3e c977 49bf
00000300: 6152 8cbf 1232 0cbf e71a 393f 8b89 20bf
00000310: 2ad4 7d3f 9293 b13e 81a1 a9bf ef86 aebf
00000320: 46d7 c13f 3bf5 2b3f a505 9abd bb04 023d
00000330: 63db 67bf 4a7b 753f d086 643d 36fb af3e
00000340: 5d83 89bf 60f3 193e 65e2 4ebe 84f4 60bf
00000350: a186 383f 8f53 643f cf99 e3bf d98d ccbf
00000360: 1924 1540 14a6 da3d 7331 473f 145a 343d
00000370: 0df4 c2bf bd02 8dbe be5b 6dbf b78b 1a3f
00000380: ca2b 1abf cb54 243f 6022 2ebf d1a1 6ebf
00000390: 5120 a43f 50ac be3f 61c1 a9bf 0322 dbbf
000003a0: 9946 c63f c817 c4be 9900 5c3f ab1e 58bf
000003b0: 3fee 6cbf 8b1c 88bf 3fc6 fbbd 1a2f 39bd
000003c0: 94f2 a8bf 1574 653e 7018 98bf 3998 173f
000003d0: 4c66 393f fb32 a53f f504 0cbf 955a ddbf
000003e0: 52a2 0bbf 73f8 29bf b289 963f c670 a4be
000003f0: f285 02bf 22cf 82bf 6c68 84bf 36e9 b23c
0.10761749 0.11674792 -0.65447277 -1.2370032 -0.14812514 1.0077486 0.39934456 -0.70768464
-0.6364405 0.06998616 0.27206483 0.86694396 -0.39648178 0.25644335 0.6035603 -0.2555892
0.8254949 0.39343777 -0.4867483 -2.016816 0.33385983 1.1951088 0.14973849 0.3416675
-0.6350443 1.0462874 1.0123068 1.4294689 0.0042070206 -0.053545125 0.5543322 0.49833226
-0.14393997 -0.031614594 0.011173493 -1.6909912 0.64922726 0.06795316 0.6545674 0.8869168
-0.2574463 2.1404965 -0.8908114 0.7243484 -0.07443793 2.2512426 -0.794433 -0.59092396
-0.26565242 0.14413384 0.25619444 -0.6874852 -0.18706815 0.33973244 0.5288331 0.3210992
0.872699 2.4234324 0.008506151 0.17293379 -0.6045906 1.9910622 0.038069338 -0.6036201
-1.9743613 0.039827086 1.4741055 -0.7599089 -0.28554803 0.49737132 -0.43058455 -1.3948991
-0.16007681 0.27493915 -0.17749839 0.28099748 -0.5157651 1.730058 0.55232954 0.40698567
-0.8039358 -0.012793997 0.41334698 -1.0748892 0.3371439 0.24319698 -2.048722 -1.5216259
0.53551185 -0.35737464 0.47851282 1.1993569 -0.27688673 0.5995207 0.019321019 0.62988657
-0.20697935 0.47473997 0.5126113 0.16101776 1.2587688 1.1831142 -1.4459308 -0.80952364
0.13212462 -0.20984794 1.0998384 0.25518647 -1.1671584 -0.04179252 -0.812699 -0.45751286
-1.4256812 0.2905076 -0.53960425 0.09714039 1.4970114 0.62654597 -0.62096685 -0.05151562
-0.8365513 0.126125 1.4268156 -0.18481122 -0.40600345 -0.05809884 0.28503639 -1.7683738
0.83379716 0.43708208 -0.5968413 -2.4535503 0.08174048 1.4429027 0.3651603 -1.9532382
-1.4963981 -0.7074837 1.1629095 0.9848001 0.17814507 -0.7626524 0.6264208 0.74558747
1.4254609 0.38284215 -0.28968608 -0.9971548 0.46055266 1.5494025 0.043644823 -0.41119817
0.10832022 0.42176157 1.4677111 1.0080546 0.5360859 1.5667851 -0.0005256461 0.90369743
0.12176232 -0.8125699 -0.7716365 -1.7353696 1.5183425 0.98888886 0.51206434 -0.10600188
-1.1605135 2.2836876 -0.84652287 1.4020444 0.044140615 2.0769432 -0.95164174 -0.6639432
0.24469219 -1.43421 -0.06412918 -0.76909643 1.5693707 0.18020952 -0.09256602 -0.5676282
0.42711046 1.6360497 -0.4854956 0.65996784 0.0032511665 2.1910293 0.30857915 -0.786984
-1.096264 -0.547639 0.72306675 -0.62709874 0.9915186 0.346829 -1.3252412 -1.3634928
1.5143821 0.67171067 -0.07520608 0.031742793 -0.9056913 0.9589125 0.05579263 0.34371346
-1.0743214 0.15034246 -0.2020355 -0.878731 0.7208043 0.8919 -1.7781314 -1.5980788
2.3303282 0.10676208 0.7780983 0.044031218 -1.5230728 -0.27541152 -0.9271811 0.6036944
-0.60223067 0.64191884 -0.680212 -0.9321566 1.2822362 1.4896336 -1.326214 -1.7119755
1.5490295 -0.38299394 0.8593841 -0.84421796 -0.92551035 -1.0633711 -0.12293672 -0.045210935
-1.3199029 0.22407563 -1.1882458 0.5921665 0.7242172 1.2906183 -0.54695064 -1.7293268
-0.54544556 -0.6639473 1.1760771 -0.3211729 -0.50985634 -1.0219462 -1.0344367 0.02183972

embedding.patch_embeddings.projection.weight f4 [16, 4]
00000000: 4891 99be 7e3a 9abe dfef 96be 08f9 96be
00000010: 1aff 63be ff57 003e cc29 253e 5539 3dbe
00000020: b5a8 95be 9e41 babe 1b6b 8cbe e3aa b4be
00000030: 8dfe 8e3e 8c3d 8f3e 3bd4 943e d7a7 8c3e
00000040: 5b1b c53e 3133 a13e 09e4 ab3e f1d1 9e3e
00000050: f469 62be 36ff 743e ff73 4d3e 09c8 2abe
00000060: 5684 533e 3701 1abe 8410 6cbe ffd1 2e3e
00000070: 7c02 913e 67d8 783e a001 ab3e b351 863e
00000080: 7b30 9d3e 72f3 973e 418c 973e c91d 8d3e
00000090: c514 663e d618 3cbe 0c89 28be af45 f53d
000000a0: f817 1d3e 5c2d 53be 6586 2ebe 0032 5d3e
000000b0: 0dab 4fbe 0de5 3d3e 093d 2b3e a30d 1ebe
000000c0: 379b 013e 6f49 70be ff1e 58be 7327 403e
000000d0: 5d6b 91be 593f 93be b8ac 7bbe 723a b1be
000000e0: 490d a1be 52b0 adbe 335d 84be 9c20 97be
000000f0: 2851 b2be 0b3d 92be 503e 50be f24a 6abe
-0.29993653 -0.3012275 -0.29479882 -0.2948687 -0.22265282 0.12533568 0.16129225 -0.18478902
-0.29230276 -0.36378187 -0.27425465 -0.35286626 0.27928582 0.27976644 0.2906817 0.27471802
0.38497433 0.31484368 0.33572415 0.31019548 -0.2211073 0.2392548 0.2006378 -0.1667787
0.20655951 -0.15039526 -0.23053175 0.17072295 0.28322208 0.24301301 0.33399677 0.26234207
0.3070105 0.29677922 0.29599193 0.27561787 0.2246886 -0.18368849 -0.16458529 0.11976182
0.15341175 -0.20622772 -0.17043455 0.21601105 -0.20280094 0.18544407 0.16722502 -0.1543489
0.12656866 -0.23465513 -0.21105574 0.18765049 -0.28402224 -0.28759268 -0.24577606 -0.34614903
-0.31455448 -0.33923584 -0.25852355 -0.29517066 -0.34827542 -0.28562197 -0.2033627 -0.22880152

encoder.blocks.0.q_proj.weight f4 [16, 16]
00000000: d5fd 2b3c bff2 9dbc 4df2 243d 518f e2ba
00000010: 04bd 023d e665 3cbc fd89 5bbb fddf d43c
00000020: 8653 45bc 3f3f 59bd c877 21bc bd9f a53b
00000030: 6db3 a4bc 2bcb a7bc 97ef 8abc 64e5 cabc
00000040: 1286 8dbd 046b 6bbe ac89 eebe e1a8 6a3e
00000050: fc15 d73d b8aa ab3e 2583 c23e d61c 203f
00000060: 41ba 9cbe ae8e 8a3e 2ce2 e13e 59a2 163f
00000070: 3758 883e b137 313f bc7f b43e 69d7 d33e
00000080: eee8 9d3c 3e84 2b3f 8c8a 1c3f 5510 98bb
00000090: f58d bc3e af79 0fbf 6010 863e 720f 76be
000000a0: a825 cc3c 6e6f 04bd 9404 dcbe 653e b6b9
000000b0: 34f8 113f b8bb fbbc 82fc fc3e 79ec 5f3e
000000c0: 0a1e b93d ea49 85be 43ae 823d 6f41 95be
000000d0: dd85 bdbe 629c 113e f7c6 3fbd ff8d d53e
000000e0: 1049 87be 997a 063f b076 01bf 4a3c c93e
000000f0: 64ee 1abf 0a67 0e3f 1aaf 2f3d 0988 4cbf
00000100: 36b8 ffbe e2c3 0bbf 4038 07bf 7b08 da3b
00000110: 2870 9d3d 243e 073f fb9d 27bf ef5a 1ebe
00000120: 325d fb3d 59e5 5bbe 6822 09bf f7b6 1fbe
00000130: dcf4 123e 3e6d d13e 9ba6 113f 43f1 36be
00000140: 14e2 dcbe ef01 08be 6ec8 93be dc2a a53e
00000150: 53e1 76be 2157 893e ad35 d13e 4d36 01bd
00000160: b29e 123f 287a b93e f451 12bf fb2e 813e
00000170: 569c 4e3f 7dbf 673a 9bf9 fbbe fe29 adbc
00000180: 4eae acbe 0aad 653d a719 ba3e 0b37 2ebf
00000190: 3cf9 2abf e3f2 213f 9b4c 143e 17be cdbe
000001a0: dcf7 db3e ebac f5bc c8c5 323f 43da 7f3e
000001b0: 2f1b 5d3e d00b ee3d 1db3 62be f233 f5be
000001c0: e865 bc3e 4845 d2be c4de bebe 922b 67bc
000001d0: e485 bdbe d1a1 ebbe 5681 d43e 5d86 ed3e
000001e0: 4db3 093f 3f44 79be 497a 1abe f0c4 1bbf
000001f0: 0358 a83d 6391 c33c 5c9c cd3d 6c26 87be
00000200: 7d91 eabe 1562 c73e aaff 893e e2b5 ed3d
00000210: ef7f b1be 2ea6 f9bd cca4 e1be f215 3a3f
00000220: 327a a3bb 44ec 02bf 0f3c 47be 5f52 083e
00000230: 9e8d 353e 731f 1fbf 0bef 5f3e d0a2 bb3d
00000240: 2c9a c6be e007 79be 4b32 e03d 3f2c 8f3e
00000250: b1b7 3fbf 3eff 953d 944c 223f 8d2e 1fbe
00000260: 9c82 99be c498 cfbe f044 d6be d084 6fbd
00000270: f60a 043e 2e01 b0be 3262 283f 960c 3c3e
00000280: 43ff fdbe 9ebd 203f b1d5 e2be 7162 34bf
00000290: c48f 2f3e 797c 093f 873d 963e ffdf b53e
000002a0: 89bc 1fbf b57b a03e 9ebf 60bd fcd6 ccbe
000002b0: 339c 96bb 4ad4 7dbe 7fa0 c6be 19cc 39be
000002c0: ce36 5c3f b611 3f3e 3c4a 983e ae6e 353c
000002d0: 656e a03d a7d5 133f 081f 84bd ddbf bd3e
000002e0: e172 4f3b 78f0 22bf ce92 2dbd 7d1e 6d3e
000002f0: 3dcb 933e 4fff 0fbf d12c 7c3e af67 a5be
00000300: 7658 87be a8b8 1abe b3fe 263e 617b 513f
00000310: 357b d03e ac47 db3e 24f4 de3d 16b2 1a3e
00000320: be81 89be b8c5 4cbe 3a5c 243e c62c 0abf
00000330: 9c5b c5bd 1a0b 9c3a af2b 76be 2106 8dbf
00000340: 03f0 973e ba55 453b 4605 ba3e 1183 cc3e
00000350: 275f f6be 19e1 833e e343 e3be 8266 ecbd
00000360: 20e2 30bf 1c42 e23e 62e4 63be e8e1 22bf
00000370: 8d6d 0c3f fd12 a63e 8ca2 d8be 79f3 053f
00000380: 7732 b1be aa33 19be 0a1d 823f 5c6e 5fbe
00000390: 84ed 923e 101a 84be a5ad a5be 0cdc 143f
000003a0: d5e6 9c3e e2e6 113f 1baa 823e bced ddbe
000003b0: f749 3a3e df52 193f ee3a 693d 40a6 debd
000003c0: d58e 97be 65b0 fdbe 2343 e63d b81c fcbc
000003d0: f138 a23e 1041 debe a570 d7bb 42c3 d23b
000003e0: bb96 d9be ec96 5ebe b886 c43e d5b5 5d3e
000003f0: ea5f 3e3f 0c82 61be 7943 313e efcd 43be
0.01049753 -0.01928079 0.04027014 -0.0017285143 0.03191854 -0.011498904 -0.0033498995 0.025985712
-0.012043839 -0.05303883 -0.009855218 0.0050544427 -0.020105088 -0.02048262 -0.016959948 -0.024767585
-0.069103375 -0.22990042 -0.4658941 0.22915985 0.1050224 0.33528686 0.3799068 0.62544
-0.3061085 0.2706198 0.44117868 0.5884147 0.26629803 0.69225603 0.35253704 0.41375282
0.019276109 0.6699866 0.61148906 -0.004640619 0.36827055 -0.5604505 0.26184368 -0.2402933
0.0249203 -0.03233283 -0.42972243 -0.00034760233 0.5701935 -0.03072916 0.49411398 0.21867551
0.090389326 -0.26032954 0.06380894 -0.29151484 -0.37016192 0.14219812 -0.046820607 0.41709897
-0.2642293 0.5253082 -0.5057173 0.3930381 -0.60520005 0.55625975 0.0428916 -0.79895073
-0.4994523 -0.5459577 -0.52820206 0.006653843 0.07687408 0.52829194 -0.65475434 -0.15464376
0.12273635 -0.21474208 -0.53568125 -0.1559714 0.14351219 0.40903658 0.56894845 -0.17865472
-0.43141234 -0.13281988 -0.28863853 0.32259262 -0.24109392 0.26824287 0.40861264 -0.031545926
0.572734 0.3622601 -0.571563 0.25231156 0.807073 0.00088404847 -0.4921387 -0.021138187
-0.33726734 0.056073226 0.36347696 -0.6805274 -0.6678655 0.6326124 0.14482348 -0.4018409
0.4296254 -0.02998968 0.6983304 0.24985604 0.21592401 0.11623347 -0.22138639 -0.47891194
0.36796498 -0.41068482 -0.37279332 -0.014109509 -0.37016213 -0.46021894 0.41504925 0.46391574
0.53789216 -0.2434244 -0.1508571 -0.6084738 0.08219912 0.023873037 0.10039589 -0.263965
-0.45814124 0.38942018 0.2695287 0.11606957 -0.34667918 -0.121898994 -0.44071043 0.72689736
-0.004988932 -0.5114176 -0.19456504 0.13312672 0.17729804 -0.6215736 0.21868531 0.091619134
-0.387895 -0.2431941 0.109470926 0.27963445 -0.74889666 0.07324074 0.633981 -0.15545101
-0.2998246 -0.40546238 -0.4184947 -0.05847627 0.12894806 -0.343759 0.65774834 0.18364176
-0.49608812 0.6278933 -0.4430366 -0.7046271 0.17144686 0.53705555 0.29343817 0.35522458
-0.62397057 0.3134438 -0.05487024 -0.4000777 -0.004596257 -0.24788013 -0.38794324 -0.18144263
0.86021125 0.186591 0.29744136 0.011073751 0.07833556 0.5774788 -0.06451231 0.37060443
0.0031654167 -0.63648176 -0.042376332 0.23156162 0.28865996 -0.56248945 0.24626471 -0.32305667
-0.26434678 -0.15109503 0.16308098 0.81828886 0.40719 0.4282812 0.1088641 0.15106997
-0.26856798 -0.19997299 0.16050807 -0.5397457 -0.09636614 0.0011905164 -0.24040101 -1.1017495
0.29675302 0.0030110911 0.36332148 0.39943746 -0.4811947 0.25757673 -0.4438773 -0.11542989
-0.6909504 0.44191062 -0.2225509 -0.63625956 0.5485466 0.32436362 -0.42311513 0.52324635
-0.34608814 -0.14961115 1.0165112 -0.21819443 0.28696835 -0.25801134 -0.32359043 0.58148265
0.3064486 0.56992924 0.25520405 -0.4334544 0.18192278 0.59892076 0.056940965 -0.108715534
-0.2960116 -0.4954864 0.11243274 -0.030775413 0.31684068 -0.43409014 -0.0065747076 0.006431968
-0.4249781 -0.2173726 0.38384032 0.21651395 0.74365103 -0.22022265 0.17310895 -0.19121526

encoder.blocks.0.k_proj.weight f4 [16, 16]
00000000: dab6 3d3c 8b69 9cbc 8e89 963d 2df4 993a
00000010: 11f7 163d 39e5 1cbc 6ff0 943b ab19 d13c
00000020: 606d 7dbc 9eae 2fb9 24d5 d33c f971 7fbc
00000030: b875 6b3b bf20 39bc e90c 95bb b980 fabc
00000040: 7870 ab3d 4f35 753e f33e 13bf 0b05 5f3e
00000050: 36e9 503e 6fd8 96be 6ce1 e4be f397 1e3f
00000060: 8be5 9ebe f2e5 56be 1efc cfbe 9049 04bf
00000070: ecdf 94be 46bd f53e 02d9 df3e 0338 f63e
00000080: e64d 1b3e fd22 50bf aba4 013f 751d 0c3e
00000090: 1f16 bf3e a3e3 073f 0b95 36be 6c81 52be
000000a0: f5c1 243e 6a66 373d d117 e33e fc62 973a
000000b0: 167b 30bf 7fe0 0b3d 5094 a83e 2963 8f3d
000000c0: b2fc fc3d 2ad0 893e 281b 18bb ba47 c8be
000000d0: fb90 0fbf 2abd a2bd cb4d 10bd 59bb ab3e
000000e0: b884 a1be 14b4 e8be a749 103f 08cc 08bf
000000f0: c294 043f 9549 de3e f84e 213e 167f 27bf
00000100: 9b18 c1be 4640 173f 71c7 b4be d3b8 953d
00000110: 34c5 d7bb 0917 febe 2476 203f e728 b3bd
00000120: 05b4 493e 4f45 a53e 7614 0e3f 80eb 433e
00000130: 5281 75be 839f 053f 81ea 0f3f 248c 47be
00000140: a3b8 4dbe a81a b23e cee2 9abe 5cfa e63e
00000150: 6026 88be e73b b7be 70d2 edbe c32a a8bd
00000160: 6922 213f 9112 00bf a8f3 d03e eb2f 55be
00000170: 5b7e 3ebf 9ef6 a1bd ecd6 04bf 78bf 763d
00000180: cde3 8ebe 3816 81bd a33b 883e b9dd 0abf
00000190: 5b78 eebe e3a7 38bf b21f 4bbe 78dd bbbe
000001a0: fc5c d53e b805 183e 720c 36bf bc3d d0be
000001b0: 0802 91be 5c50 513c f3ca 49be bce5 febe
000001c0: e3f7 9b3e ef0e e93e 181b 0bbe 5c85 23bd
000001d0: b1a5 b3be a1b4 db3e a515 eebe caa4 e93e
000001e0: 2e30 cf3e ca39 603e 55c5 1c3d 2735 2a3f
000001f0: 4cc6 54be 9351 383e 5fff 803d 8b44 44be
00000200: ded0 e6be 7172 bbbe 3e1f 913e d990 093e
00000210: e2e9 89be 0815 9f3d cb77 f23e 9398 4d3f
00000220: 723b b73d d566 bc3e 9ee5 323e 6382 96bd
00000230: 9994 f3bd 30db 19bf 9ca3 093e 017d 5dbd
00000240: 53eb 7dbe 4421 e83d 7df7 783e cf3d d03e
00000250: 2c13 28bf bc54 d2bd 4006 05bf 9961 f4bd
00000260: 5e93 9fbe 96ce 183f de0f e73e 9483 e83d
00000270: d3f3 87bb 14f2 80be 8fed 3a3f 0587 fb3d
00000280: f135 f2be 4f28 11bf dded 07bf df08 35bf
00000290: 2199 2e3e 4980 09bf 2427 b0be 091e b23e
000002a0: efcb 11bf e12a b4be d439 503e 09ef cc3e
000002b0: ee64 fb3d 9d3a 47be ed3e e8be de98 30be
000002c0: 2f80 853f bbce 70be 463c b93e 44bc d63d
000002d0: 92e7 3e3e 89fc fcbe 3f40 253e c618 fd3e
000002e0: 0329 fa3d 3349 143f ab1d 123d 08b3 9fbd
000002f0: 262c c9be f077 05bf 0d9f 083e fd1c d5be
00000300: 6526 3dbe 62bc 9e3e 19bd 8b3e 2796 523f
00000310: b416 e13e 02ea a7be 51f8 9ebd 4dca 463e
00000320: 4e96 9cbe b507 5dbd 1784 36be 370d 023f
00000330: a9bf 6a3e 9614 c53d 06d4 3ebe 7152 83bf
00000340: 5744 733e 5db5 febc 1942 813e 2a10 d33e
00000350: 964a 1dbf 6fec 87be 04df fd3e 756a 05be
00000360: f1ab 1bbf 1e79 a8be 3700 0f3e 5fb5 e83e
00000370: f862 c1be 3d92 9c3e 60ad 0abf d622 133f
00000380: 93f5 e7be c260 8c3d 28c5 703f eaa9 97be
00000390: 165b 1e3e 1745 1d3e 6967 5a3e 6f5f ff3e
000003a0: 82be 7c3e 4ee8 37bf 7af2 a3be e604 503e
000003b0: 9e1a afbe 2073 123f 5bc6 b2bc 2484 933a
000003c0: ec0a 9ebe f949 e43e 3b65 123e f74d fd3a
000003d0: 037a fc3e 9b29 f93e 8042 223d 26d0 2cbd
000003e0: 1843 e2be 5a78 493e a7ab 8dbe 1f90 34be
000003f0: 3677 32bf b3e5 96be 9215 3e3e ff2a 95be
0.01157924 -0.019093296 0.07350455 0.0011745744 0.036856715 -0.009576135 0.0045452635 0.025524935
-0.015467972 -0.0001675435 0.02585847 -0.015591138 0.003592832 -0.011299311 -0.004548658 -0.030578958
0.08371061 0.23946117 -0.5751793 0.21779267 0.20401463 -0.29462 -0.44703233 0.61950606
-0.31034502 -0.20986155 -0.40622038 -0.5167475 -0.2907709 0.47995967 0.4372025 0.4808961
0.15166435 -0.8130339 0.5064189 0.13683112 0.37321565 0.5308172 -0.17830293 -0.20557183
0.16089614 0.044775404 0.44354108 0.0011549885 -0.68937814 0.034149643 0.32925653 0.07001335
0.12352885 0.2691663 -0.0023209546 -0.39117223 -0.560806 -0.079462364 -0.03523044 0.33541372
-0.3154657 -0.4544989 0.56362385 -0.53436327 0.51789486 0.43415514 0.1575278 -0.6542829
-0.37714085 0.5908245 -0.35308412 0.07310643 -0.0065847877 -0.4962695 0.6268027 -0.08748036
0.19697578 0.3227944 0.5549997 0.19132805 -0.23975113 0.5219652 0.562172 -0.19487053
-0.20089965 0.34785962 -0.30251163 0.45112884 -0.26591778 -0.3578789 -0.46449614 -0.08211281
0.6294313 -0.5002833 0.40810895 -0.2081906 -0.74411553 -0.079083666 -0.51890445 0.060241193
-0.27908173 -0.06303066 0.26608 -0.5424457 -0.465762 -0.72131175 -0.1983631 -0.36692405
0.41672504 0.14845932 -0.7111274 -0.406721 -0.28321862 0.012775507 -0.19706325 -0.49784648
0.3046256 0.45519206 -0.13584554 -0.039922103 -0.3508735 0.42911246 -0.46500888 0.45633537
0.40466446 0.21897045 0.038274128 0.66487354 -0.20778769 0.17999868 0.06298708 -0.19166772
-0.45081228 -0.3661075 0.28344148 0.13434161 -0.2693625 0.07767683 0.4735702 0.80310935
0.08946885 0.36797205 0.17470405 -0.07349088 -0.11893577 -0.6010008 0.13441318 -0.05407429
-0.247968 0.1133447 0.2431316 0.40672156 -0.65654254 -0.10270068 -0.5196266 -0.11932678
-0.3116712 0.59690225 0.45129293 0.113532215 -0.004148939 -0.2518469 0.73018736 0.12281612
-0.4730678 -0.5670213 -0.53097326 -0.7071666 0.17050602 -0.5371137 -0.34404862 0.3478854
-0.569518 -0.35188964 0.2033456 0.4002612 0.1227511 -0.19455953 -0.4536051 -0.17245814
1.0429744 -0.23516361 0.36178797 0.104851276 0.18643025 -0.4941142 0.16137789 0.49432963
0.122148536 0.57924193 0.035672825 -0.077978194 -0.39291495 -0.52136135 0.13341923 -0.4162368
-0.18471678 0.310031 0.27292708 0.82260364 0.43962634 -0.3279572 -0.07762206 0.19413109
-0.30583423 -0.053962428 -0.17823826 0.50801414 0.22924675 0.09623067 -0.18635568 -1.0259534
0.23756538 -0.03109234 0.2524574 0.4122327 -0.61441934 -0.26547572 0.4958421 -0.13028891
-0.60809237 -0.32904905 0.13964926 0.45450875 -0.3777082 0.3058032 -0.541708 0.5747503
-0.45304546 0.068543926 0.94050837 -0.29621822 0.15464434 0.15358387 0.2132851 0.49877498
0.24682048 -0.71838844 -0.32020932 0.20314369 -0.34199995 0.57206917 -0.021823099 0.0011254591
-0.30867708 0.44587687 0.14296429 0.0019325603 0.49311838 0.48664555 0.0396142 -0.042190693
-0.44191813 0.19674817 -0.27670023 -0.17633103 -0.6971315 -0.29472122 0.18562916 -0.29134366

encoder.blocks.0.v_proj.weight f4 [16, 16]
00000000: eb0a eb3d 239d c9bd ebd9 7cbd 5ab6 1bbd
00000010: 141a 343e b01e 38be 1251 773e 7057 223e
00000020: b034 cb3d 80d2 4fbd d64b 1d3e d3bb 31be
00000030: d429 1e3e 6108 7c3e dcc8 773e b28f 733e
00000040: d08b 443e 1fa3 ddbd a730 edbd dc61 03be
00000050: d51c 4d3e 758b fc3d af95 603e 04fb 19be
00000060: 7d2d 6c3e e0de 18bd f829 823e 1e1b 4ebe
00000070: a1b1 653c 69fd 09be bfd4 bd3c 7efa 043e
00000080: 1b88 903d cb2f ecbd dc81 b33d 668a 5e3e
00000090: cece 103e 4dd3 e13d f579 29bd e3cc 623e
000000a0: 29ae 193e 7976 1d3d 9406 ff3d ae73 0e3a
000000b0: 7d24 873d 413b 573e b9c1 a93d edd7 0bbd
000000c0: 135d 81bd d0ba 3c3e d735 3c3e 2005 9dbd
000000d0: 32e6 85be 3fe6 83be 8691 6fbb 74d7 3b3d
000000e0: 3070 413e 2b00 713e b544 c8ba e0e5 35be
000000f0: f5be a1bd 8b5b 48bd 60f0 403e cb78 7d3d
00000100: a877 493d dafd cebd a74f b6bc 6b8d c6bd
00000110: 63f1 dcbc f186 2e3e 5cab ec3d fd58 2a3e
00000120: 6b4d a53e de46 013e 757b a83e 4c25 883e
00000130: fa42 31bd 7fa2 b63d d5d9 51bc 89d5 25bd
00000140: 46a0 f1bd f559 e1bd ac73 a9bd 2687 da3c
00000150: cb62 893d dca1 323d 7414 4fbd ee82 613e
00000160: 12a6 1f3e 2019 0f3e 52d0 593e 6051 3b3e
00000170: a2af 8c3e 3057 86be 4b50 6f3d 78d1 e43d
00000180: 847e a8bd c45f f6bb 9163 64be c9ef 31bd
00000190: 7cb9 c33d 065b 75be deb6 02be cb66 64bd
000001a0: 05b4 2ebe 04c5 1d3e 683b 49bb 08b1 fabd
000001b0: df62 613d fccb ee3d ed4e 6c3e fc5f e93d
000001c0: 46fa 913d feac a2bc 2337 41bc 1601 2f3e
000001d0: 9aa0 0cbe f2f9 e6bc 436d eabd dde2 173e
000001e0: 10cb a53d ee62 f9bd 0bf6 7c3e 1c75 15bb
000001f0: 9653 a83d 53bc c63c aa51 9ebd 3852 46be
00000200: 8a60 253e cbb1 d1bd 8db5 8e3d fc8a 12be
00000210: fcc2 72be 726f 59bd 790d c43d 4be9 163e
00000220: adbb 833e eb6f 293e 2bce d83c a02e b83c
00000230: e40b 373d 61cc e3bd f6e1 3f3e 64c8 833d
00000240: 4561 593c d4ee a33c 709b 9b3c c670 f2bd
00000250: 3fab 033e 15c2 33bc 9581 93bb a071 423d
00000260: 8bd0 573e ccdd 50bc 17e8 87bc 91b9 723e
00000270: 05bf 983c baca 243e 4bf0 483e 81cb 133e
00000280: af20 4d3d 1cdd 0c3e 0019 4a3e 94b0 aa3d
00000290: 8570 6bbd b3c8 cf3d cdc1 ee3d b499 083c
000002a0: 2091 903d 92c0 913e 7703 a83e 5988 eebc
000002b0: 2620 49bd 1d56 0e3e a3a3 c4bd f74d 24be
000002c0: 2bc0 bc3d e6c5 813d 2186 563e 2881 f1bd
000002d0: 59dd b73d 2f90 043e 7758 e2bd 6ecd bf3d
000002e0: d5f3 603e 4cad e33d c3c8 a8bd 328f fcbd
000002f0: 4266 ba3d 9240 173e 4c68 c23d af90 fc3d
00000300: 1fc7 edbc 5bee 91bd cee1 383e 8733 b83d
00000310: e7f9 3dbe d32a 1c3e 6db7 a4bd 1988 2bbc
00000320: eb9b 05bd ee7f 6abe 6917 593d 6fb6 17be
00000330: d4b5 3f3e 96ec 4f3e 69dc 783d 3f30 d03d
00000340: f1c6 cbbd b5ad 0f3e 4a9d 873e eb79 69be
00000350: 02e5 363e a0e6 403e f2da ccbd 2be3 313e
00000360: d05d e23d 0334 503e 166d 043e 77f3 ab3d
00000370: c85a 5a3e 47e2 45be a47b 9e3c b7ab 003e
00000380: 72d9 3cbe 6af1 243d 7035 c4bd 96d1 673e
00000390: 9c49 073e f0a9 90bd 2583 813e 5d0f 53be
000003a0: 9274 853e 53f6 dfbd e071 663d a525 b23d
000003b0: cb3e d93d 0095 e43d b302 56be 8f31 4dbe
000003c0: 6e58 35be f49e 9c3d 1062 2bbe a666 47be
000003d0: 00a7 533e 07af 2c3e bfec 90bd 6584 28be
000003e0: fcfe ad3e 145b 31be 9c7d 793e fa42 713c
000003f0: 1482 23be 9b1c 34be 8893 01be c594 4abe
0.11476692 -0.098444246 -0.06173126 -0.0380157 0.17588073 -0.17980456 0.2415202 0.15853667
0.09922159 -0.050737858 0.1536096 -0.17356806 0.15445644 0.24612571 0.24197716 0.23785284
0.19193959 -0.108221285 -0.11581545 -0.12830299 0.2003053 0.12331287 0.219321 -0.15037161
0.23064227 -0.037321925 0.25422645 -0.20127532 0.014019401 -0.13475575 0.023172734 0.1298618
0.0705721 -0.11532553 0.08765003 0.21732482 0.1414139 0.110266306 -0.041376073 0.2214847
0.15007843 0.038443062 0.124524266 0.0005434108 0.065987565 0.21018697 0.08288903 -0.03414147
-0.063165806 0.18430638 0.18379913 -0.07666993 -0.26152188 -0.257616 -0.0036555245 0.04585977
0.18890452 0.2353522 -0.0015279265 -0.17763472 -0.0789775 -0.048915427 0.18841696 0.061882775
0.04918638 -0.10107012 -0.022254778 -0.09694942 -0.02697057 0.17043664 0.11556122 0.16635509
0.32285628 0.1262469 0.3290669 0.26590955 -0.043276764 0.089177124 -0.012808283 -0.040486846
-0.11798148 -0.11003486 -0.08274016 0.026675772 0.067082964 0.043611392 -0.050556615 0.22022602
0.15590695 0.13974428 0.21270874 0.18292761 0.27477747 -0.26238394 0.058426183 0.111727655
-0.08227256 -0.0075187404 -0.22303607 -0.043441568 0.09556863 -0.23960504 -0.12765071 -0.055762094
-0.1706086 0.15407187 -0.0030705575 -0.12240797 0.05502593 0.11660001 0.23076983 0.11395261
0.07127814 -0.01985788 -0.011792931 0.17090258 -0.1373314 -0.028195355 -0.11446621 0.14832635
0.08095372 -0.121770725 0.24703233 -0.0022805398 0.08219068 0.024259722 -0.0773042 -0.19367301
0.16150108 -0.102389894 0.06968222 -0.14310831 -0.23707193 -0.0530848 0.09572882 0.14737432
0.25729123 0.165466 0.026465496 0.02248317 0.044689074 -0.111229666 0.18738541 0.06434706
0.01326782 0.020011343 0.018995017 -0.11837916 0.12858294 -0.010971566 -0.0045015314 0.047471642
0.21075647 -0.012748193 -0.016590161 0.237036 0.018645773 0.16092959 0.19622914 0.144331
0.050079998 0.13756222 0.19736099 0.08334461 -0.057480354 0.10145702 0.11658058 0.008337427
0.070589304 0.28467232 0.32815143 -0.02911775 -0.049102925 0.13900037 -0.09601524 -0.16045366
0.09216341 0.06336574 0.20949604 -0.11792213 0.089777656 0.12945627 -0.110520296 0.093653545
0.21968015 0.11117038 -0.08241417 -0.12332 0.091015354 0.14770725 0.09492549 0.12332284
-0.029025612 -0.07125541 0.18054888 0.08994203 -0.18552361 0.15250711 -0.08042798 -0.01046946
-0.032619398 -0.22900364 0.05300084 -0.14815687 0.18721706 0.20305094 0.060757075 0.10165452
-0.099500544 0.14031108 0.2648719 -0.22800414 0.17860797 0.18837976 -0.10002698 0.17371814
0.110530496 0.20332341 0.12932238 0.083960466 0.21323693 -0.19324599 0.019346066 0.12565504
-0.18442324 0.040269293 -0.09580505 0.22638544 0.13211673 -0.07063663 0.25295368 -0.2061133
0.260655 -0.109356545 0.056260943 0.086985864 0.1060768 0.11161232 -0.20899467 -0.20038436
-0.17709514 0.076475054 -0.16736627 -0.19472751 0.20669174 0.16863643 -0.07076406 -0.16456755
0.339836 -0.173199 0.24364322 0.014725441 -0.1596759 -0.17589037 -0.12653935 -0.19783314

encoder.blocks.0.pos_embed.pe f4 [1, 625, 16]
00000000: 0000 0000 0000 803f 0000 0000 0000 803f
00000010: 0000 0000 0000 803f 0000 0000 0000 803f
00000020: 0000 0000 0000 803f 0000 0000 0000 803f
00000030: 0000 0000 0000 803f 0000 0000 0000 803f
00000040: a46a 573f 4151 0a3f 278f 703e f0d5 783f
00000050: b136 663d 6898 7f3f 497a 5a3c 2cfa 7f3f
00000060: 223e 4f3b acff 7f3f 8f94 443a fbff 7f3f
00000070: 5377 3a39 0000 803f 53df 3038 0000 803f
00000080: b7c7 683f 3311 d5be b7d3 e93e 69be 633f
00000090: 89d9 e53d f361 7e3f 5075 da3c b1e8 7f3f
000000a0: de3d cf3b b1fe 7f3f 8b94 c43a edff 7f3f
000000b0: 5377 ba39 ffff 7f3f 53df b038 0000 803f
000000c0: c381 103e 2670 7dbf b824 273f a1e7 413f
000000d0: d9ee 2b3e 9e5d 7c3f c5d1 233d 90cb 7f3f
000000e0: 126e 1b3c 0dfd 7f3f 646f 133b d6ff 7f3f
000000f0: 7ed9 0b3a feff 7f3f 7ea7 0439 0000 803f
00000100: cfbd 41bf 3055 27bf a604 503f 7736 153f
00000110: c765 643e 098d 793f 6c61 5a3d caa2 7f3f
00000120: cf3c 4f3c c2fa 7f3f 7d94 443b b5ff 7f3f
00000130: 5277 3a3a fcff 7f3f 53df 3039 0000 803f
00000140: 107c 75bf 2c3c 913e f83f 6d3f 9756 c03e
00000150: ee11 8e3e 7cf2 753f 9273 883d 606e 7f3f
00000160: 8285 813c cff7 7f3f 8eb9 753b 8aff 7f3f
00000170: 2615 693a f9ff 7f3f 2817 5d39 0000 803f
00000180: 8c0f 8fbe b8cd 753f d433 7d3f 96f8 163e
00000190: fd7d a93e e190 713f 37b0 a33d 562e 7f3f
000001a0: 486c 9b3c 34f4 7f3f 4b6f 933b 56ff 7f3f
000001b0: 7cd9 8b3a f7ff 7f3f 7ea7 8439 0000 803f
000001c0: 4630 283f bdff 403f a7fb 7e3f 6a5e b6bd
000001d0: e060 c43e c56b 6c3f 68e5 be3d aee2 7e3f
000001e0: a752 b53c f2ef 7f3f ca01 ac3b 19ff 7f3f
000001f0: 6628 a33a f3ff 7f3f 69c3 9a39 ffff 7f3f
00000200: 9546 7d3f f6fd 14be ed7d 723f 371e a4be
00000210: d3a4 de3e 5287 663f e911 da3d 6c8b 7e3f
00000220: 9038 cf3c 08eb 7f3f 4394 c43b d2fe 7f3f
00000230: 4f77 ba3a efff 7f3f 53df b039 ffff 7f3f
00000240: 3201 d33e d53f 69bf a16d 583f 9fba 08bf
00000250: 9434 f83e 4be8 5f3f 7c34 f53d 9328 7e3f
00000260: f11d e93c 76e5 7f3f b426 dd3b 82fe 7f3f
00000270: 37c6 d13a ebff 7f3f 3dfb c639 ffff 7f3f
00000280: f844 0bbf 64cd 56bf 3940 323f 00bf 37bf
00000290: ba7d 083f 0d94 583f f325 083e 28ba 7d3f
000002a0: 5d81 013d 3cdf 7f3f 1db9 f53b 28fe 7f3f
000002b0: 2015 e93a e6ff 7f3f 2817 dd39 ffff 7f3f
000002c0: 5cff 7fbf 7205 913b b718 023f 917a 5cbf
000002d0: b472 143f 8790 503f 75ab 153e 3040 7d3f
000002e0: 6c73 0e3d 5bd8 7f3f bf25 073c c5fd 7f3f
000002f0: 0432 003b e0ff 7f3f 1133 f339 feff 7f3f
00000300: d85c 09bf d006 583f 3d52 953e f8de 74bf
00000310: 88ef 1f3f 35e4 473f 272a 233e b1ba 7c3f
00000320: 1e65 1b3d d2d0 7f3f ea6e 133c 59fd 7f3f
00000330: 77d9 0b3b daff 7f3f 7ea7 043a feff 7f3f
00000340: 2220 d73e 6f4e 683f e0bb 703d b68e 7fbf
00000350: ebea 2a3f 1b96 3e3f 6ca1 303e b129 7c3f
00000360: 6a56 283d a1c8 7f3f 0fb8 1f3c e3fc 7f3f
00000370: ea80 173b d3ff 7f3f 73b5 0f3a feff 7f3f
00000380: 7298 7d3f d704 0c3e f3a4 35be adf0 7bbf
00000390: fa5b 353f c2ad 343f a610 3e3e 358d 7b3f
000003a0: 4847 353d c9bf 7f3f 2f01 2c3c 63fc 7f3f
000003b0: 5e28 233b ccff 7f3f 68c3 1a3a fdff 7f3f
000003c0: 4479 263f e87a 42bf 0ca7 cebe b038 6abf
000003d0: 423a 3f3f 2f33 2a3f 3977 4b3e 47e5 7a3f
000003e0: af37 423d 49b6 7f3f 484a 383c dbfb 7f3f
000003f0: d0cf 2e3b c4ff 7f3f 5dd1 253a fdff 7f3f
0.0 1.0 0.0 1.0 0.0 1.0 0.0 1.0
0.0 1.0 0.0 1.0 0.0 1.0 0.0 1.0
0.84147096 0.54030234 0.23492108 0.9720144 0.0562045 0.9984193 0.013334819 0.99991107
0.0031622727 0.999995 0.00074989436 0.9999997 0.00017782794 1.0 4.2169657e-05 1.0
0.9092974 -0.41614684 0.45669338 0.8896242 0.11223132 0.9936821 0.026667267 0.99964434
0.006324514 0.99998003 0.0014997883 0.99999887 0.00035565588 0.99999994 8.433931e-05 1.0
0.14112 -0.9899925 0.65290403 0.7574406 0.16790332 0.9858035 0.039994974 0.99919987
0.009486692 0.999955 0.0022496814 0.9999975 0.0005334838 0.9999999 0.00012650897 1.0
-0.7568025 -0.6536436 0.8125709 0.5828623 0.2230445 0.9748083 0.053315565 0.9985777
0.012648775 0.99992 0.0029995732 0.9999955 0.0007113117 0.99999976 0.00016867863 1.0
-0.9589243 0.2836622 0.92675734 0.37566063 0.27748054 0.96073127 0.06662668 0.99777794
0.015810732 0.999875 0.0037494632 0.99999297 0.0008891396 0.9999996 0.00021084829 1.0
-0.2794155 0.96017027 0.9890721 0.14743266 0.33103934 0.9436169 0.07992595 0.9968008
0.018972531 0.99982 0.004499351 0.99998987 0.0010669674 0.99999946 0.00025301793 1.0
0.6569866 0.75390226 0.9960274 -0.08904727 0.3835516 0.92351943 0.093210995 0.99564636
0.022134138 0.999755 0.0052492367 0.99998623 0.0012447953 0.9999992 0.0002951876 0.99999994
0.98935825 -0.14550003 0.947234 -0.32054302 0.43485126 0.9005023 0.10647947 0.9943149
0.025295526 0.99968004 0.0059991195 0.999982 0.001422623 0.999999 0.00033735725 0.99999994
0.4121185 -0.91113025 0.8454228 -0.5340976 0.48477614 0.87463826 0.11972901 0.9928066
0.02845666 0.99959505 0.0067489985 0.99997723 0.0016004507 0.99999875 0.0003795269 0.99999994
-0.5440211 -0.8390715 0.69629246 -0.7177582 0.53316844 0.8460091 0.13295726 0.99112177
0.03161751 0.99950004 0.007498874 0.99997187 0.0017782785 0.99999845 0.00042169658 0.99999994
-0.9999902 0.004425698 0.5081896 -0.8612452 0.57987523 0.8147053 0.14616187 0.9892607
0.034778044 0.9993951 0.008248745 0.99996597 0.0019561062 0.9999981 0.0004638662 0.9999999
-0.53657293 0.84385395 0.29164305 -0.95652723 0.6247487 0.7808259 0.15934049 0.9872237
0.03793823 0.9992801 0.008998612 0.9999595 0.0021339336 0.99999774 0.00050603587 0.9999999
0.42016703 0.9074468 0.05877292 -0.99827135 0.66764706 0.7444779 0.17249078 0.98501116
0.041098036 0.9991551 0.009748473 0.9999525 0.002311761 0.9999973 0.0005482055 0.9999999
0.9906074 0.13673721 -0.17738704 -0.9841412 0.7084347 0.70577633 0.18561038 0.9826234
0.044257432 0.99902016 0.010498329 0.99994487 0.0024895887 0.9999969 0.00059037516 0.9999998
0.65028787 -0.7596879 -0.40361822 -0.9149275 0.7469827 0.6648435 0.19869699 0.980061
0.047416385 0.9988752 0.011248179 0.99993676 0.002667416 0.9999964 0.0006325448 0.9999998

encoder.blocks.1.q_proj.weight f4 [16, 16]
00000000: 6e29 bc3c 0fe5 a1bb 0467 db3b 3cdb 223d
00000010: 5da6 f03c d64e 773c 88e5 dcbb 4fb6 8e3b
00000020: 925a 483b 7e4a d8bc d70d a7bb 78ed 2f3b
00000030: 4fea 52bc 903b e2bb e6ec fd3c 877b dd3c
00000040: 6d25 abbc 68df 5fbb 91c0 c13c 33f7 1fbc
00000050: ca4c e03b d12d 3bbc ade9 8bbb 5c10 993c
00000060: 235a 7c3c cb30 c6bb 58ac 2c3b 9ef4 743c
00000070: d347 ee39 50f7 233d 2aa5 f33c 42b4 e53c
00000080: ff8c 69bc b94d 953b be10 513c 8399 46bc
00000090: ef0c acbb 8063 6a3b 7c08 81bb 3ed0 743c
000000a0: 590f 84ba 01d1 e23b ac28 35bc 3a5c 643b
000000b0: e5ba 2bbb 11a3 353b 85b1 cf3b 6621 acbc
000000c0: b6ec 39ba 7a15 113d daf8 29bd 84a5 453c
000000d0: 2771 a7bc 9080 b1bb c805 4dba 8b15 083c
000000e0: 20e7 1fbd ef4a 9fba 1e0c bebc 8401 243b
000000f0: 2bdf 6d3c 3952 b6bc 58e6 f4bc be3a 89bd
00000100: c673 b13b de6a 42bb d646 57bb 6817 0bbc
00000110: 6d7e eb39 203e 773c 31aa fd3b 068c 98bc
00000120: 3573 a03b d58b af3c 9cbf 07bb 6dc5 9eba
00000130: 07b6 a7bc 6ca6 d3bc 082f 9dbc 9629 14bc
00000140: 58a5 033d 6067 1f3c d844 04bc 49fe 44bc
00000150: 5ccb b33a be1c 8639 e613 913b 247d 07bc
00000160: 0521 8e3b 331b 23bc 4b22 0dbc 5af2 7abc
00000170: d376 c33b a2a5 1abd 6db5 dabb e147 f33c
00000180: 16d0 01bd 0c52 2c3c f0ee 95bc f9f8 56bd
00000190: 70d7 c4bc f7aa 6dbc a53c a2bb 84ea 643c
000001a0: 9c97 023c 9efa 1939 3c2f 62bc 0ed1 bf3b
000001b0: c1d5 5d3c e045 f73b 1e61 a4bc 8ec1 7cbd
000001c0: 289d 7dbb e371 7ebb 8f0b 98bb fb6a 043c
000001d0: 7693 cd3b abd5 9c3b ff98 8cb8 1e5e 44bc
000001e0: 29a0 58bc 1be8 043c 412c 6b3b 7f63 58ba
000001f0: 66a7 87bb cbc9 323c da68 20ba df9c 453c
00000200: 7120 253d 3efb b1bc e234 84bb ef8d 803c
00000210: 789a d93c 4d4b 583c 35d7 f6bb 451c 65bc
00000220: 74e5 8fbc 1125 fdbc 6027 4d3c 4d32 a2bc
00000230: bc2b 8ebb e443 9ebc 763a d03c ee31 c83c
00000240: 0f16 d23c b713 273c ac17 123c d658 9b3c
00000250: 7adb 933c 3179 f53b 1883 713b 3643 a53c
00000260: 327e 66ba 3879 efbb b3bd 2cbc 10c1 123c
00000270: a88d 22bc cd68 84bc 6fae bb3c 2382 8e3c
00000280: d4f7 9a3c e099 9ebc 6144 8a3c beac 563c
00000290: 9a66 d33c 8a2c f53b 6f36 093b e6cd 2a3c
000002a0: 44fc 943c 6949 63bc 1183 253c 470a 3b3c
000002b0: 3cf0 89bc 9f0f d3ba 1c65 d53c 76a4 d53c
000002c0: 9e61 713c 8c7d c6bb 6946 97bb 1a38 17bd
000002d0: cc7a 5fbb d1b1 0bbc 3ab4 c73a 2a0a b33c
000002e0: aa9d 81bb 5010 27bc e105 913b edd7 f539
000002f0: e11e 3c3c f7a1 8ebc d73f 1fbc fca2 3abc
00000300: 4b5c 193c ff31 c1ba bb77 98bc 04d5 babc
00000310: 8072 083c a856 a53b a750 eebb 84a5 8cba
00000320: 9e7d b7bc 2045 38bc 41dc 4bbc 6c7e 12ba
00000330: 3a50 e2bb a4c0 ccbc 7ab4 38bc 2f2e 68bc
00000340: 8a20 ed3b e3bd 81bb 537a 0e3c 4bfc 08bb
00000350: e244 e33b 0d50 33bc f8c7 2bbb 2fac c13c
00000360: d8ad a1bc ccf6 16bc 2db3 073c 3d22 d73b
00000370: 5124 293c 09ed 0e3c 6fac 753c 93de da3b
00000380: 009c 94bc 8553 c23b cb4e 3b3a 937b 0dbc
00000390: db47 82ba 645b 04bc c249 dcbb ed3d 8e3c
000003a0: ad2c 48bc 667b e2bb 9e21 9ebb 5ee6 063c
000003b0: a9a4 d23a e074 053d 79f5 c53c 737b b3bc
000003c0: a6f3 93bc 2e3b 8b3b 1bcd cd39 ba62 86bb
000003d0: 9141 953b 4895 81bc 597d 3abc 14f1 ae3c
000003e0: 7257 18bc b320 b8bc e93d 4bbc 28f8 943c
000003f0: 667b 493c 1996 cb3b 8442 11bb 7c27 4bbc
0.022968974 -0.004940636 0.00669563 0.03975986 0.029376203 0.01509448 -0.0067412294 0.004355229
0.0030571562 -0.026402708 -0.0050980854 0.0026844423 -0.012873246 -0.006904073 0.030996751 0.027036441
-0.02089187 -0.003416026 0.023651393 -0.009763527 0.0068450915 -0.011424498 -0.0042697997 0.018684559
0.01540235 -0.006048297 0.0026347842 0.014950899 0.0004544841 0.040030777 0.029741842 0.028040055
-0.0142548075 0.0045563844 0.012760339 -0.012121561 -0.0052505652 0.0035764873 -0.003937779 0.014942227
-0.0010075375 0.006921888 -0.01105706 0.003484501 -0.0026203927 0.0027715603 0.0063383006 -0.02101202
-0.00070924626 0.035420872 -0.04149709 0.012063388 -0.020439697 -0.005416937 -0.0007820991 0.0083059175
-0.039038777 -0.0012153069 -0.023199137 0.0025025317 0.014518539 -0.022256004 -0.029894993 -0.06700657
0.0054154126 -0.0029665749 -0.0032848618 -0.008489467 0.00044916887 0.015090495 0.0077412357 -0.018621456
0.0048965462 0.021428982 -0.0020713573 -0.0012113281 -0.02047254 -0.025836192 -0.019187465 -0.009043118
0.032140106 0.009729236 -0.008073054 -0.012023517 0.0013717222 0.00025579886 0.004427421 -0.008269582
0.0043374323 -0.009955215 -0.008614133 -0.01531657 0.0059650927 -0.037755616 -0.0066744597 0.02969736
-0.031692587 0.010517608 -0.01830241 -0.052483533 -0.02402851 -0.014506093 -0.004951077 0.0139719285
0.007970717 0.00014684579 -0.013805207 0.0058537787 0.013539732 0.0075461715 -0.02006584 -0.061708026
-0.0038698409 -0.0038825206 -0.0046400498 0.008082147 0.006273682 0.0047862134 -6.704218e-05 -0.01198533
-0.013221779 0.008111979 0.0035884532 -0.0008254572 -0.0041398285 0.010912369 -0.000611914 0.012061327
0.04031414 -0.021726247 -0.0040346244 0.01569268 0.026562914 0.013201547 -0.007532979 -0.013983791
-0.017565466 -0.030901464 0.012521595 -0.019799376 -0.0043387096 -0.019319482 0.025418501 0.02443787
0.025645284 0.0101975715 0.008916777 0.018963259 0.01804899 0.007491254 0.003685182 0.02017365
-0.0008792608 -0.0073081516 -0.010543275 0.0089571625 -0.009921469 -0.016163254 0.022910325 0.017396038
0.018917002 -0.019360483 0.016878309 0.013102708 0.02580576 0.007482116 0.0020936986 0.010425067
0.018186696 -0.013872483 0.010102049 0.0114160245 -0.016838185 -0.0016102678 0.02604919 0.026079398
0.014732746 -0.006057447 -0.004616548 -0.036918737 -0.0034100292 -0.008526281 0.0015236207 0.021855433
-0.0039555626 -0.01019676 0.0044257496 0.0004689092 0.0114819715 -0.017411215 -0.00971981 -0.011391398
0.009360383 -0.0014739631 -0.01861178 -0.022806652 0.00832808 0.0050457306 -0.007272798 -0.001073048
-0.022398766 -0.011246949 -0.012442649 -0.00055882963 -0.0069065364 -0.024994202 -0.011273498 -0.014171167
0.007236545 -0.003959404 0.008696157 -0.0020902331 0.0069357017 -0.010944379 -0.002621172 0.023641674
-0.019736215 -0.009214114 0.008282465 0.006565361 0.0103236 0.008723506 0.014994725 0.006679365
-0.018140793 0.0059303665 0.0007145225 -0.008635419 -0.0009939627 -0.00807843 -0.00672266 0.017363513
-0.012217683 -0.006911683 -0.004825785 0.008233635 0.0016070801 0.032582164 0.024164902 -0.021909451
-0.018060517 0.004248998 0.00039253462 -0.0041011246 0.0045549353 -0.015818253 -0.011382424 0.02135519
-0.009298192 -0.02247653 -0.012404897 0.018184736 0.012297487 0.0062129614 -0.002216489 -0.0123995505

encoder.blocks.1.k_proj.weight f4 [16, 16]
00000000: 74fc 6bbd b903 013e 2f32 48bd cf26 e4bc
00000010: 5be9 44bd bf70 c7bd 95e3 fabd 0db7 b13d
00000020: 45fe b7bd 1d5c 3c3e b8a4 8dbd 6b94 d0bd
00000030: cc5e 97bd 39ef 093e 3ca2 d63d 3cc7 12be
00000040: 63a3 2f3d bd98 3fbe 317f 5bbe 97ee 31be
00000050: e3df 1c3e 989b 01be 68b3 103e 7120 013e
00000060: 4f2b 51bd 5901 393d 33ae bcbc 981f 0d3e
00000070: 5537 153e c77d 9dbd 19bb 9a3c 7e49 f7bb
00000080: df4c e33d e7a5 c8bb 95e4 02bd d36e 6b3d
00000090: 693e 463e e8b8 073d 0b16 99bd 9682 19ba
000000a0: d78b e2bd 1527 77be 129f 55bc 486c 0ebd
000000b0: e7a3 48bd 6023 d43c 8c2f 6fbb 3a0a 213c
000000c0: 8943 8bbc 907d 0d3d ec64 21be 1265 97bc
000000d0: 65fa 983d e72d 0b3e 2086 a9bc 2eec 8e3d
000000e0: 422d ddbd 50f6 56bc 76a3 bc3c d98e 35bd
000000f0: 0986 afba c3a3 eb3b 8a1f 03bd b8d5 c3bd
00000100: c97b dcbd b964 623e 1a5a c9bd 7ab7 c13d
00000110: 3405 4abc 4df0 883e 9be3 6b3c 789f 00be
00000120: 1060 1fbe 06ed 14bd ffcc 813e 6b2e 3abd
00000130: 229b d2bb 543b f0bd 1da6 fabd c7a2 dfbd
00000140: 19bf 5fbc 28b6 033e dfdf a9bd aecd 803c
00000150: 5a4c 163d 59bc 233e 053c 03bd 062b 78bd
00000160: 0d9e 8dbd aa6a 55be b7e5 ef3d 8261 71bd
00000170: 2c21 c2bd 83f3 833d 713f e03b c6e0 edbd
00000180: b1d4 1fbd c5ad 43bd d213 ed3b 5d18 453d
00000190: 35e9 173e d4a0 c0bd 8433 ddbc 2d26 0b3e
000001a0: 58ce b9bd 92a7 d53d 1632 da3b 4c7b 3fbe
000001b0: a020 0ebd e23f 96bb 41bc dbbd 4305 653c
000001c0: d708 8fbd 1d33 063d 3d66 193d f524 033e
000001d0: 1501 133e abca 383d c59b 013d d84d cd3d
000001e0: be15 04be 54b2 9bbd 39e4 9ebd 73f2 eebd
000001f0: d0f7 82bd a192 023d 2e1c 0dbe 6dd1 8fbd
00000200: 0b66 f4bd e70b 26bd 2eb2 73bd 2059 493d
00000210: 4171 383e d24b 243e e139 483b f16a 253e
00000220: edb1 583d cce8 3cbe 59f6 89bd e6b8 b73d
00000230: 0eb1 2fbe 86ab 2e3a 1e05 113b 6734 38bd
00000240: cfac 53bd 4e81 933d 0e50 b0bc 97c2 b93d
00000250: ba60 843d bd49 19bd 91a4 0b3e 51cf 493e
00000260: 166c f7bd 5610 1a3e 65e4 a0bd 796a 39be
00000270: b121 133e 1576 c83d a5c3 1dbe 0bc0 a2bd
00000280: 5627 ddbd c582 103e 7080 27be 4194 a7bc
00000290: 5955 1b3e 6f56 133d 1e0f 48bc 88c7 e43d
000002a0: 4688 c3bd dc8a 6cbc c7b6 c6bd ec7d 0abe
000002b0: 76f6 8cbc bd8f 2c3e 4f63 d33d 3764 61be
000002c0: f21c b83d a904 d7bd 9cc4 863d 2ee9 c4bd
000002d0: e990 3bbe 60c4 39bd cb35 67bd de31 a33d
000002e0: b965 283e ca44 193e a1b1 cebb 849a debd
000002f0: f7a1 1a3b 667b 8c3d 9a20 b0bc 4ba8 cf3d
00000300: b234 35bb cece 833d 4930 f03d 5eaa a03d
00000310: f63d 4dbe 933b 153e 6f53 c7bd b050 45bd
00000320: 1317 c33c bcde 7a3d 69ed 093b 3f82 3cbd
00000330: b487 a1bd 37df 943c 4ce7 1cbd 7f8d 233d
00000340: b894 1f3e c307 bcbd bb3e 86bd 6601 6bbd
00000350: 9f76 153e bcc5 67be 13a4 27be 2b7c 5bbc
00000360: c577 04be 66e8 c33d a803 e03d 1b9d e6bd
00000370: 55d8 c73c 0f9f 6ebd 9d32 bd3c 6902 b23d
00000380: aede 6a3d 53f8 3d3e f886 ac3c 670d 2d3d
00000390: d481 23be c405 fb3d 4a35 873d 4311 2bbe
000003a0: 11e0 aabb c056 31be ef18 bc3d 805d 823d
000003b0: da35 773d a5ff 493d c9c2 1c3b 6ad1 80bd
000003c0: 33cb 90bd 9c61 da3d 86c7 19be 1365 c13c
000003d0: 71d3 063e a3dd 9b3c 6f9e b63c fa05 243e
000003e0: 4b95 afbd ebc5 d1bc e632 03be 038c 823d
000003f0: 0012 333c 3046 b73d 0b8f 9d3d 3424 2abe
-0.057613805 0.12599076 -0.048875984 -0.027850537 -0.048074108 -0.097383015 -0.12250439 0.08677492
-0.08984045 0.18394513 -0.06916183 -0.101845585 -0.07391128 0.13470162 0.104801625 -0.14333814
0.042880427 -0.18710609 -0.21435238 -0.17376171 0.15319781 -0.1265701 0.14130938 0.12610032
-0.051066693 0.0451673 -0.023032283 0.13781583 0.14571889 -0.07690006 0.018888043 -0.0075466027
0.110986464 -0.0061232927 -0.031956274 0.057478737 0.19359745 0.033135325 -0.074749075 -0.00058559456
-0.110618286 -0.24136002 -0.013038414 -0.034771234 -0.048984434 0.025895774 -0.0036496846 0.009829098
-0.016999977 0.034543574 -0.15761155 -0.018480811 0.07469634 0.13591729 -0.020693839 0.069786415
-0.10799648 -0.013120249 0.023027163 -0.044325683 -0.0013391386 0.007191153 -0.0320125 -0.09562248
-0.10765798 0.22108735 -0.09831639 0.094588235 -0.012330342 0.26745835 0.014397527 -0.12560833
-0.15563989 -0.036358856 0.25351712 -0.045454424 -0.0064271847 -0.11730066 -0.12238715 -0.10919719
-0.013656401 0.12862456 -0.08294653 0.015723076 0.03669391 0.15989818 -0.03203966 -0.060587905
-0.069149114 -0.2084147 0.117137365 -0.05893088 -0.09478983 0.064429305 0.0068435003 -0.11615138
-0.039021198 -0.04777314 0.007235029 0.048118938 0.14835055 -0.094056755 -0.027002104 0.13588782
-0.0907256 0.10432352 0.0066588027 -0.18699378 -0.034699082 -0.004585252 -0.10729266 0.013978305
-0.06984108 0.03276359 0.037451018 0.12807067 0.14355882 0.045115154 0.031642694 0.10024613
-0.12898919 -0.07602373 -0.07758374 -0.11667337 -0.06394923 0.031878117 -0.13780281 -0.07022367
-0.11933526 -0.040538695 -0.059496097 0.04915726 0.18011953 0.16044548 0.0030552077 0.16154076
0.05290406 -0.1844818 -0.0673644 0.089708135 -0.17157385 0.0006663132 0.0022128294 -0.04497185
-0.051678475 0.07202397 -0.021522548 0.09070318 0.06463762 -0.037423838 0.13636996 0.19707991
-0.12081163 0.15045294 -0.07856063 -0.18107022 0.14368321 0.09788147 -0.15406664 -0.079467855
-0.10798518 0.14112385 -0.16357589 -0.020456435 0.15169276 0.0359711 -0.0122106355 0.1117087
-0.095474765 -0.0144374035 -0.09702831 -0.13524598 -0.017207365 0.16851707 0.10321676 -0.22010885
0.08989896 -0.10498936 0.06580469 -0.09614788 -0.18316998 -0.045353293 -0.056447785 0.07968496
0.16445054 0.14967647 -0.006307796 -0.10869315 0.0023595074 0.06859474 -0.02149992 0.10139521
-0.0027649817 0.06435929 0.1172796 0.07844995 -0.20043167 0.14573507 -0.097327106 -0.048172653
0.023814714 0.061247572 0.0021046048 -0.04602265 -0.078872114 0.018172843 -0.03830652 0.039929863
0.15584075 -0.09181168 -0.06554934 -0.05737438 0.14596032 -0.22634023 -0.16371183 -0.013396303
-0.12936313 0.09565811 0.109381974 -0.11260434 0.024395147 -0.05825716 0.023095423 0.08691866
0.05734127 0.1855176 0.021060452 0.04224911 -0.15967494 0.12256959 0.06601961 -0.16705804
-0.005214699 -0.17318249 0.09184443 0.0636549 0.06035409 0.049316067 0.0023919812 -0.062899426
-0.07070007 0.10663149 -0.15017518 0.023607766 0.13166596 0.019026583 0.022292344 0.16017905
-0.08573397 -0.02560707 -0.12812385 0.06374361 0.0109295845 0.08948934 0.07693299 -0.16615373
