Cooper_pairs/experiments/my_exp/model_final.pt (torch, 149877 bytes, 15 tensors)

embedding.pos_embed f4 [1, 225, 16]
00000000: ea75 893d 563b 073e 1c68 1dbf d75a af3f
00000010: 8a1a 9c3f f51c 1a3f 9b38 be3d 9766 68bf
00000020: 7bd5 b2bf aa49 833f d453 1940 b725 113f
00000030: 8b18 61be bf8b 40be 2d34 c53e 19d2 bcbd
00000040: b1e9 643f c590 a8bf a413 20be 92d8 31be
00000050: 93c2 603f 2794 0e3e f52d 35bf bbe7 22bf
00000060: 020e 313f a6bc 523e 71b3 193f e326 1fbf
00000070: b792 15bf 298e f33e 708e 873f 7ee4 c93e
00000080: b940 223e 8048 443d 4872 6b3e 913c 49bf
00000090: b610 e1be df92 bf3f 67a5 09bd 8d74 fa3f
000000a0: 1adc b93c 4f49 2b3e 0d44 c4bf c336 4d3f
000000b0: af23 1b3f de5e 1440 e579 44bd 43a9 aebf
000000c0: b4b7 afbf 9eb3 ab3f e2ae a3be 58cf d4be
000000d0: fd12 d6be 54a8 103f e081 363f ba74 94bf
000000e0: c3f7 09bf 6203 2d40 0caa ad3e 5ff9 dfbd
000000f0: 4d8d 05bf 2b4d 6f3f fecd 8fbf 62de 923e
00000100: e740 433e e26e 18c0 c688 ba3f be92 31bf
00000110: 42c8 88be fc8b e9bd ed74 203e 1a9d 0ac0
00000120: 664e c1bf 7009 20bf 97e9 5fbf 94d5 b03f
00000130: d8eb 523f edb0 0d3f ab08 bf3f 8d45 8d3e
00000140: d94f 5c3d aae5 f63f aad3 dabc ca1a 83be
00000150: 53dd 93bf 1742 4a3f 3b1a 05bf d255 acbd
00000160: 5c24 36be d33d babe 21bb d4bb dfb3 3c3f
00000170: 23d4 843f 67fe 4e3f 102a 27bf 2939 a1be
00000180: b1af 733f f7f8 3ebf 92b4 bd3f 88fe 853f
00000190: 9f4f 843f da98 a7bf 6fe8 813f 0319 febd
000001a0: 87c9 a83e acc7 31be 23b1 503f 7bea 6b3e
000001b0: ec68 8ebf 0218 ae3e b10a d0bf f0e9 45bf
000001c0: 28bb 03c0 5aa1 a0bf af59 0bbe 4d40 223f
000001d0: 3af3 87be 6afd 4fbc d165 763f 0dd5 da3f
000001e0: a7b0 6d3f dd02 f4be 382b 1f40 c195 0a3f
000001f0: 8446 16bf c134 913f 112a 68be a95d f3be
00000200: 9a18 57be b9b2 0e3f 66bc 12bf c098 5ec0
00000210: 7b66 21bf 637c 2740 f054 07c0 65e6 8d3d
00000220: ebca 903e 7b8e 1dbf 5390 9c3e 2657 d93f
00000230: 1a70 cdbe c2b3 103f 8685 8a3e f3a6 87bf
00000240: 1543 133f e348 823f 2096 55be 9668 82bf
00000250: d6de a43f ef53 903f c1b1 093f fc23 aebf
00000260: b696 1a3f 77a8 cebe fcd6 1dbf 9d75 91be
00000270: 5f8b 863f c410 dabd 6c9c 603d fe8c 373e
00000280: 2c0a a5be 29a7 d1be 4023 a4bf 90c9 e9bf
00000290: 614d b83f b2db 94bf 1ee2 8b3f 9281 0e3e
000002a0: 9e78 91be bc07 eb3d 0511 14bf a9c6 0c3f
000002b0: a744 e53e d4ff 1940 07f4 44be f855 06bf
000002c0: efd4 9c3f bd5d 6abf db2d adbd 0417 a5bf
000002d0: 2cef e23e acfc 67bf 11e8 72be 8c43 56bf
000002e0: b7eb ed3f b4f6 8a3f 0fdf 11c0 f18c b43e
000002f0: 89b4 973f 427b 103f 7de5 4cbf 572b c63f
00000300: 182d 96bf c7fb b0be df50 28bf 7084 903f
00000310: dd7b c03f 2b6a 79be 1bd3 3cbe a4fa e43b
00000320: f707 c93f b20d a1be b196 05c0 b2f2 5c3e
00000330: 24c5 93bf 7c8f 70bf 6cf8 cbbf 0b19 b23e
00000340: fee6 95be a064 57bf 1b1c 20be 7763 cfbe
00000350: d2be 933c 607a 8bbf 432f b13d 5696 7bbe
00000360: 1f89 1040 8ff4 7fbd c4db ce3f 7145 57be
00000370: bef7 90bf 7149 81bf 02fa cf3d cdfd 653f
00000380: 5b38 2d3f 29c7 143f a3ec a9be e921 83be
00000390: 4165 a23e 1b73 c9bd a8e2 84bf f470 cebf
000003a0: 81f2 86bf 1b08 dabf 8f51 dd3d 1eec e73d
000003b0: 69c8 63be 019a 573f 345d 96bf 3901 76bf
000003c0: fdcd 04bf f989 6e3f 4e7e 013f f4b6 d4bf
000003d0: 2e1b e03f 12c4 603f 65d2 863f 7a6f 3abf
000003e0: a29b 14bf 4672 6c3e 8b3c fdbe e7d8 c3bf
000003f0: ab1e 96bf b0ca 18c0 d4ce 8cbf de55 d93e
0.067119434 0.13206229 -0.61486983 1.3699597 1.2195599 0.60200435 0.092881404 -0.9078154
-1.3971399 1.0256855 2.3957415 0.56698173 -0.21982019 -0.18803309 0.3851637 -0.092197604
0.89419085 -1.316918 -0.15632492 -0.17367771 0.87796897 0.13923703 -0.7077325 -0.6363484
0.69162 0.20579776 0.6003943 -0.6216871 -0.58426994 0.47569397 1.0590343 0.39432138
0.15845002 0.047920704 0.22992814 -0.7860804 -0.43958062 1.4966697 -0.033605006 1.9566818
0.02268796 0.16727184 -1.5333267 0.80161685 0.60601324 2.3182902 -0.04796781 -1.3645405
-1.3727937 1.341419 -0.31969362 -0.4156444 -0.41811362 0.5650685 0.71291924 -1.1598122
-0.5389368 2.7033315 0.33918798 -0.10936236 -0.5216873 0.93477124 -1.1234739 0.2868529
0.19067727 -2.3817677 1.457299 -0.69364536 -0.26715285 -0.11403653 0.15669604 -2.1658387
-1.510205 -0.625144 -0.87465805 1.3815179 0.8239112 0.5534809 1.492452 0.27592126
0.053787086 1.9288838 -0.026712257 -0.25606376 -1.1551918 0.79007095 -0.5199315 -0.084148064
-0.17787308 -0.36375293 -0.006492034 0.7371196 1.0377239 0.8085694 -0.6529856 -0.31488922
0.9518996 -0.7459864 1.4820731 1.0468302 1.0336798 -1.3093522 1.0149058 -0.12407114
0.32966253 -0.17361325 0.8152029 0.23038666 -1.112577 0.34002692 -1.6253263 -0.77310085
-2.058298 -1.254924 -0.1360843 0.63379365 -0.26552755 -0.012694696 0.9624911 1.7096268
0.92847675 -0.47658435 2.4870129 0.54134756 -0.5870135 1.1344224 -0.22672297 -0.47532395
-0.21005479 0.5574146 -0.57318723 -3.4780731 -0.63047 2.616967 -2.1145592 0.0692871
0.28279814 -0.6154553 0.3057886 1.697972 -0.4012459 0.5652429 0.27054995 -1.0597824
0.57524234 1.0178493 -0.2085805 -1.0188167 1.2880504 1.1275615 0.53786856 -1.3604732
0.60386217 -0.40362903 -0.61656165 -0.28410044 1.0511283 -0.10647729 0.054836676 0.17924878
-0.32234323 -0.40947846 -1.2823257 -1.8264637 1.4398614 -1.1629546 1.092838 0.13916615
-0.28412336 0.114760846 -0.5783847 0.5499063 0.4477894 2.4062395 -0.19233714 -0.5247493
1.2252482 -0.91549283 -0.08456012 -1.2897649 0.443231 -0.9061992 -0.23721339 -0.8369682
1.858756 1.0856538 -2.2792394 0.3526378 1.185197 0.56438076 -0.8003767 1.5481976
-1.1732512 -0.3456709 -0.657484 1.1290417 1.50378 -0.24356906 -0.18439905 0.0069878865
1.5705556 -0.3145576 -2.0873225 0.21576956 -1.1544538 -0.9396894 -1.5935187 0.3478473
-0.29277796 -0.84137917 -0.15635721 -0.40505573 0.018035326 -1.0896721 0.086515926 -0.24569067
2.2583692 -0.06248909 1.6160817 -0.21022584 -1.1325605 -1.0100538 0.10155107 0.89840394
0.67664117 0.58116394 -0.33188352 -0.2561181 0.31717876 -0.09836408 -1.038167 -1.612822
-1.0542756 -1.7033724 0.10806572 0.11324333 -0.22244419 0.84219366 -1.1747193 -0.96095616
-0.51876813 0.9317928 0.5058335 -1.6618333 1.7508295 0.8779918 1.0532957 -0.7282635
-0.58049977 0.23090467 -0.49460253 -1.5300568 -1.1728109 -2.387371 -1.1000619 0.42448324

embedding.patch_embeddings.projection.weight f4 [16, 4]
00000000: 359a cf3e 4743 0b3f 0591 86be 0b78 343f
00000010: 7379 febe a84b 143f 2298 99bd 7baa 39bf
00000020: 8694 35bd b9a0 38bf 6d6e d93f 7e51 753c
00000030: 84e4 ba3f 2e44 8d3e 392a fdbe 8dcd 44be
00000040: ee35 023f 64f5 583e 2f54 533d 5fef 1d3f
00000050: 19a2 943e ce66 dc3d 323a a8bc 5fa6 83bf
00000060: 7005 f73d 301a 3ebe 64a1 df3d 261a 92bf
00000070: 89a7 71bf 1ffe 003f 12e1 0cbe a631 ff3e
00000080: 1693 fe3e 1b6b 6dbf 12e2 2c3e 7e95 3ebe
00000090: 4c93 a03e 6af6 0cbf fe9a adbb 3e4e 5d3f
000000a0: 1bc1 86bf 2605 18be c377 b6bd eae0 9cbe
000000b0: ac76 3dbe cef5 6c3e 0f14 87bf f7df 13bd
000000c0: b49d 1b3f f0aa e9be 926c 29bd 15bb 5fbf
000000d0: 5f8a 5cbd 51db 733e af31 263e 0862 a1bf
000000e0: 7ea7 8fbf 11e1 e2be 1e6e 2b3d 1fe0 ecbe
000000f0: 44f8 1b3f 1480 d33e 4eb8 153f fd19 89be
0.40547338 0.5439953 -0.26282516 0.7049567 -0.49702033 0.5792794 -0.0749972 -0.7252576
-0.044331096 -0.72120243 1.6986824 0.0149730425 1.4600987 0.2759108 -0.49446276 -0.19219036
0.5086354 0.21187359 0.051593956 0.61693376 0.2902992 0.10761796 -0.020535562 -1.0285147
0.12061584 -0.18564677 0.10919455 -1.141423 -0.94396263 0.5038776 -0.13757733 0.49842566
0.49721593 -0.92741555 0.16883114 -0.18611714 0.3136238 -0.550635 -0.0052980175 0.86447513
-1.0527681 -0.14845714 -0.089095615 -0.30640346 -0.18502301 0.23140642 -1.0552996 -0.03610226
0.6078751 -0.45638227 -0.041363306 -0.8739484 -0.0538429 0.23814131 0.1622989 -1.2608042
-1.122299 -0.44312337 0.041853063 -0.4626474 0.609257 0.41308653 0.5848435 -0.2677764

encoder.blocks.0.q_proj.weight f4 [16, 16]
00000000: 32d6 163d ec41 dcbd 70eb b6be 4c54 cdbe
00000010: 6069 f33e 5d37 9ebd c87c c73f b66c 92be
00000020: 955a 513f 205b 503f 4602 ab3e 43d8 663e
00000030: c9eb 733f 3a66 1f3f 4980 64bf 9f12 433f
00000040: 38aa 173f 0222 a7bf 1fc2 ba3f f643 a03e
00000050: 6764 94bd 3e9d f13c b6b7 483f 1a9c 92bf
00000060: 8606 08bf 8a6c 283f 449a c0be 4d61 5b3d
00000070: 6837 11bf 715a 0d3d 6db7 4ebf 4fc8 b8be
00000080: cf7e b1bd a920 2b3f a0ac d53f c829 63bf
00000090: 3d24 bbbe 92c2 cfbe 5080 353e 0bd3 d23e
000000a0: ee2f 01be 75c0 2e3f 83c9 38be f029 803e
000000b0: 63ad 97be 5882 bd3f 63ff 9e3e 9486 2dbe
000000c0: f80d a83f 3459 7dbe 432a f7bd ecfb 9f3f
000000d0: 3083 953e c2e1 9f3e 4a2f 003e 3169 05bd
000000e0: 8715 2fbf 3ded ed3e 6f92 28bd 311a 8b3e
000000f0: 7030 2bbd bcf3 a53f 8db3 08bf 9c8b fa3e
00000100: 96cd aabe fc0c d93e 3b5e a53e 1177 c3bf
00000110: d91c 183f e042 b03e 0dd8 353e 2bbe 27bf
00000120: f011 2fbc dfcb febb 034e 623f f4e2 b43e
00000130: 097f ef3f b279 a5be 2e54 fb3c c31d 30be
00000140: a6d5 bb3e 0d58 3abf 6aa8 153f 945c b6bd
00000150: 2e6e d4be a703 a73f aaeb 93be d044 abbc
00000160: 1d91 e4be 4742 803d 32a3 83be 970b a6bf
00000170: 857b f4be 072d 063f 5e72 373f 27c8 dfbe
00000180: f524 143f 74d1 4c3f 35db 79bf 0d1f 4c3f
00000190: 5d52 583f 92ad 593f dd19 73bf fa95 67be
000001a0: 5d99 4cbe 6783 2f3f 6d73 033f b00e 753d
000001b0: 5456 453e b641 c5be a051 5ebf 5a83 2abf
000001c0: f6b1 a53e 7946 49bf addf d2bf d59b 15bf
000001d0: ab00 26bf 6e6e 10bd ce1c cf3f 5be8 f93e
000001e0: faae 4ebf 0d61 cb3e f73b ee3d f216 913e
000001f0: f915 8cbf a425 4d3f 5be8 b13f dda4 783d
00000200: 329f bc3c b583 c1bf 1d72 a5be fc6f 01bf
00000210: 30b0 02be f6fa f0bc ee0e e6be e992 9f3e
00000220: 63b9 f73e dc2e 9c3e e4b0 9ebe cca2 473f
00000230: 8a49 1ebf 8eb2 6bbd 28c7 8d3f 1040 b9be
00000240: eb78 263e 0031 f6be 3bb8 dbbc a44e 23bf
00000250: 3cb2 5a3f 0b09 1dbe b5a7 f0bf f3d6 07bf
00000260: fbe7 c33e 5ddf 2ebf 63e9 813e 6b38 3e3d
00000270: 1a3d fc3d 4bfa b23e d945 433f 1da0 0cbf
00000280: 7a24 c43e b940 193b c72a 2abf 9d69 a83f
00000290: 2dbc 03bf dd65 e1be 70df 83bc 9f0f 4d3f
000002a0: 8574 4dbe 9832 bcbf 2023 6d3e 210d 55bf
000002b0: 927f 113f ac05 28bf 280b 28bf 7d9c aa3e
000002c0: 99ab 99bd 16e7 6bbe 6adc 593b 008f be3e
000002d0: 84fd 5dbf 3013 f03f 6bde b0be 8a03 013f
000002e0: b39c f6be b5df a03f e871 e63e 52bd 853f
000002f0: 962f 9d3d 8de7 8abf 54fa 273f 5d86 31bd
00000300: b040 16bf e05b 293f 3db4 ba3e 6f40 b73e
00000310: 0fe0 29be 874f abbd fd01 9dbe c914 2ebf
00000320: abbe 18bd 1640 58bf 8668 e4bd f9e1 20be
00000330: ccdb 3cbd 326b bd3d 2e52 ca3e 036f e93e
00000340: 7e19 563f 0a78 d3be 4c39 94be 75cb e33d
00000350: 6ab3 b8be d007 4abf 992d a33f 2f67 c73f
00000360: da1a d03d e85f 913e 6640 ae3e 6f27 c0be
00000370: 89fd 0a3f 44b7 00bd 68ef eabe 9d8c 58bf
00000380: bbea 6abe bb00 f5bc b068 1ebf 6f6c 7bbf
00000390: 7fd1 67bd 6b56 473e 88c3 c43c 951e cfbf
000003a0: 24d3 67bf 9626 cc3d 02c1 483f ce02 6c3f
000003b0: 3744 4d3f 24a5 273f 5b12 a1bd d01f af3f
000003c0: 44b4 d73e 4f26 fc3c 6fe8 483e 7161 05be
000003d0: 2ef6 c13f aa14 4dbf b438 753e 46c3 0bbf
000003e0: 94fa 563f 112b 7e3f aebf 183f 6052 1cbf
000003f0: 6c5e ab3f bf06 b0be 4b00 5d3f a461 ac3f
0.036825366 -0.10754761 -0.357265 -0.40103376 0.47541332 -0.077254035 1.5584955 -0.28598565
0.8177884 0.81389046 0.33400172 0.22543435 0.95281655 0.6226536 -0.8925825 0.7620029
0.5924411 -1.3057253 1.4590491 0.3130185 -0.07245713 0.029493924 0.7840532 -1.1453888
-0.53134954 0.6579062 -0.37617695 0.05355959 -0.5672517 0.03451008 -0.80748636 -0.36090323
-0.08666765 0.6684671 1.6693306 -0.8873563 -0.36551085 -0.40578133 0.17724729 0.41176638
-0.1261594 0.68262416 -0.1804562 0.25031996 -0.2962447 1.4805403 0.3105422 -0.16945869
1.3129263 -0.2474106 -0.12068608 1.2498755 0.2920165 0.31226927 0.1251804 -0.03257102
-0.68392223 0.4647006 -0.041155275 0.2716842 -0.04179424 1.2965007 -0.5339897 0.48934639
-0.33359975 0.4239272 0.32298455 -1.5270711 0.5941902 0.34426022 0.17758198 -0.6552455
-0.010685429 -0.007775768 0.88400286 0.35329401 1.8710643 -0.3231941 0.030679788 -0.17198853
0.36686438 -0.72790605 0.58460104 -0.089043766 -0.4149031 1.304799 -0.28890735 -0.020906836
-0.44641963 0.062626414 -0.25710446 -1.2972287 -0.47750488 0.52412456 0.71658885 -0.43707392
0.5786889 0.800071 -0.9760011 0.7973488 0.84500676 0.8503047 -0.9496134 -0.22615805
-0.19980378 0.6855988 0.51348 0.05982846 0.19271213 -0.38526696 -0.868433 -0.66606677
0.32362336 -0.7862316 -1.647451 -0.58440906 -0.6484477 -0.035261564 1.6180665 0.48810086
-0.80735743 0.3972248 0.11632531 0.28337818 -1.0944206 0.8013556 1.3899034 0.0607041
0.023025129 -1.5118319 -0.32313624 -0.505615 -0.12762523 -0.029416543 -0.44933265 0.3116677
0.48383626 0.305045 -0.30994332 0.77982783 -0.6183096 -0.05754333 1.1076403 -0.36181688
0.16257064 -0.4808426 -0.026821246 -0.6379187 0.85428214 -0.15335481 -1.880118 -0.5306236
0.38262925 -0.68309575 0.25373372 0.046440523 0.12316342 0.34956583 0.76278454 -0.54931813
0.3830908 0.0023384525 -0.66471523 1.3157231 -0.5145901 -0.44023028 -0.016097754 0.8010196
-0.2006398 -1.470294 0.2315793 -0.8322316 0.5683528 -0.65633655 -0.65642023 0.33322516
-0.07503433 -0.23037371 0.003324295 0.37218475 -0.8671496 1.8755856 -0.3454469 0.50396025
-0.48166427 1.256827 0.4500878 1.0448401 0.07675092 -1.0851914 0.65616345 -0.04334103
-0.58692455 0.66155815 0.36465636 0.35791346 -0.16589378 -0.08364778 -0.3066558 -0.68000466
-0.03729121 -0.8447279 -0.11152749 -0.15711202 -0.046108052 0.092489615 0.39515823 0.45592508
0.8363265 -0.4130252 -0.28949964 0.11122791 -0.36074382 -0.7891817 1.274829 1.5578364
0.101613715 0.28393483 0.34033507 -0.37530085 0.54293114 -0.031424776 -0.45885777 -0.8458956
-0.22941105 -0.029907575 -0.6187849 -0.9821233 -0.056596275 0.1946656 0.024019018 -1.6181208
-0.9055655 0.09968297 0.78419507 0.9219178 0.8018221 0.6548636 -0.07864829 1.3681583
0.4212972 0.030779986 0.19619916 -0.13025452 1.5153253 -0.80109656 0.23947412 -0.5459484
0.839761 0.99284464 0.5966748 -0.61063194 1.338819 -0.34380147 0.8632857 1.3467298

encoder.blocks.0.k_proj.weight f4 [16, 16]
00000000: b60d 9a3f 8a5f 863e d90c 133e 2f11 babe
00000010: d2b2 e5be 0043 1f3f d402 6cbd f5d9 fe3e
00000020: 3334 023f af8b aabe c0a9 a8bf 4cf1 fe3d
00000030: d5a9 81be 199a 9abf 2bc8 373f c836 b2be
00000040: 00ec 113f fa6f 43bf 250c 9abf ec88 afbd
00000050: ca8a 883d 3a43 11bf c38e 833e be51 a0bf
00000060: cb42 06bf ee42 22bf 7848 d73d 6593 3f3f
00000070: c83e b83e 1da0 84bf 1f90 e93d 19ec adbe
00000080: 2ed6 06be 1146 4c3f 4f19 cabf 77b4 8abe
00000090: 3354 27bf 5d73 01bd b974 9ebf eddd 4e3f
000000a0: 1665 29bf b532 233f 5266 1d3e 75d7 4f3f
000000b0: 4f10 a23f 6702 cbbe 6d44 d5be 9b23 073f
000000c0: 9765 8a3f 3501 af3d 45b5 ef3e 68f9 10bf
000000d0: e3f7 14bc bd7f 8dbf 07f7 a23e 23e7 cfbe
000000e0: ec0f 16bf a811 f83e 50c6 ed3e 6892 a83e
000000f0: 8d6c 2f3f b475 1c3c 7aec 9d3f 40ee 17be
00000100: 2c7f 6c3f 7c04 a2be 0b11 1ebf 614c 683e
00000110: 1dbd 1a3f 0407 843f d8b9 8e3e facb 7a3f
00000120: d997 cbbe 61ad 37bf b55f c9bf 4ab8 e33d
00000130: f1f2 e4be 27bd 133f 5459 17bf f045 eabe
00000140: fa48 9bbe 45ff 48bf c21c 48bf a6a1 dcbd
00000150: 07a2 5fbe 8637 31bf 1326 193f 780f ad3e
00000160: 2019 20bf 15e7 39bf 9e4d 323f 3625 62bf
00000170: dac6 b13f 400a 563e ff0a fdbe d218 eabd
00000180: 9dec 353f 73a9 543f 8751 f43e 5ac9 87be
00000190: 7a93 6b3f 4f8f 71bf 1f77 bc3e afce 0a3e
000001a0: 5fe9 ac3c ef47 80bf be56 9d3e 38eb 4dbe
000001b0: f414 37bf ab2a 483f 8c09 503f ca6c 67bf
000001c0: 9b9d b83e 6714 233f b6a0 c93f d01b b23f
000001d0: 577f 73bf bd27 2cbd bdab 923d 0a09 fb3e
000001e0: a555 9a3d ae61 e53e eeff 8c3f 3b7f 95bd
000001f0: cd05 873f e404 a9bf 8353 55bf 3c44 233f
00000200: 9185 bdbe 2319 33bf 4cb1 1b3f bac8 923f
00000210: 1424 94be a043 f2be ff21 ddbd 7d31 dc3d
00000220: 07fd b33f 7025 45be bb74 af3e 6bff 263f
00000230: 03e1 023f ccf4 8f3e bbb7 1ebf 1060 2a3f
00000240: d06d d53c 8d32 8ebf 64c9 ac3d 1129 ca3e
00000250: 05bf e2bc 93e4 95bf 1cd5 8fbd dd64 123f
00000260: 90f3 8e3e 25ce 843d 4b8e 0dbf 94f6 16be
00000270: f929 cbbe 6392 c03f fd0c 44bf 1f66 9f3d
00000280: 2775 bbbd eb5c 1dbf 700b 5f3f d030 3ebf
00000290: c3c7 a4be b8ee 633f 04f5 123e ad3f a4bf
000002a0: 036f 77be e5c6 763f 50d0 ee3e be8c 8fbf
000002b0: 0249 a9be dc88 363f 537e 273f d6d0 24bf
000002c0: 231b f1bd 2c1a 983e 9d76 9e3e fa32 df3e
000002d0: e99a 7f3f 372d b93e cba9 5b3f 60ee 7f3e
000002e0: ea48 933b 1f3a e4bf 5819 903f 7c8d 7e3f
000002f0: 7dbb 283f 90a6 1c3f 2c82 473f b6be 943e
00000300: 7e3b 6cbf a29c c8be a619 34ba cb8d cfbe
00000310: af88 9d3e 9f45 ee3b b769 efbc 3a7a fd3d
00000320: 315f 69bf 2c81 0c3f 245d 12bd d0df 0bbd
00000330: 9e5b 9ebe f500 19be a291 e8bd 9970 b53e
00000340: d495 3c3f c098 fc3e 97e8 783d 810f b43e
00000350: be77 1ebf daee 873f 7f0e 0bbf 9d45 e0be
00000360: 8af9 793f b21e 4b3f a73f 603f 1b49 7bbe
00000370: 2b9c 383f a274 82be 2ceb 2d3e aa2a a4bf
00000380: cfc9 ab3f 0db3 00bf 682e 643f 5152 2f3e
00000390: 68ad 103e 2eb9 c73a 3972 bcbd 0021 523f
000003a0: 0058 b3bf 6d4f 63bf 6b09 c6bf 0b7e 293f
000003b0: 7808 3ebf e7e3 66be 1fa4 afbe f94e 693f
000003c0: 56ca 5c3f d4b3 44bf 6043 debd 09bc 303f
000003d0: c9da ab3f 7bb1 df3e d8e4 f2bd 838c f83e
000003e0: 27f8 053f 3769 063f 1cbb 64bf 4efa 5bbf
000003f0: 8970 63bf 60c9 debd 9d38 883f e0fa 293f
1.2035434 0.26244766 0.1436037 -0.36341235 -0.44862992 0.6221161 -0.057619885 0.49775663
0.508609 -0.33309695 -1.3176804 0.124483675 -0.25324884 -1.2078277 0.7178981 -0.3480742
0.5700073 -0.7634274 -1.2034956 -0.08571038 0.06667097 -0.56743205 0.25694856 -1.2524946
-0.5244567 -0.63383377 0.10511869 0.7483428 0.35985398 -1.0361363 0.11404442 -0.3396919
-0.1316764 0.7979441 -1.5788974 -0.2709081 -0.6536285 -0.03160416 -1.2379371 0.8080738
-0.6616987 0.6374925 0.15371063 0.81188136 1.2661227 -0.3965027 -0.41653767 0.52788705
1.0812253 0.08545152 0.46817985 -0.56630564 -0.009092304 -1.1054608 0.31829092 -0.4060603
-0.58618045 0.4845097 0.46440363 0.329242 0.6852501 0.009549547 1.2337792 -0.14836979
0.9238155 -0.31644046 -0.61744756 0.22685386 0.60444814 1.0314641 0.27876163 0.97967494
-0.39764288 -0.7174893 -1.5732332 0.11119135 -0.447166 0.577105 -0.5912068 -0.45756483
-0.30329114 -0.7851451 -0.7816888 -0.107730195 -0.21839152 -0.6922535 0.5982372 0.33800864
-0.6253834 -0.7261823 0.69649684 -0.8833803 1.388881 0.20902348 -0.49422452 -0.11430515
0.7106417 0.8307106 0.4771845 -0.26520807 0.92021906 -0.94359297 0.36809632 0.13555406
0.021107374 -1.0021952 0.30730242 -0.2010926 -0.71516347 0.78190106 0.8126457 -0.90400374
0.36057743 0.63703007 1.575217 1.3914738 -0.9511618 -0.042030085 0.07161663 0.49030334
0.07535867 0.44801086 1.1015604 -0.07299658 1.0548645 -1.3204618 -0.83330554 0.6377599
-0.37015966 -0.6996023 0.6081741 1.1467507 -0.28933775 -0.4731722 -0.107975 0.10751627
1.4061593 -0.19252563 0.34268746 0.65233487 0.5112459 0.28116453 -0.619991 0.6655283
0.02605334 -1.1109177 0.0843685 0.39484456 -0.027678976 -1.171038 -0.07023069 0.57185155
0.27920198 0.064846314 -0.55295247 -0.147425 -0.3968046 1.5044674 -0.7658232 0.0778315
-0.091532044 -0.61469907 0.8712683 -0.7429323 -0.32183656 0.8903613 0.14351279 -1.2831932
-0.24163441 0.9639724 0.46643305 -1.1214826 -0.33063513 0.7130258 0.6542713 -0.6438116
-0.11772754 0.29707468 0.3094987 0.4359358 0.9984575 0.3616731 0.8580596 0.24993277
0.004494776 -1.7830237 1.1257734 0.9943464 0.65911084 0.61191654 0.77933 0.2905175
-0.9227828 -0.39182 -0.0006870277 -0.40537867 0.30768344 0.007271483 -0.029225213 0.123768285
-0.91160876 0.548846 -0.035733357 -0.03414899 -0.30929273 -0.14941771 -0.11355902 0.35437468
0.7366612 0.4933529 0.06076869 0.3516808 -0.6190146 1.0619767 -0.54318994 -0.4380311
0.9764639 0.7934371 0.87597126 -0.24539606 0.72113293 -0.2547961 0.16984242 -1.282552
1.3420962 -0.5027321 0.8913331 0.17121245 0.14128649 0.0015237683 -0.09201474 0.82081604
-1.401123 -0.8879307 -1.5471624 0.6620795 -0.7423167 -0.22547875 -0.34304902 0.9113613
0.8624624 -0.76836896 -0.108526945 0.6903692 1.3426143 0.43690094 -0.11860055 0.48544702
0.52331775 0.52504295 -0.89348006 -0.8592881 -0.8884359 -0.10878253 1.0642277 0.6639843

encoder.blocks.0.v_proj.weight f4 [16, 16]
00000000: 9e1f 093d 14dd 473d d636 92bd fe36 85be
00000010: 1d67 c5bc 92f4 2c3f 59cd 423e 57f8 91bd
00000020: cc89 e8bd e532 cc3d 51d3 4fbe 7f93 5a3d
00000030: 07eb debd 3e55 aabe ef66 98be b890 0f3c
00000040: 0086 da3b 763c 88be d950 a4bc ba16 d33d
00000050: 2d9f 3e3e bad5 a53e ae51 333e af04 1dbe
00000060: f310 95be 21fe a63d c58e b7be 5f8b 793e
00000070: a218 8ebe c816 103e 5f74 d6be 8009 333e
00000080: a01d 7b3e 884c 91be fa58 52bd 07ab e93e
00000090: a03b 84be adb0 2abe ebf6 5bbf eb8d dabe
000000a0: 2cc9 e2be fb2d 0dbf 111d 2cbf 3812 14bf
000000b0: 893a f2be 0249 40bf d98b 1dbf 852c 2dbf
000000c0: 12bc 0f3d 5cc3 843d f2c4 55be 63e1 923d
000000d0: 550f 7bbe 7936 f63c cec8 c6be fe9c 96be
000000e0: fa2e 8cbe fc84 95bc be3f 85be bf18 f6be
000000f0: d493 e0be fc74 9fbe b8ec 2fbf 56df b3be
00000100: 103d 68be a895 8a3c d3c3 43be cd28 c7be
00000110: df49 653d cddf 0c3f b618 363e 7c20 92be
00000120: 8bc9 6cbe 4fff b2bd c190 d8be 90a0 e2bd
00000130: 4ac7 a1be 686b d43d ec81 4ebe d36f a3be
00000140: cf9f c63e a703 ab3e 6347 5c3d e1eb 103f
00000150: 2b5b e9be 8242 fabd c881 dabe 4c69 98be
00000160: 7f7c 95be 5d73 94be af52 1dbe e6de c2be
00000170: 5ad3 fabb edaf 99be 385b a53d 2e5e a8be
00000180: 1860 9bbe 7110 49bb fc62 eb3c 39b7 adbd
00000190: 8238 103e 41b4 093f 03ef 39be fd3b 32bd
000001a0: 3da3 93be 1589 ef3d fc5d f3be 470a 6e3d
000001b0: 0e1f 36be 51b2 b0be ff41 c1be 61e8 8ebe
000001c0: 687a b13e 1571 72be f334 303e 3605 883f
000001d0: 4b14 64bd 2fc8 173e 3a36 debd d4f4 6fbe
000001e0: b5e1 06bf 4349 35be c3e4 2bbf 19db 473d
000001f0: 8781 b4be 7572 a6be 1538 dfbe 77b5 69be
00000200: 1b7a 0c3e 5b42 e1bc 28fe 47be 0abb 163d
00000210: 7fbe e2be 19a6 543f f380 003e 395d 42be
00000220: bcd6 05bf 377d 3abe 6845 01bf 69ca 3cbe
00000230: 01dd ddbe ad81 10bd d422 f1be c3c8 86bd
00000240: 7dae 543f e09e 99bd 3624 ebbe 0872 eb3e
00000250: 2a5e 6fbe e830 2bbf 6a43 6bbf cead 5cbe
00000260: a96c 38bf 5a10 50bf db90 39bf 6314 49bf
00000270: 7f46 45bf dfd9 3ebf 5513 3ebf 57cc 2cbf
00000280: fd9e 2e3e ce32 713e 83c6 3dbe e70f 873d
00000290: f575 8fbe 4c08 0c3f d465 1bbe 8b46 eebd
000002a0: fef2 d9bd 3052 bebe 1b22 1fbe 8554 5abe
000002b0: d546 8cbe cf7b f9bd 6f18 27be d28d 96be
000002c0: 0b6b 1fbe 4d9e 69bd d06f 31bd 636b 39bd
000002d0: d53d 32bd 9523 163f 62de 543d ed11 40be
000002e0: 88c1 1bbf 5d9b 913d e85b d2be 002d 19be
000002f0: 7374 0bbf 540d 8ebe e3a9 23bf 9e8e 59be
00000300: 831e 883e 3098 b73d 3809 5b3d 7520 9e3e
00000310: fbf2 e1be 3288 023f 4b3f 89be 5f20 b8be
00000320: 7c31 fdbe c245 f7be 0e4a cfbe f3e3 00bf
00000330: 3054 a1be 769a fcbd df29 24be 57d2 bdbe
00000340: 88c8 08be ed16 7cbe ab43 2abe 4251 3c3d
00000350: 29e1 23be ace9 553f 7d40 c63e 8bd6 64bd
00000360: a2b1 cc3b 8bd4 41be 201a c1bd 1ddd 2d3e
00000370: d6ae 48be 456e 40be 9142 a1be b236 f6bd
00000380: 5f35 b4be 01c6 4c3e eb72 44bd d3ae 2f3e
00000390: e958 3dbd e182 3d3f 21b2 b43e e7bc ab3d
000003a0: 867b 7f3c 8c2a 2bbe ab88 3c3d be60 2a3e
000003b0: 1b4b c8bc fc3c dabd 8ee8 ecb9 83f2 1c3e
000003c0: 2043 32be f85a 21be 0b41 f3bd 16a0 8a3e
000003d0: 1e57 e3bd 4d4f 3e3f c160 843e 7621 493e
000003e0: 4ff2 f8bc c510 7f3e 6cac 86be fb9a 313e
000003f0: fdc3 27be 0588 673e 2595 97be 9b47 c0bb
0.033477418 0.04879482 -0.071393654 -0.26018518 -0.02409702 0.67560685 0.19023646 -0.07127445
-0.11354408 0.09970645 -0.20295455 0.05336332 -0.10884672 -0.3326816 -0.29766032 0.008762531
0.006668806 -0.26608628 -0.020058082 0.10307069 0.18615408 0.32389623 0.17511627 -0.15333818
-0.29114494 0.0815394 -0.35851112 0.24369572 -0.27753168 0.1407119 -0.4188566 0.17484093
0.2452302 -0.283787 -0.051354386 0.45638296 -0.2582674 -0.16668959 -0.8592364 -0.426864
-0.44294107 -0.55148286 -0.6723185 -0.578403 -0.47310284 -0.751114 -0.61541516 -0.67646056
0.035091467 0.06482574 -0.2087591 0.07171895 -0.24517567 0.030055271 -0.38825077 -0.2941665
-0.2737959 -0.018251888 -0.26025194 -0.48065755 -0.43862784 -0.3114394 -0.6872058 -0.3513133
-0.22679543 0.016917065 -0.1911767 -0.38898316 0.055978652 0.5502899 0.17782864 -0.2854041
-0.23123758 -0.087401025 -0.42297938 -0.11065781 -0.31597358 0.103720486 -0.20166749 -0.31921253
0.387938 0.33401224 0.053779017 0.5660992 -0.45577368 -0.122197166 -0.4267714 -0.29767835
-0.29196545 -0.28994265 -0.15363573 -0.38060683 -0.0076545896 -0.30017033 0.08074039 -0.32884353
-0.3034675 -0.0030679966 0.028733723 -0.084822126 0.14084056 0.5379067 -0.18157582 -0.04351424
-0.28835478 0.11696068 -0.47532642 0.05811527 -0.17785284 -0.34511045 -0.37745664 -0.27911666
0.346637 -0.2367595 0.17207699 1.062659 -0.055683415 0.14822458 -0.10850187 -0.23433238
-0.5268815 -0.17703728 -0.6714594 0.048792932 -0.35255072 -0.325092 -0.43597475 -0.2282313
0.13718455 -0.027497461 -0.19530547 0.036799468 -0.44285962 0.83065945 0.1254919 -0.18980874
-0.52280784 -0.18211828 -0.5049653 -0.18436588 -0.43332675 -0.03527992 -0.47096884 -0.06581261
0.8307875 -0.07501006 -0.45926064 0.45985436 -0.23375764 -0.668715 -0.9189974 -0.21550676
-0.720408 -0.8127495 -0.72486657 -0.7854673 -0.77060694 -0.74551195 -0.7424825 -0.674993
0.17052837 0.23554537 -0.18532757 0.0659483 -0.28019682 0.5470016 -0.15175563 -0.11634549
-0.1064205 -0.3717208 -0.15540354 -0.21321304 -0.2739779 -0.12181818 -0.16317914 -0.29405075
-0.15568177 -0.057035733 -0.043319523 -0.045268428 -0.043516 0.58648044 0.051969893 -0.18756838
-0.6084218 0.07109711 -0.41085744 -0.14958572 -0.5447456 -0.27744544 -0.639311 -0.2124581
0.2658578 0.08964574 0.05347559 0.30884138 -0.44130692 0.5098907 -0.268061 -0.35962197
-0.49451816 -0.48295408 -0.40486187 -0.5034782 -0.31509542 -0.123341486 -0.16031598 -0.3707454
-0.13357747 -0.2461812 -0.16627376 0.04597593 -0.1600386 0.8355968 0.38721076 -0.055868667
0.0062467614 -0.18928735 -0.09428811 0.1697888 -0.19597945 -0.18792064 -0.314961 -0.12022151
-0.3519697 0.19997407 -0.047961157 0.17156534 -0.04622737 0.7402783 0.35292152 0.0838564
0.015593415 -0.16715449 0.046028774 0.16638467 -0.024449876 -0.10656163 -0.00045186694 0.15326886
-0.17408419 -0.15757358 -0.1187764 0.2707526 -0.11100601 0.74339753 0.25855067 0.1964167
-0.03038898 0.24908741 -0.26303422 0.17344277 -0.16383357 0.22610481 -0.29605976 -0.005867911

encoder.blocks.0.pos_embed.pe f4 [1, 625, 16]
00000000: 0000 0000 0000 803f 0000 0000 0000 803f
00000010: 0000 0000 0000 803f 0000 0000 0000 803f
00000020: 0000 0000 0000 803f 0000 0000 0000 803f
00000030: 0000 0000 0000 803f 0000 0000 0000 803f
00000040: a46a 573f 4151 0a3f 278f 703e f0d5 783f
00000050: b136 663d 6898 7f3f 497a 5a3c 2cfa 7f3f
00000060: 223e 4f3b acff 7f3f 8f94 443a fbff 7f3f
00000070: 5377 3a39 0000 803f 53df 3038 0000 803f
00000080: b7c7 683f 3311 d5be b7d3 e93e 69be 633f
00000090: 89d9 e53d f361 7e3f 5075 da3c b1e8 7f3f
000000a0: de3d cf3b b1fe 7f3f 8b94 c43a edff 7f3f
000000b0: 5377 ba39 ffff 7f3f 53df b038 0000 803f
000000c0: c381 103e 2670 7dbf b824 273f a1e7 413f
000000d0: d9ee 2b3e 9e5d 7c3f c5d1 233d 90cb 7f3f
000000e0: 126e 1b3c 0dfd 7f3f 646f 133b d6ff 7f3f
000000f0: 7ed9 0b3a feff 7f3f 7ea7 0439 0000 803f
00000100: cfbd 41bf 3055 27bf a604 503f 7736 153f
00000110: c765 643e 098d 793f 6c61 5a3d caa2 7f3f
00000120: cf3c 4f3c c2fa 7f3f 7d94 443b b5ff 7f3f
00000130: 5277 3a3a fcff 7f3f 53df 3039 0000 803f
00000140: 107c 75bf 2c3c 913e f83f 6d3f 9756 c03e
00000150: ee11 8e3e 7cf2 753f 9273 883d 606e 7f3f
00000160: 8285 813c cff7 7f3f 8eb9 753b 8aff 7f3f
00000170: 2615 693a f9ff 7f3f 2817 5d39 0000 803f
00000180: 8c0f 8fbe b8cd 753f d433 7d3f 96f8 163e
00000190: fd7d a93e e190 713f 37b0 a33d 562e 7f3f
000001a0: 486c 9b3c 34f4 7f3f 4b6f 933b 56ff 7f3f
000001b0: 7cd9 8b3a f7ff 7f3f 7ea7 8439 0000 803f
000001c0: 4630 283f bdff 403f a7fb 7e3f 6a5e b6bd
000001d0: e060 c43e c56b 6c3f 68e5 be3d aee2 7e3f
000001e0: a752 b53c f2ef 7f3f ca01 ac3b 19ff 7f3f
000001f0: 6628 a33a f3ff 7f3f 69c3 9a39 ffff 7f3f
00000200: 9546 7d3f f6fd 14be ed7d 723f 371e a4be
00000210: d3a4 de3e 5287 663f e911 da3d 6c8b 7e3f
00000220: 9038 cf3c 08eb 7f3f 4394 c43b d2fe 7f3f
00000230: 4f77 ba3a efff 7f3f 53df b039 ffff 7f3f
00000240: 3201 d33e d53f 69bf a16d 583f 9fba 08bf
00000250: 9434 f83e 4be8 5f3f 7c34 f53d 9328 7e3f
00000260: f11d e93c 76e5 7f3f b426 dd3b 82fe 7f3f
00000270: 37c6 d13a ebff 7f3f 3dfb c639 ffff 7f3f
00000280: f844 0bbf 64cd 56bf 3940 323f 00bf 37bf
00000290: ba7d 083f 0d94 583f f325 083e 28ba 7d3f
000002a0: 5d81 013d 3cdf 7f3f 1db9 f53b 28fe 7f3f
000002b0: 2015 e93a e6ff 7f3f 2817 dd39 ffff 7f3f
000002c0: 5cff 7fbf 7205 913b b718 023f 917a 5cbf
000002d0: b472 143f 8790 503f 75ab 153e 3040 7d3f
000002e0: 6c73 0e3d 5bd8 7f3f bf25 073c c5fd 7f3f
000002f0: 0432 003b e0ff 7f3f 1133 f339 feff 7f3f
00000300: d85c 09bf d006 583f 3d52 953e f8de 74bf
00000310: 88ef 1f3f 35e4 473f 272a 233e b1ba 7c3f
00000320: 1e65 1b3d d2d0 7f3f ea6e 133c 59fd 7f3f
00000330: 77d9 0b3b daff 7f3f 7ea7 043a feff 7f3f
00000340: 2220 d73e 6f4e 683f e0bb 703d b68e 7fbf
00000350: ebea 2a3f 1b96 3e3f 6ca1 303e b129 7c3f
00000360: 6a56 283d a1c8 7f3f 0fb8 1f3c e3fc 7f3f
00000370: ea80 173b d3ff 7f3f 73b5 0f3a feff 7f3f
00000380: 7298 7d3f d704 0c3e f3a4 35be adf0 7bbf
00000390: fa5b 353f c2ad 343f a610 3e3e 358d 7b3f
000003a0: 4847 353d c9bf 7f3f 2f01 2c3c 63fc 7f3f
000003b0: 5e28 233b ccff 7f3f 68c3 1a3a fdff 7f3f
000003c0: 4479 263f e87a 42bf 0ca7 cebe b038 6abf
000003d0: 423a 3f3f 2f33 2a3f 3977 4b3e 47e5 7a3f
000003e0: af37 423d 49b6 7f3f 484a 383c dbfb 7f3f
000003f0: d0cf 2e3b c4ff 7f3f 5dd1 253a fdff 7f3f
0.0 1.0 0.0 1.0 0.0 1.0 0.0 1.0
0.0 1.0 0.0 1.0 0.0 1.0 0.0 1.0
0.84147096 0.54030234 0.23492108 0.9720144 0.0562045 0.9984193 0.013334819 0.99991107
0.0031622727 0.999995 0.00074989436 0.9999997 0.00017782794 1.0 4.2169657e-05 1.0
0.9092974 -0.41614684 0.45669338 0.8896242 0.11223132 0.9936821 0.026667267 0.99964434
0.006324514 0.99998003 0.0014997883 0.99999887 0.00035565588 0.99999994 8.433931e-05 1.0
0.14112 -0.9899925 0.65290403 0.7574406 0.16790332 0.9858035 0.039994974 0.99919987
0.009486692 0.999955 0.0022496814 0.9999975 0.0005334838 0.9999999 0.00012650897 1.0
-0.7568025 -0.6536436 0.8125709 0.5828623 0.2230445 0.9748083 0.053315565 0.9985777
0.012648775 0.99992 0.0029995732 0.9999955 0.0007113117 0.99999976 0.00016867863 1.0
-0.9589243 0.2836622 0.92675734 0.37566063 0.27748054 0.96073127 0.06662668 0.99777794
0.015810732 0.999875 0.0037494632 0.99999297 0.0008891396 0.9999996 0.00021084829 1.0
-0.2794155 0.96017027 0.9890721 0.14743266 0.33103934 0.9436169 0.07992595 0.9968008
0.018972531 0.99982 0.004499351 0.99998987 0.0010669674 0.99999946 0.00025301793 1.0
0.6569866 0.75390226 0.9960274 -0.08904727 0.3835516 0.92351943 0.093210995 0.99564636
0.022134138 0.999755 0.0052492367 0.99998623 0.0012447953 0.9999992 0.0002951876 0.99999994
0.98935825 -0.14550003 0.947234 -0.32054302 0.43485126 0.9005023 0.10647947 0.9943149
0.025295526 0.99968004 0.0059991195 0.999982 0.001422623 0.999999 0.00033735725 0.99999994
0.4121185 -0.91113025 0.8454228 -0.5340976 0.48477614 0.87463826 0.11972901 0.9928066
0.02845666 0.99959505 0.0067489985 0.99997723 0.0016004507 0.99999875 0.0003795269 0.99999994
-0.5440211 -0.8390715 0.69629246 -0.7177582 0.53316844 0.8460091 0.13295726 0.99112177
0.03161751 0.99950004 0.007498874 0.99997187 0.0017782785 0.99999845 0.00042169658 0.99999994
-0.9999902 0.004425698 0.5081896 -0.8612452 0.57987523 0.8147053 0.14616187 0.9892607
0.034778044 0.9993951 0.008248745 0.99996597 0.0019561062 0.9999981 0.0004638662 0.9999999
-0.53657293 0.84385395 0.29164305 -0.95652723 0.6247487 0.7808259 0.15934049 0.9872237
0.03793823 0.9992801 0.008998612 0.9999595 0.0021339336 0.99999774 0.00050603587 0.9999999
0.42016703 0.9074468 0.05877292 -0.99827135 0.66764706 0.7444779 0.17249078 0.98501116
0.041098036 0.9991551 0.009748473 0.9999525 0.002311761 0.9999973 0.0005482055 0.9999999
0.9906074 0.13673721 -0.17738704 -0.9841412 0.7084347 0.70577633 0.18561038 0.9826234
0.044257432 0.99902016 0.010498329 0.99994487 0.0024895887 0.9999969 0.00059037516 0.9999998
0.65028787 -0.7596879 -0.40361822 -0.9149275 0.7469827 0.6648435 0.19869699 0.980061
0.047416385 0.9988752 0.011248179 0.99993676 0.002667416 0.9999964 0.0006325448 0.9999998

encoder.blocks.1.q_proj.weight f4 [16, 16]
00000000: 87e1 dfbc 12b5 abbd 07d9 503e cf14 86be
00000010: 6d70 a1be cd7e e3bd 565f c6bd 940c 04be
00000020: 0c7f 2a3e c808 4bbe 3c07 1cbf 5327 b13e
00000030: a8f0 93be 30c1 f23d 2800 8f3c ea14 723e
00000040: 116e de3d eb20 fb3c 5c38 90bd 7343 c03d
00000050: b879 32be 74c2 333e 4064 123d 0c46 00be
00000060: 3054 d93d 6ecf 27be 9b3f 04bf 1dd0 7b3d
00000070: 60b4 6bbe d631 0dbd d13e bb3d bd9d edbd
00000080: a8fe b3bd a407 bbbd 69aa e33c bb09 cbbd
00000090: a9be 62be ddb4 2cbe a02b 49bd aba9 223e
000000a0: 6acb 0abd 44e5 70be 14d9 5f3e 4457 5f3e
000000b0: 6acc d23b d9cc 1d3e 7b95 9cbd 52b9 02be
000000c0: 47b2 873d 122c 113e 5d41 8ebd 8763 13bd
000000d0: 7284 203c c081 46be 506d ee3c e215 96bc
000000e0: 3f62 20be 42d6 9f3e a56e 98be 3917 9b3d
000000f0: 33b4 c0bd 9ab8 a2be 096e 463d 4acd 413e
00000100: 4572 003e 74c4 7f3d 2a3b f03d ae6c 993d
00000110: b40a 01bf 722a 8f3d 37bc 90bc a172 86bd
00000120: d3e9 003e 5ee1 c9bc 366c 50be 73ee 50be
00000130: 04e4 6fbd 2c29 4e3d 1c6f 003d 9a56 20bd
00000140: 221f e4bd 91af c23d 5195 053e 760b 50bb
00000150: ac06 d8bd 213a 11bd 4e38 59bc b5f7 dd3d
00000160: 26b5 dabd 7a9f 06be c4ac b43d c9ec c1bd
00000170: 9be7 ca3d c06a 1b3e cf7b 193e b975 90bd
00000180: abc5 a7bd 4e19 693a 35ad 49bd 52ac bebd
00000190: 117d aabe 542b 593d ba5d a63d c67c a1bd
000001a0: 3d2e 833e 453c 02be 1f9b dcbe d49f 783e
000001b0: b67a 67be c415 e33d 9eb2 aa3d 8e4b 6a3e
000001c0: a257 dc3d 7aed 5cbe b28f cd3d 2fd5 8abd
000001d0: fdab 2cbe bb16 243e 7e20 533c 8db3 eebc
000001e0: 7477 493e 93f4 a4be fc38 f1bd 3e57 cc3c
000001f0: 927f e6bb 6df9 ca3e 769b ea3d 3dd8 1dbe
00000200: 32f6 2f3e 3e11 1fbe 6a66 ec3d 6ed6 83bd
00000210: a1d9 9fbe edef e63d 1e14 a93d 8d7e 62be
00000220: 2d32 a93d 3a0c f6be 9860 873e f7b5 57ba
00000230: 0254 2b3d 8157 933e 2f90 c43c d0b0 bcbe
00000240: 48bc 993e b030 913d 0299 fcbc f1d3 5d3e
00000250: 2000 24bd c6c4 8dbd e1bf 7a3e 4752 1fbe
00000260: 19c4 53bc f7f6 23be 6239 c43e 7037 d3be
00000270: 8809 de3d 5023 923c cbf9 bf3d c9cc 07bf
00000280: b6cc eebb 1f05 a7bd eca7 6dbe 5678 273e
00000290: db1b 49be 45c7 b0ba 3f5b 3c3d 44a1 8b3e
000002a0: d3db c2bd 123f 923d 9f92 823c d7f1 4fbe
000002b0: 904f d7bc 9e12 5abe 10d8 83bd 5657 80bc
000002c0: 922b 963e 4993 9b3d 4777 58bb 618a 313e
000002d0: a343 7c3d 6bb0 513e ebb8 a53d 30c2 0fbd
000002e0: 3774 a93d 4124 983e fad0 b5be fe6d 80bc
000002f0: 4f7a 26bd da90 9dbe 7e8e fc3d 9a69 d93c
00000300: c35d 41be 6cb6 263e 28ff 113e 6d68 5bbd
00000310: 0dce 52be a306 7ebd fbf5 d23c 593d cc3d
00000320: 53a1 e5bc ff50 10bd 21b3 cfbd 585f d2bd
00000330: 1a44 afbd 4697 d1bd cab2 e53d e12d 283e
00000340: 4966 2cbe 5f5f 8bb8 fb6b 0a3e bfac 2bbe
00000350: 786a 9cbd 779f 0f3e 27a5 19be 3449 273d
00000360: e6ab 383e 38bc 97be 8328 30be 9542 c73e
00000370: c5ab b9bd 0dcb 9e3e 3259 88bd 8eaf 273e
00000380: 8665 00be 521f 3b3e da02 fabd 4662 53bd
00000390: 5b35 843e 4477 ffbd 0379 8f3d 3f2c 013e
000003a0: 07c1 61be 932a d0bd 19bf df3e f311 4cbe
000003b0: 219e b13d f700 e6bc 019a a23d eafb e7bd
000003c0: 07d3 c23d 3e5e ae3d d26a 1cbe b73a 46bc
000003d0: bec9 b03e f98f 1ebd 713b 7d3d 526d 523e
000003e0: c0f2 f1bd 7521 e83d d4ea 973e a1fd 0a3b
000003f0: b03d f93d 6881 193d e056 dcbd 2e82 babb
-0.02732922 -0.08384146 0.2039529 -0.2618775 -0.31531087 -0.1110817 -0.09686153 -0.12895423
0.16650027 -0.19827569 -0.6094854 0.34600314 -0.28894544 0.11853254 0.01745613 0.2364079
0.10860837 0.030655345 -0.07042 0.09387865 -0.17429245 0.17554647 0.035740137 -0.12526721
0.106117606 -0.16387722 -0.51659554 0.06147777 -0.23018026 -0.034471355 0.09142841 -0.11602352
-0.08788806 -0.09132317 0.027791219 -0.09913965 -0.22143044 -0.16865869 -0.04911387 0.15885036
-0.033885397 -0.23524958 0.21860152 0.21810633 0.0064330595 0.15410174 -0.07645699 -0.12766007
0.066258006 0.14176968 -0.06946061 -0.03598359 0.009797202 -0.19385433 0.029104859 -0.018320981
-0.15662478 0.31218153 -0.29771915 0.07572789 -0.0940937 -0.31781465 0.04844478 0.18925968
0.1254359 0.06244321 0.11730035 0.07491432 -0.50406957 0.06990518 -0.017667873 -0.065648325
0.12589197 -0.024643596 -0.20353779 -0.20403461 -0.058567062 0.050332233 0.031355962 -0.03914509
-0.111387506 0.09506143 0.13045241 -0.0031745113 -0.105481476 -0.035455827 -0.013258053 0.10838262
-0.106790826 -0.13146773 0.08822015 -0.09468991 0.099074565 0.1517744 0.14988635 -0.07053704
-0.08191999 0.00088920153 -0.04923745 -0.09310211 -0.33298543 0.053019837 0.08123346 -0.07885127
0.25621215 -0.12718304 -0.43087098 0.2427972 -0.22605404 0.11088136 0.0833485 0.22880384
0.10758902 -0.21574965 0.10037173 -0.06778943 -0.16862483 0.16024296 0.012886165 -0.02913835
0.19674474 -0.32217845 -0.11778447 0.024943944 -0.0070342505 0.39643422 0.11455433 -0.1541452
0.1718376 -0.15533921 0.115429714 -0.064373836 -0.31220725 0.11276231 0.0825579 -0.22118588
0.082615234 -0.48056203 0.26440883 -0.0008228714 0.041828163 0.28777698 0.023994533 -0.36853647
0.3002646 0.070893645 -0.030834679 0.2166288 -0.04003918 -0.06922297 0.24487258 -0.1555873
-0.012925171 -0.16012178 0.3832503 -0.41253233 0.10841662 0.017839104 0.09373816 -0.5304685
-0.007287587 -0.08155274 -0.23208588 0.16354498 -0.19639532 -0.0013487121 0.045985457 0.27271473
-0.095145844 0.07140936 0.015939055 -0.20307098 -0.026283056 -0.21296164 -0.06437695 -0.015666645
0.29330117 0.07596452 -0.003303008 0.17337944 0.06158794 0.20477454 0.08091911 -0.0350973
0.08274119 0.2971516 -0.35511 -0.015677448 -0.040643986 -0.30774575 0.12331866 0.026539613
-0.18883424 0.16280526 0.1425749 -0.053566385 -0.20586415 -0.062018048 0.025752058 0.09972639
-0.028031027 -0.035233494 -0.10141588 -0.102720916 -0.08557911 -0.10233931 0.11215742 0.16423751
-0.16835894 -6.645801e-05 0.13517754 -0.16765116 -0.07637495 0.14025675 -0.15004407 0.040841296
0.18034324 -0.29635787 -0.17202954 0.38917986 -0.090659656 0.3101429 -0.06657638 0.16375563
-0.12538728 0.18273667 -0.12207575 -0.051607393 0.25821957 -0.1247392 0.07005503 0.12614535
-0.2204629 -0.101643704 0.43700483 -0.19928722 0.08672739 -0.028076632 0.0793953 -0.11327346
0.095129065 0.08514069 -0.15275124 -0.01209896 0.34528917 -0.03871152 0.061824266 0.20549515
-0.11813879 0.113345064 0.29671347 0.0021208304 0.12169969 0.037476927 -0.107587576 -0.005691788

encoder.blocks.1.k_proj.weight f4 [16, 16]
00000000: 22db 3d3e 3026 06bd 3928 48be 610a 02be
00000010: 97e8 393e 35fe 953d 70f1 3f3e 89a2 2bbe
00000020: 8a1d 4cbe e6ed cebd 982d e5bd 75c5 e1bd
00000030: 635d 6bbc ce91 cebd ecee e33d 4c32 47be
00000040: c729 f73c 5434 82be 70dc ccbd 8d7b 193e
00000050: c4ca eb3d 596e bebd f1eb 9f3c e06c 14be
00000060: d7be 363e 927c 4abd a50a ad3b a991 013e
00000070: ebb4 6ebd 9823 ad3d c44b 1dbe ee53 32be
00000080: 378b c73c de29 9a3e 6b12 bfbd 2488 cabd
00000090: 55c3 0a3e 8a6d a9bd 366d 673e fde1 bc3e
000000a0: 15e5 72bb 6828 48bd a422 60bd c962 1c3d
000000b0: 9af2 46bd c690 febc 24a1 213e 4aac 62bd
000000c0: 8e96 bbbb efcb 2dbd 3933 7c3c 6661 d23c
000000d0: e83c 813d 9e7e aa3e 31e3 1c3e 8623 9b3e
000000e0: e4da 92bd fa8f 7c3e ec52 b4bd f891 2c3e
000000f0: 2329 453d fec0 35bd 3bde 553d b8eb 6f3e
00000100: aa68 543e a2cc 893e c2f0 25be e5dd 95bd
00000110: ac18 e13d 5233 1bbe 9a0c f03b 2ccb 773e
00000120: f4ef 073e 9e27 ad3c a49c 31bd df2e 303d
00000130: 9484 733c b519 d63c 6b38 ad3d 3455 cd3d
00000140: 404e d83d 29f2 023e 715c 97be 05f2 433e
00000150: 1cff 113d cbdd 243d f880 493e 74e5 eabd
00000160: dc77 65bd cc5c 0f39 1023 26be d2fc 10bd
00000170: d8bf 06be f92d dc3d 0f55 0d3e fa23 b5bc
00000180: 7513 443d 33cf 0a3e 6890 b23d a9cb bb3d
00000190: 7e49 2a3c aa12 90bd 31c4 033e cd3a 4d3d
000001a0: 4d58 e8bd b3a8 9cbe d638 e5bd 0977 443e
000001b0: f8bb 5e3d ae77 4dbd 4f80 093e 057a 86bd
000001c0: c84b 30be 9fd6 dd3d 90f5 e33d 5f54 3b3e
000001d0: 9ec8 6bbe aa0c 223d 4f76 7cbe f7c3 c33e
000001e0: c2d3 4a3c 9b1f 6e3d 7dd3 7c3e 7d70 d43d
000001f0: 8f91 17bd db96 c8bc 895b 40be efac b3bd
00000200: 4a7d 533e 513b 1b3e e4f6 debd 127e 743c
00000210: b1b1 3a3e e45d b03d 1c7f 753a 3cdd d2bd
00000220: 5f0d 8cbe 95e2 12be 2932 b13e 41c0 423e
00000230: 2f0e d33d 2b73 7cbd 3626 433d 695a 0e3c
00000240: aab0 c13d 46d7 603c 9c9f 9abd b18c 913e
00000250: 0aee 113d 8487 033e 7ca5 2fbc ab94 143e
00000260: 22ef 95bd 98a2 4c3d 3a88 79be 82f9 9f3d
00000270: 0c1a ef3d 46d1 8cbb 815f 763c a141 533c
00000280: b73a e13d 716c b3bd f2f5 c7bd 5efe 2c3e
00000290: f393 1038 c8ec 033e 3105 61be 0ae9 5c3d
000002a0: 141e c3bd 0a0a fc3d 41f5 bcbd 1798 45bd
000002b0: 7dbe 9fbd d39e 8ebd e765 403e 0b6d 74be
000002c0: d6d5 05be 791d 17be 0dee ae3d f3fb 1f3c
000002d0: 0059 643d c458 a9bc cdd8 9dbd c176 29bc
000002e0: 3dbd 343e f598 96be 3825 9a3d cf3a d03c
000002f0: 63f1 25be 40ad 843e 5740 003d b7d7 ff3d
00000300: bd79 fd3a fdea 0d3e 3055 ec3d 1a6c 3d3c
00000310: fcbb 4d3e 60a3 f0bd f5be c6bd 20cd 9f3e
00000320: 3a89 0c3e 7ebb 7f3d 43ac 083d ca60 c33d
00000330: 6c27 88bc 0a51 a83d 04a0 2fbe 6538 fc3d
00000340: 7c68 a0ba 160b 1f3e 8447 023e a485 973c
00000350: e5da 69bd 6721 373e 7dfd 92be 009a c93d
00000360: 893f 2f3e d121 593e 2919 13be 3df7 e0bc
00000370: da2c 493e 4c56 863d fd0c 13be d4f1 dd3d
00000380: e837 7b3c a3e2 633d 162b 933d fde2 47be
00000390: e7af 353e f3ad d5bd cac7 debd a1ce 85bd
000003a0: 6236 76be 401e 273d 32e9 e23d cc40 f7bd
000003b0: c75c 3cbe 6e09 283e 99d3 9d3d 9219 ca39
000003c0: a6ce 623e dda7 b8bd 37f7 91be 4e4e 383c
000003d0: baee 953e dc2b db3d 98fe f0bd aa1d 10bd
000003e0: bd17 4c3d c8c6 42be ba8b aa3d 3821 2a3e
000003f0: c999 423e e5c2 cc3d 978f b33e 484c 973e
0.18540624 -0.032751262 -0.19546594 -0.12699272 0.18155132 0.07323877 0.18744445 -0.16761221
-0.19933143 -0.10103969 -0.11190337 -0.1102399 -0.014365527 -0.10086404 0.11129555 -0.1945278
0.030171288 -0.25430548 -0.100029826 0.14988537 0.11513284 -0.09298391 0.019521685 -0.14494658
0.17846237 -0.049435206 0.00528081 0.12653221 -0.058278006 0.084540546 -0.15360934 -0.17414829
0.024358375 0.30110067 -0.09329685 -0.09889248 0.13551076 -0.08272846 0.22600254 0.36891165
-0.0037062813 -0.04886666 -0.054720536 0.038180146 -0.048571207 -0.031074893 0.15784127 -0.05534009
-0.0057247346 -0.042430814 0.015393072 0.025681209 0.06310445 0.33299726 0.15321042 0.3030054
-0.07170656 0.24664298 -0.088048786 0.16852558 0.048134934 -0.044373505 0.05221389 0.23429763
0.20743051 0.26913935 -0.16205123 -0.07317714 0.10991034 -0.15156296 0.007325721 0.24198598
0.13275129 0.021137055 -0.043362275 0.04301345 0.014863152 0.026135305 0.084580265 0.10026017
0.105618 0.1278769 -0.29562715 0.19135292 0.035643682 0.04025058 0.19678104 -0.11469546
-0.05602251 0.00013672112 -0.16224313 -0.03539736 -0.1315912 0.10750956 0.13801979 -0.022111882
0.04787012 0.13555603 0.087189496 0.091697045 0.010393498 -0.0703481 0.1286781 0.050104905
-0.11344967 -0.30597457 -0.11192481 0.19186033 0.05437848 -0.050162964 0.13427852 -0.06566242
-0.17216408 0.10831951 0.11130822 0.18293904 -0.23025748 0.03956286 -0.24654506 0.38235447
0.012379589 0.05813561 0.24690051 0.10373018 -0.03700405 -0.024485996 -0.18784918 -0.08773219
0.20653263 0.15159346 -0.108869344 0.014922636 0.18231846 0.08611658 0.0009364949 -0.10296103
-0.2735395 -0.14344247 0.34608582 0.19018652 0.1030544 -0.06163327 0.047643863 0.008688548
0.09457524 0.0137232 -0.07549974 0.28427652 0.035627402 0.12844664 -0.010720607 0.14509837
-0.073210016 0.04995975 -0.24368373 0.07811262 0.1167489 -0.0042974083 0.015037418 0.012894065
0.10997527 -0.08760918 -0.09763707 0.16893908 3.4470064e-05 0.12883294 -0.21974637 0.05393318
-0.09527221 0.12306602 -0.09226466 -0.048240747 -0.07800005 -0.06963887 0.18788873 -0.23869722
-0.13069853 -0.14757337 0.08541498 0.009764659 0.05574894 -0.02067221 -0.07707367 -0.010343255
0.17650314 -0.29413572 0.0752663 0.025418667 -0.16205363 0.2591343 0.03131136 0.12492316
0.0019338649 0.13859172 0.11539686 0.011561418 0.20091242 -0.11749911 -0.09704391 0.31211185
0.13724223 0.062434666 0.033367407 0.095399454 -0.01662036 0.08218582 -0.17150885 0.12315444
-0.001223817 0.15531573 0.12722594 0.018496342 -0.05709352 0.17883836 -0.2870902 0.09843826
0.1711408 0.21204306 -0.14365067 -0.027461642 0.19646016 0.065594286 -0.14360423 0.10837141
0.015333153 0.05563606 0.07185952 -0.19520183 0.17742883 -0.10433569 -0.108779505 -0.06533552
-0.24044183 0.040800333 0.11079635 -0.12072906 -0.18394767 0.16409847 0.07706375 0.00038547494
0.22149143 -0.090163924 -0.28508922 0.011249138 0.29283696 0.10701725 -0.1176731 -0.03518454
0.049827326 -0.19021142 0.08327432 0.16614234 0.19003977 0.09998111 0.35070488 0.29550385
