Percolation_shifted/experiments/my_exp/model_final.pt (torch, 139573 bytes, 15 tensors)

embedding.pos_embed f4 [1, 64, 16]
0.7477752 -1.2754085 1.8940454 -1.6250085 2.6753814 0.67913777 -1.5292169 0.9826595
0.05079181 3.467086 2.4744465 -7.4618354 3.7664564 0.881519 -2.4792144 3.7338765
-0.6561469 -1.7003405 0.67005473 -2.0952156 2.169271 0.77455914 0.026252484 1.017535
1.5234389 2.1615164 -0.53743947 -4.999291 2.9621365 2.148984 -1.9430523 3.927221
-1.6218084 -1.7088364 -0.13336292 -2.4496937 0.7720405 -0.2974916 1.2580346 -0.79423004
0.50739884 3.5528827 -2.1113508 -0.02213554 2.3611176 0.29553795 0.25108773 1.2329754
-0.99685746 -0.39203408 -0.48167923 -2.0971122 -0.42033255 -1.7805494 0.86374503 -2.489442
-0.5441995 1.5140694 -1.1576847 0.90650123 1.4838783 0.5607608 -0.48082423 0.5416216
-1.2994219 0.32797307 -0.47240403 -1.4916646 -0.73252386 -2.7636504 0.029592026 -1.2504944
-0.59864277 -0.69057804 -2.189002 1.2080293 0.33699834 0.8216726 -0.1966981 -0.14989887
-0.70921665 0.7824197 -0.065719366 -1.712617 -2.9356472 -2.8391309 -1.3242707 -0.72721946
0.35392645 -1.220803 -1.3213141 2.0739892 -1.1074817 1.000096 -0.86355436 -0.8352122
-1.2348922 0.34344593 0.5991287 -1.8297629 0.13845167 -1.620019 -1.5723732 -0.8307102
0.37798265 -3.421955 0.039562352 0.10308397 -0.7785306 0.47906196 0.25292706 -0.1847036
-2.050974 -0.1589851 3.771318 -1.4635015 0.30739343 0.29862538 -1.5595783 -0.13026062
0.5225779 -4.182654 2.22446 -2.1314764 -1.1150278 -0.09474941 0.9987594 -0.004879982
-0.18230803 -2.5974143 -0.4543562 -3.4806988 0.6589184 2.1068308 0.24443753 1.6536087
2.0503087 0.7035226 0.79322094 -4.202082 1.013617 0.9753433 -0.24413982 2.0400565
-0.5796085 -1.636143 -0.020998249 -2.579694 -0.16318287 0.75735813 0.80084 0.967123
0.80148995 0.39249155 -1.8567876 -1.5898776 2.3689177 0.15439017 -1.9449861 2.9432578
-1.7688928 -2.3574305 -0.40141398 -1.6750624 0.55266434 -0.14614283 0.025662258 0.70210147
-0.38913074 2.2758517 -2.9068153 0.9155455 1.6599537 -1.0118198 0.25472012 1.2449396
-1.4296328 -1.1146349 -0.09095874 -0.97597617 0.16288905 -1.34104 1.0453842 -1.6375107
-0.2184929 1.8782583 -1.7688316 1.0155576 0.7939353 -0.6760889 0.6797363 0.042370465
-1.3380021 -0.28145704 -0.19328605 -0.83494925 0.08006813 -2.5948353 -0.044682395 -1.6071199
-0.8147947 0.59796435 -1.4942123 0.9964231 0.05987638 -1.0133814 -0.52734876 -0.38203213
-1.4263396 0.078471206 -0.14550102 -1.5345109 -0.25588745 -2.2733636 -1.1631109 -1.0125611
-0.28260627 -0.32070404 -0.68536264 0.76978403 -0.35585344 -0.7957464 1.0746356 -0.42948788
-1.6719481 0.22963895 0.50015616 -1.8021158 0.51142323 -1.4098775 -1.9720829 -0.7908309
-0.3314256 -1.5557458 1.1346762 -0.38637275 -1.177803 -0.48414162 1.0209199 -0.553261
-2.2269545 -0.8522637 1.4301221 -1.3689146 0.21307802 0.7110401 -0.43140098 0.17556992
0.41971028 -1.7463605 2.6405861 -1.0410286 -1.3030487 -0.160691 0.13078268 -0.1818632
00000000: 326e 3f3f 9640 a3bf 1470 f23f 4700 d0bf
00000010: 7339 2b40 f9db 2d3f 61bd c3bf 938f 7b3f
00000020: 130b 503d bde4 5d40 555d 1e40 5bc7 eec0
00000030: 9f0d 7140 3bab 613f 73ab 1ec0 d5f7 6e40
00000040: 3ef9 27bf c2a4 d9bf b588 2b3f 0318 06c0
00000050: 56d5 0a40 8249 463f 730f d73c 963e 823f
00000060: 0c00 c33f 4956 0a40 a295 09bf 31fa 9fc0
00000070: a593 3d40 f488 0940 f0b5 f8bf 9757 7b40
00000080: 6b97 cfbf 27bb dabf 4a90 08be c8c7 1cc0
00000090: 72a4 453f d250 98be 4707 a13f a952 4bbf
000000a0: e4e4 013f 6e62 6340 5f20 07c0 9855 b5bc
000000b0: 8d1c 1740 c050 973e 928e 803e 23d2 9d3f
000000c0: 0d32 7fbf b1b8 c8be a99e f6be 1637 06c0
000000d0: d435 d7be 0be9 e3bf 651e 5d3f 0553 1fc0
000000e0: a950 0bbf 07cd c13f 032f 94bf 7710 683f
000000f0: b9ef bd3f 058e 0f3f 982e f6be b7a7 0a3f
00000100: 7553 a6bf 16ec a73e f1de f1be deee bebf
00000110: af86 3bbf a6df 30c0 fa6a f23c 3310 a0bf
00000120: a740 19bf b9c9 30bf 9c18 0cc0 b4a0 9a3f
00000130: 0c8b ac3e 2359 523f 3a6b 49be 177f 19be
00000140: 398f 35bf a84c 483f e097 86bd 0937 dbbf
00000150: a5e1 3bc0 52b4 35c0 b481 a9bf 0e2b 3abf
00000160: d935 b53e 4643 9cbf d220 a9bf 3dbc 0440
00000170: f6c1 8dbf 2503 803f e611 5dbf 77d0 55bf
00000180: f310 9ebf 25d8 af3e 8060 193f ac35 eabf
00000190: 46c6 0d3e c85c cfbf 8643 c9bf 6ca9 54bf
000001a0: f186 c13e 5001 5bc0 220c 223d b01d d33d
000001b0: c84d 47bf 9c47 f53e a87f 813e f122 3dbe
000001c0: 2843 03c0 fdcc 22be 465d 7140 0454 bbbf
000001d0: ac62 9d3e 6de5 983e 43a0 c7bf 0a63 05be
000001e0: aac7 053f 4dd8 85c0 8d5d 0e40 1c6a 08c0
000001f0: 3bb9 8ebf fb0b c2bd b2ae 7f3f 42e8 9fbb
00000200: f5ae 3abe 093c 26c0 60a1 e8be c5c3 5ec0
00000210: e0ae 283f 51d6 0640 d54d 7a3e 73a9 d33f
00000220: 4238 0340 0f1a 343f 8710 4b3f 7577 86c0
00000230: 34be 813f 19b0 793f caff 79be 4990 0240
00000240: 3961 14bf 226d d1bf 8504 acbc b519 25c0
00000250: 6919 27be 39e2 413f da03 4d3f 5f95 773f
00000260: 722e 4d3f a7f4 c83e 37ab edbf 1c81 cbbf
00000270: 599c 1740 7518 1e3e 4ef5 f8bf 565e 3c40
00000280: 146b e2bf 24e0 16c0 2286 cdbe 7268 d6bf
00000290: 697b 0d3f 77a6 15be a839 d23c ecbc 333f
000002a0: 253c c7be 8ea7 1140 4309 3ac0 3161 6a3f
000002b0: 5d79 d43f 5083 81bf ad6a 823e 2e5a 9f3f
000002c0: 35fe b6bf 5bac 8ebf 9348 babd 93d9 79bf
000002d0: 63cc 263e 33a7 abbf 26cf 853f f399 d1bf
000002e0: 9abc 5fbe c56a f03f 1369 e2bf cbfd 813f
000002f0: 583f 4b3f 2a14 2dbf 3303 2e3f a78c 2d3d
00000300: a743 abbf 231b 90be c7ec 45be 3cbf 55bf
00000310: c2fa a33d c811 26c0 e304 37bd 1bb6 cdbf
00000320: 6396 50bf 3114 193f 5942 bfbf 9615 7f3f
00000330: ef40 753d 7bb6 81bf 5400 07bf b799 c3be
00000340: 4c92 b6bf 83b5 a03d 38fe 14be da6a c4bf
00000350: ae03 83be ca7e 11c0 d1e0 94bf 9a9b 81bf
00000360: c5b1 90be 5233 a4be ed73 2fbf 9110 453f
00000370: 6c32 b6be 09b6 4bbf a98d 893f d6e5 dbbe
00000380: 6502 d6bf 7926 6b3e 3c0a 003f bbab e6bf
00000390: a2ec 023f de76 b4bf 366d fcbf e573 4abf
000003a0: 9eb0 a9be ae22 c7bf 123d 913f a6d2 c5be
000003b0: 40c2 96bf 69e1 f7be 81ad 823f 83a2 0dbf
000003c0: 6c86 0ec0 f42d 5abf 3e0e b73f 9838 afbf
000003d0: 2031 5a3e b906 363f 97e0 dcbe 9ac8 333e
000003e0: 44e4 d63e be88 dfbf 5dff 2840 6d40 85bf
000003f0: 4dca a6bf 2e8c 24be e5eb 053e 593a 3abe

embedding.patch_embeddings.projection.weight f4 [16, 4]
0.76662177 -0.77854323 -0.8854053 0.9190817 -1.0880654 0.9965833 1.1528033 -1.1354762
0.059503138 0.16784507 0.13514844 0.25883058 -0.87239426 0.8107559 0.8361867 -0.7058549
0.3023637 0.09830268 -0.076591045 -0.08207854 -1.0541599 1.1639088 1.032338 -1.1406764
0.5307562 0.20312981 -0.32642585 -0.32342976 0.08915085 0.34361735 -0.27460048 -0.07833715
0.067909285 0.18413149 0.12608275 0.23645386 0.70682234 -0.757239 -0.59731984 0.6231035
-0.9478178 0.97234017 0.8575583 -0.81684685 -0.25162783 -0.18662602 -0.16991055 -0.08245084
0.2570346 0.20407271 0.26325366 0.17233257 -0.06495407 0.14391623 -0.3037402 0.30651087
-0.15999392 -0.1336941 -0.02183347 0.33432198 0.21456344 0.1448074 0.16671912 0.105381265
00000000: 5341 443f 9c4e 47bf eca9 62bf f048 6b3f
00000010: ba45 8bbf 1520 7f3f 0f8f 933f 4957 91bf
00000020: 90b9 733d 94df 2b3e 5a64 0a3e 7185 843e
00000030: 3b55 5fbf b38d 4f3f 5510 563f e8b2 34bf
00000040: 6acf 9a3e ea52 c93d c4db 9cbd cb18 a8bd
00000050: b6ee 86bf f7fa 943f a723 843f af01 92bf
00000060: a3df 073f 4301 503e 4a21 a7be 9698 a5be
00000070: b994 b63d 9dee af3e 6f98 8cbe 3a6f a0bd
00000080: 0614 8b3d f78c 3c3e d61b 013e f620 723e
00000090: 4ff2 343f 6ada 41bf f4e9 18bf b683 1f3f
000000a0: 30a4 72bf 49eb 783f f188 5b3f e01c 51bf
000000b0: 5dd5 80be e41a 3fbe 08fd 2dbe fcdb a8bd
000000c0: 0a9a 833e 70f8 503e 2fc9 863e f377 303e
000000d0: a406 85bd c75e 133e d683 9bbe feee 9c3e
000000e0: 72d5 23be 1be7 08be 1bdc b2bc 402c ab3e
000000f0: 85b6 5b3e 6448 143e 6bb8 2a3e 22d2 d73d

encoder.blocks.0.q_proj.weight f4 [16, 16]
0.118798606 -0.0342363 -0.014245413 -0.7294628 0.20984888 0.91100127 -0.88310623 0.25940746
-0.34292376 -0.68479 -0.3563722 -0.38842487 -0.4787063 -0.43542895 0.52419406 -0.07077542
0.28264958 -0.42984623 0.23765463 -0.24404457 0.37130713 -0.7354468 -0.0066075297 0.19058281
0.05030323 -0.29237893 0.39804748 0.30478907 -0.0063328077 -0.0031069177 0.15417773 0.102114715
0.5791634 0.7904134 0.2707188 -0.6560626 0.2508718 -0.52111876 0.64009726 -0.1617445
-0.003930357 -0.8826621 -0.66268015 0.14541316 0.22894736 -0.6511956 0.43147394 0.14420703
-0.119600885 0.1729842 -0.15615295 0.052297223 -0.6675711 0.32456014 -0.14006196 -0.2036654
-0.13577957 -0.079062484 -0.036392946 0.033260994 -0.06412823 0.12395003 0.091703415 -3.1204023
0.11352961 -0.16338831 -0.07291234 0.18287438 -0.029557336 0.03220848 -0.10330883 -0.17273618
-0.0024616362 0.018994814 -0.058721848 0.024621017 -0.036752794 0.25108728 -0.3166392 0.015620052
-0.31115502 -0.22235857 -0.0611403 -0.06320259 0.004214605 0.021665677 0.06331038 0.0764849
-0.032103986 -0.106409356 -0.026022917 -0.017381592 0.05996578 0.32123104 -0.47555557 -0.048264977
-0.7730064 -1.1962531 0.003326395 -0.6637027 -0.20207612 -0.24782637 -0.2899181 -0.5412135
0.5991312 0.7599356 -0.40793788 0.50345683 0.7508699 -0.5425974 0.20772938 -0.16674995
0.36970732 -0.5030199 0.10664201 0.15142629 -0.1209151 -0.9628086 0.46843877 0.33586067
-0.5020523 0.048299987 0.03369472 -1.3549792 0.2728388 -0.1870155 -0.09989716 -0.3845135
-0.12072752 0.079253204 0.104434386 -0.087070554 0.15293704 -0.1564109 0.07620582 0.13617466
0.17126495 -0.09589414 0.071678154 -0.08962196 0.02962071 -0.2548522 0.2044287 0.031129254
0.03158371 -0.19572344 -0.08443888 0.0628358 -0.07411031 -0.023503367 0.021367704 0.061467648
0.06409208 -0.09332442 -0.056133207 -0.052468944 -0.070177086 0.08443224 -0.24465618 -0.01340379
-1.0189661 0.37467307 -0.009595757 -0.666342 0.1614833 -0.63290614 -0.07799121 -1.3301519
-0.092924505 0.6340061 0.5667275 0.120935485 -0.5742347 0.06477605 -0.32969722 -0.056204516
0.4379636 0.38459685 0.2164396 0.13921429 -0.18145746 0.06087542 0.348031 -0.66197675
0.07962931 1.0922353 -0.8254591 -0.14196163 -0.1310069 -0.26650515 0.7012173 0.14058828
-0.27605706 -0.20038761 0.009952617 0.009551432 0.17744195 -0.012781386 -0.10299825 -0.026992464
0.06504446 0.10573076 0.05536328 -0.030570611 0.14839582 0.19784409 -0.27098197 -0.03607534
0.119335204 -0.038274962 -0.0633844 0.22853537 -0.16949385 0.08924215 -0.028839452 -0.022169285
-0.15474905 0.23521784 -0.05347322 0.15747297 0.029183067 0.24006325 -0.12464254 -0.10553641
-0.49948657 0.5262627 -0.10737998 0.33870345 -0.21730581 0.3481492 -0.08707075 -0.5830765
-0.017510207 0.59831685 0.069700226 -0.07228162 1.2695031 0.17418331 -0.42884612 -0.032782737
1.3651478 0.15108494 0.4093841 -0.6573161 0.27005237 0.40997618 -0.96631575 -0.5506722
-0.4084479 0.5393024 0.6472911 -0.13770081 -0.08370034 -0.57881325 0.13894449 0.16334563
00000000: af4c f33d 5d3b 0cbd 9865 69bc 13be 3abf
00000010: a0e2 563e 6137 693f 4013 62bf 0ed1 843e
00000020: b493 afbe 664e 2fbf 6b76 b6be a0df c6be
00000030: fe18 f5be 8bf0 debe 9531 063f b4f2 90bd
00000040: 72b7 903e ce14 dcbe bc5b 733e d2e6 79be
00000050: f81b be3e 3e46 3cbf fa83 d8bb 2428 433e
00000060: c20a 4e3d b1b2 95be e1cc cb3e 500d 9c3e
00000070: 7183 cfbb 6e9d 4bbb c4e0 1d3e 8521 d13d
00000080: 0d44 143f 8858 4a3f a89b 8a3e b8f3 27bf
00000090: 4572 803e 0a68 05bf 6add 233f 5aa0 25be
000000a0: 39ca 80bb 25f6 61bf 68a5 29bf 30e7 143e
000000b0: 2d71 6a3e c1b4 26bf 27ea dc3e 02ab 133e
000000c0: 4ff1 f4bd c522 313e 8fe6 1fbe 9d35 563d
000000d0: f1e5 2abf bf2c a63e 676c 0fbe aa8d 50be
000000e0: cd09 0bbe 83eb a1bd c510 15bd ae3c 083d
000000f0: a955 83bd 83d9 fd3d 00cf bb3d acb4 47c0
00000100: 3682 e83d 444f 27be 1153 95bd 6c43 3b3e
00000110: 3a22 f2bc 0aed 033d 9493 d3bd c1e1 30be
00000120: 6753 21bb 039b 9b3c 5286 70bd 04b2 c93c
00000130: 198a 16bd 838e 803e 891e a2be 3feb 7f3c
00000140: b64f 9fbe f7b1 63be 406e 7abd 5c70 81bd
00000150: ab1a 8a3b 387c b13c dfa8 813d 1ea4 9c3d
00000160: 787f 03bd 26ed d9bd 032e d5bc d763 8ebc
00000170: ad9e 753d 6578 a43e 057c f3be 7fb1 45bd
00000180: bfe3 45bf d21e 99bf a6ff 593b 6ce8 29bf
00000190: 0bed 4ebe 32c6 7dbe 2570 94be f88c 0abf
000001a0: aa60 193f 248b 423f 3cdd d0be 8ce2 003f
000001b0: 0339 403f aae7 0abf 03b7 543e 80c0 2abe
000001c0: 474a bd3e eac5 00bf 2067 da3d 7e0f 1b3e
000001d0: 56a2 f7bd a07a 76bf 35d7 ef3e eef5 ab3e
000001e0: 8086 00bf 35d6 453d 7a03 0a3d f56f adbf
000001f0: 87b1 8b3e fe80 3fbe e296 ccbd f4de c4be
00000200: fd3f f7bd 814f a23d b2e1 d53d 0c52 b2bd
00000210: 879b 1c3e 2e2a 20be cc11 9c3d 5f71 0b3e
00000220: 1460 2f3e 2664 c4bd ffcb 923d b88b b7bd
00000230: 22a7 f23c fd7b 82be c255 513e c702 ff3c
00000240: ec5d 013d ba6b 48be 4bee acbd 0eb0 803d
00000250: 25c7 97bd 228a c0bc 530b af3c 80c5 7b3d
00000260: b542 833d e020 bfbd efeb 65bd ade9 56bd
00000270: 01b9 8fbd cfea ac3d 2687 7abe 929b 5bbc
00000280: 7b6d 82bf 26d5 bf3e 8637 1dbc 6495 2abf
00000290: e15b 253e 2306 22bf dbb9 9fbd 6b42 aabf
000002a0: 344f bebd 394e 223f 0e15 113f 06ad f73d
000002b0: 0c01 13bf 4ea9 843d 13ce a8be b536 66bd
000002c0: c43c e03e e1e9 c43e 58a2 5d3e 318e 0e3e
000002d0: fccf 39be 8158 793d 1f31 b23e 4f77 29bf
000002e0: b114 a33d 5ece 8b3f 4a51 53bf 645e 11be
000002f0: ac26 06be 5d73 88be fa82 333f 60f6 0f3e
00000300: 5a57 8dbe 6932 4dbe 4d10 233c 9c7d 1c3c
00000310: 58b3 353e 0569 51bc bff0 d2bd 4d1f ddbc
00000320: 0836 853d 5e89 d83d 9bc4 623d 386f fabc
00000330: 13f5 173e a497 4a3e 26be 8abe bcc3 13bd
00000340: 0466 f43d 35c6 1cbd aecf 81bd 2d05 6a3e
00000350: cc8f 2dbe 97c4 b63d b740 ecbc 5c9c b5bc
00000360: 8976 1ebe f2dc 703e bc06 5bbd 9840 213e
00000370: 5411 ef3c 24d3 753e 9744 ffbd 7923 d8bd
00000380: b4bc ffbe 27b9 063f 09ea dbbd 8a6a ad3e
00000390: 6a85 5ebe 9d40 b23e 2652 b2bd 8044 15bf
000003a0: 9171 8fbc 4b2b 193f febe 8e3d 6308 94bd
000003b0: 147f a23f 1c5d 323e b891 dbbe 3147 06bd
000003c0: 2abd ae3f 03b6 1a3e cb9a d13e de45 28bf
000003d0: 4e44 8a3e 66e8 d13e 7860 77bf daf8 0cbf
000003e0: 1520 d1be b90f 0a3f dfb4 253f 7101 0dbe
000003f0: 156b abbd 1b2d 14bf 7747 0e3e 1444 273e

encoder.blocks.0.k_proj.weight f4 [16, 16]
0.11123563 -0.08652142 -0.013821067 -0.78472865 -0.051403884 0.93341786 -0.48106074 0.46467683
-0.07445688 -0.64812225 -0.16697387 0.62382513 0.5232216 -0.57737756 0.41856125 -0.17908552
0.25558457 -0.48406696 -0.09934249 -0.30738217 0.12865418 -0.82755446 0.22058737 0.46385714
-0.34046012 -0.24218653 0.52417225 -0.17313606 -0.19092079 -0.17252506 -0.30963308 0.31606305
0.56377894 0.7047612 0.039255228 -0.8160059 -0.25256053 -0.59332126 0.6443508 -0.08482057
-0.42862505 -0.75134903 -0.6255055 -0.35619774 -0.44271815 -0.6854001 0.116920546 0.28537467
-0.036364738 0.15846877 -3.415959 0.035928488 -0.18791628 0.23728758 -0.43930623 -0.028575104
0.92515934 -0.11330611 0.19886243 -0.47042018 0.009213207 0.020622566 0.0030759824 -0.06710134
-0.054794338 0.037816033 0.09865631 -0.091078185 0.08113836 -0.040096242 0.1854495 0.18905891
-0.16069075 0.24334386 -0.019760907 0.0644793 -0.02360459 0.07394989 -0.15698583 -0.06853473
-0.32652822 -0.18175404 -0.01152327 -0.094695605 0.37081385 0.05689852 -0.0016088601 0.054646563
0.122189604 -0.038783703 -0.019423416 -0.055129375 0.02540723 0.25766793 -0.21828799 -0.05344314
-0.8263968 -1.1356746 -0.44514138 -0.55856234 -0.2572065 -0.20112376 -0.033037808 -0.436885
-0.3908482 0.5675658 -0.2889146 -0.44629297 -0.71205217 -0.7712513 0.77227485 0.02657015
0.21270874 -0.37831593 -0.22402957 0.21814942 -0.47145933 -0.8666421 0.45297435 0.09618861
0.89761627 0.15117429 0.08166008 1.0522939 -0.27192113 0.05061467 0.47182846 0.16036704
0.004288337 -0.008456041 -0.11561429 0.037197012 -0.10675868 0.0063381316 0.0505052 -0.11236266
0.12720121 -0.2087736 -0.014602776 -0.122110985 0.0047944225 -0.038210366 0.096591204 -0.04401514
-0.105046965 -0.03873568 0.11672815 -0.0952468 0.033080053 -0.09843817 0.165268 0.04802909
-0.01716867 0.039947975 -0.012510082 -0.023248354 -0.024441592 0.11006345 0.03325328 -0.009963489
-1.012499 0.35594755 0.093461245 -0.5494473 -0.13635918 -0.57331544 -0.100875825 -0.86536247
0.2431355 0.74348086 0.5870546 -0.006871714 0.72676414 -0.17173098 -0.38096854 0.11214953
0.36232555 0.3575741 0.12185182 0.08273571 -0.5324105 0.02911279 0.3675288 -0.64816517
-0.24694994 1.0425621 -0.8133497 -0.36690393 0.25670367 -0.24526146 0.13165936 0.14817178
-0.24239436 -0.091663346 -0.129861 -0.069059215 0.20325841 0.059517235 0.095968656 -0.13678962
-0.14917886 0.03581746 0.009391327 -0.007038338 0.031199291 0.26521978 -0.28784248 -0.013195871
0.066725686 0.05536976 0.07640913 0.105393685 0.0609895 -0.12215963 0.060654707 -0.025903959
-0.07983836 0.23261596 -0.077787116 0.14679988 -0.06737544 0.009309936 -0.11928364 0.08132199
-0.45841974 0.62224936 -0.17694712 0.23626663 -0.017658604 0.41888162 -0.15151437 -0.8625095
-0.030892747 0.72013533 -0.13925862 0.34246832 -1.142501 0.11514311 -0.5159177 -0.24557166
1.3173603 0.0056387265 0.4226856 -0.6943231 0.15265629 0.33035356 -0.9129125 -0.5848322
0.12914139 0.6786852 0.6427526 -0.014920699 -0.10489211 -0.9109262 -0.43682075 0.120694436
00000000: 82cf e33d 2432 b1bd c271 62bc fae3 48bf
00000010: e18c 52bd 79f4 6e3f 984d f6be 1fea ed3e
00000020: d97c 98bd 57eb 25bf 33fb 2abe 01b3 1f3f
00000030: daf1 053f 04cf 13bf a94d d63e 3262 37be
00000040: fbdb 823e a0d7 f7be 1374 cbbd 3261 9dbe
00000050: ecbd 033e 9cda 53bf a8e1 613e af7e ed3e
00000060: ca50 aebe bfff 77be 2730 063f 944a 31be
00000070: bd80 43be 69aa 30be 3a88 9ebe 04d3 a13e
00000080: d153 103f 3b6b 343f 17ca 203d c3e5 50bf
00000090: 9d4f 81be e7e3 17bf 2df4 243f 68b6 adbd
000000a0: be74 dbbe 6958 40bf 2121 20bf 8d5f b6be
000000b0: f4ab e2be 6276 2fbf 0a74 ef3d a11c 923e
000000c0: 31f3 14bd a345 223e 129f 5ac0 c029 133d
000000d0: 206d 40be 84fb 723e bfec e0be 5616 eabc
000000e0: 3ed7 6c3f 090d e8bd 98a2 4b3e eada f0be
000000f0: fef2 163c a8f0 a83c 6c96 493b 6d6c 89bd
00000100: 0770 60bd fce4 1a3d 520c ca3d 3387 babd
00000110: de2b a63d f53b 24bd 79e6 3d3e a998 413e
00000120: 1e8c 24be 222f 793e a0e1 a1bc b90d 843d
00000130: 6a5e c1bc 0a73 973d e5c0 20be f05b 8cbd
00000140: b52e a7be bb1d 3abe 19cc 3cbc c5ef c1bd
00000150: 50db bd3e 6c0e 693d 63e0 d2ba 13d5 5f3d
00000160: 8b3e fa3d a9db 1ebd db1d 9fbc 57cf 61bd
00000170: d322 d03c 0ded 833e e386 5fbe 32e7 5abd
00000180: be8e 53bf c95d 91bf 92e9 e3be f1fd 0ebf
00000190: 92b0 83be 63f3 4dbe a752 07bd 64af dfbe
000001a0: 411d c8be fe4b 113f 9dec 93be 8380 e4be
000001b0: 0d49 36bf ba70 45bf ceb3 453f a5a9 d93c
000001c0: 52d0 593e a0b2 c1be 0268 65be 9062 5f3e
000001d0: 1e63 f1be 42dc 5dbf 41ec e73e 89fe c43d
000001e0: 2eca 653f 6fcd 1a3e 663d a73d 91b1 863f
000001f0: 3f39 8bbe 5451 4f3d 8093 f13e 4237 243e
00000200: 2e85 8c3b 358b 0abc 2fc7 ecbd e55b 183d
00000210: 4ba4 dabd 1ab0 cf3b 8ade 4e3d 651e e6bd
00000220: 0941 023e bfc8 55be 7b40 6fbc 5315 fabd
00000230: 881a 9d3b 7982 1cbd 9cd1 c53d 3849 34bd
00000240: dd22 d7bd 4ea9 1ebd 2b0f ef3d c110 c3bd
00000250: f37e 073d f499 c9bd 043c 293e 27ba 443d
00000260: 50a5 8cbc 7da0 233d 16f7 4cbc 5573 bebc
00000270: bc39 c8bc f268 e13d 9734 083d e73d 23bc
00000280: 9199 81bf c23e b63e 9c68 bf3d 94a8 0cbf
00000290: bea1 0bbe cdc4 12bf fc97 cebd 6588 5dbf
000002a0: 83f8 783e c354 3e3f 3649 163f 1d2c e1bb
000002b0: 370d 3a3f 3fda 2fbe 4f0e c3be a7ae e53d
000002c0: bc82 b93e f413 b73e 728d f93d 5771 a93d
000002d0: 0e4c 08bf f27d ee3c bc2c bc3e 27ee 25bf
000002e0: 72e0 7cbe ad72 853f b037 50bf d5da bbbe
000002f0: aa6e 833e d225 7bbe b6d1 063e 58ba 173e
00000300: 3a36 78be feb9 bbbd 48fa 04be eb6e 8dbd
00000310: f922 503e 58c8 733d 378b c43d 9412 0cbe
00000320: 58c2 18be 54b5 123d 15de 193c dca1 e6bb
00000330: a895 ff3c e3ca 873e 1760 93be 7f33 58bc
00000340: 7aa7 883d 67cb 623d 647c 9c3d a5d8 d73d
00000350: 20d0 793d d42e fabd 1271 783d 8a34 d4bc
00000360: 4b82 a3bd e132 6e3e da4e 9fbd b552 163e
00000370: 22fc 89bd b488 183c fb4a f4bd 258c a63d
00000380: feb5 eabe bc4b 1f3f a031 35be e1ef 713e
00000390: c7a8 90bc a777 d63e 9526 1bbe 6ccd 5cbf
000003a0: c912 fdbc ca5a 383f d099 0ebe 0258 af3e
000003b0: 793d 92bf 27d0 eb3d 2f13 04bf 2377 7bbe
000003c0: 439f a83f 11c5 b83b 3f6a d83e 29bf 31bf
000003d0: ee51 1c3e 1a24 a93e a2b4 69bf 90b7 15bf
000003e0: a43d 043e 50be 2d3f 6f8b 243f f375 74bc
000003f0: add1 d6bd 7632 69bf f8a6 dfbe a52e f73d

encoder.blocks.0.v_proj.weight f4 [16, 16]
0.18660606 -0.10933745 -0.13855809 -0.034144394 0.15653168 -0.1978993 0.22564457 0.11820201
0.07053088 -0.054915797 0.12617627 -0.1761355 0.13493411 0.24364947 0.24932991 0.23538157
0.21895912 -0.11666244 -0.15171666 -0.10022589 0.20276967 0.13206913 0.18566397 -0.15236996
0.18352509 -0.007925934 0.20822068 -0.17056823 -0.024518887 -0.10397736 0.0104641095 0.16064481
0.12172179 -0.09706211 0.058094822 0.24025512 0.14919066 0.116461255 -0.045469876 0.21739662
0.13193804 0.06819418 0.10738554 0.031778555 0.055983637 0.24150203 0.097231254 -0.002819421
-0.015363122 0.1839734 0.15769757 -0.08127218 -0.27543008 -0.2670843 -0.033572484 0.01696195
0.14469273 0.24062954 -0.044767365 -0.1708794 -0.11495146 -0.04207839 0.17840475 0.068724595
0.10009729 -0.11097543 -0.05473764 -0.06314962 -0.0667747 0.1588497 0.08951144 0.11003176
0.28414133 0.10784138 0.29165637 0.24921001 -0.07261971 0.07257036 -0.014513367 -0.057087634
-0.0953821 -0.103734635 -0.11080139 0.06607556 0.0725162 0.039912317 -0.044192657 0.2139249
0.14799553 0.16950274 0.205706 0.21429789 0.2746568 -0.23092513 0.08195406 0.14319202
-0.08549742 0.04484296 -0.24725059 -0.0019003283 0.10249397 -0.25150552 -0.11546891 -0.052053522
-0.17174357 0.1931459 -0.0031689391 -0.081765994 0.062083103 0.15732723 0.26203185 0.15468606
0.024632018 0.018255712 -0.018542044 0.2303114 -0.1310295 -0.044589788 -0.097269535 0.16103996
0.08444748 -0.07115515 0.25157884 0.0499905 0.094029956 0.07662282 -0.0406032 -0.14130513
0.18088238 -0.04660428 0.040431995 -0.12575139 -0.22423922 -0.0750659 0.10174434 0.16236798
0.24984077 0.21631943 0.020141134 0.074929036 0.04583494 -0.05869572 0.21382181 0.116885416
0.061908413 0.025958512 -0.05500022 -0.083740294 0.1055295 -0.032394838 -0.024023175 0.00076189364
0.1782038 -0.022162026 -0.047861505 0.22928661 -0.00456216 0.15327524 0.20060481 0.13668177
0.17726684 0.12364671 0.116219945 0.10499866 -0.09716759 0.11339819 0.06409021 -0.056139573
0.003865586 0.25515023 0.26274067 -0.057107568 -0.1060453 0.11109539 -0.124033555 -0.1883553
0.11606979 0.11490767 0.19306692 -0.10645973 0.07603157 0.12456262 -0.13539273 0.07719367
0.17745158 0.12882917 -0.12963928 -0.104159966 0.05329021 0.1669501 0.085197285 0.14257011
0.0057210084 -0.0340676 0.16723055 0.12547202 -0.17196554 0.13881636 -0.106285706 -0.003973246
-0.072146416 -0.19049424 0.014580188 -0.108298704 0.15624645 0.24298306 0.055359222 0.14159025
-0.105475456 0.13992219 0.22619286 -0.19311637 0.15458925 0.17851031 -0.13022357 0.13020238
0.06624872 0.19534872 0.0861771 0.07756194 0.17781863 -0.19955772 0.010423179 0.11934936
-0.18218273 0.06278426 -0.17156096 0.23687677 0.12715617 -0.09504227 0.25290376 -0.21854897
0.24691659 -0.08468609 0.043678343 0.11328486 0.101206526 0.13799994 -0.18760046 -0.17399196
-0.1765608 0.10424741 -0.22142541 -0.19625264 0.21810476 0.11915888 -0.056197684 -0.15191315
0.33038843 -0.12256133 0.2355358 0.067003265 -0.15936776 -0.12352257 -0.09841518 -0.14545909
00000000: a915 3f3e 50ec dfbd 2ce2 0dbe feda 0bbd
00000010: d749 203e 1da6 4abe 5f0f 673e e513 f23d
00000020: 7e72 903d 63ef 60bd 5a34 013e dd5c 34be
00000030: 2b2c 0a3e 3f7f 793e 5750 7f3e de07 713e
00000040: d236 603e b8ec eebd 9d5b 1bbe 3b43 cdbd
00000050: daa2 4f3e 213d 073e b21e 3e3e df06 1cbe
00000060: 00ee 3b3e c7db 01bc cd37 553e 70a9 2ebe
00000070: d5db c8bc 15f2 d4bd a871 2b3c 1380 243e
00000080: 4649 f93d 80c8 c6bd d6f4 6d3d 7005 763e
00000090: 70c5 183e 3d83 ee3d 9f3e 3abd 389d 5e3e
000000a0: c41a 073e 64a9 8b3d f3ec db3d 3b2a 023d
000000b0: 194f 653d 4f4c 773e 2e21 c73d 09c6 38bb
000000c0: 9bb5 7bbc 8663 3c3e 797b 213e 0772 a6bd
000000d0: 2c05 8dbe 46bf 88be 4d83 09bd caf3 8a3c
000000e0: 552a 143e 9767 763e fc5d 37bd 02fb 2ebe
000000f0: ac6b ebbd 645a 2cbd bcaf 363e 7bbf 8c3d
00000100: cfff cc3d 1647 e3bd 9334 60bd 9754 81bd
00000110: 2dc1 88bd 7fa9 223e c651 b73d 5558 e13d
00000120: f97a 913e f1db dc3d fc53 953e e930 7f3e
00000130: a4b9 94bd c59f 943d 79c9 6dbc b9d4 69bd
00000140: b157 c3bd d372 d4bd d7eb e2bd a052 873d
00000150: 6083 943d 197b 233d 5c03 35bd 210f 5b3e
00000160: 248c 173e 2092 2d3e 98a4 523e e870 5b3e
00000170: d19f 8c3e a377 6cbe 88d7 a73d eea0 123e
00000180: 4519 afbd 40ad 373d 422f 7dbe 7014 f9ba
00000190: 5ce8 d13d 55c5 80be f77a ecbd 1336 55bd
000001a0: 8cdd 2fbe 0ac8 453e faad 4fbb ee74 a7bd
000001b0: da4a 7e3d 641a 213e 0a29 863e 0666 1e3e
000001c0: 16c9 c93c 018d 953c 7ce5 97bc c0d6 6b3e
000001d0: 992c 06be c8a3 36bd 4035 c7bd a9e7 243e
000001e0: cdf2 ac3d cbb9 91bd f1ce 803e d7c2 4c3d
000001f0: c792 c03d 6dec 9c3d 8b4f 26bd 4bb2 10be
00000200: 3b39 393e 21e4 3ebd 059c 253d f9c4 00be
00000210: f79e 65be 27bc 99bd 565f d03d cb43 263e
00000220: 42d6 7f3e d782 5d3e 05ff a43c 6574 993d
00000230: 6bbd 3b3d ec6a 70bd 1bf4 5a3e 9f61 ef3d
00000240: ad93 7d3d f2a6 d43c e947 61bd 0880 abbd
00000250: da1f d83d 73b0 04bd 40cc c4bc d1b9 473a
00000260: 0f7b 363e 238d b5bc 6d0a 44bd 1cca 6a3e
00000270: 2c7e 95bb 2ff4 1c3e 596b 4d3e 4ef6 0b3e
00000280: 7085 353e 7c3a fd3d b904 ee3d 8a09 d73d
00000290: cdff c6bd 4f3d e83d ba41 833d 9cf2 65bd
000002a0: c555 7d3b 0da3 823e f285 863e a0e9 69bd
000002b0: 472e d9bd fb85 e33d 4e05 febd 36e0 40be
000002c0: 00b6 ed3d b654 eb3d 56b3 453e 8f07 dabd
000002d0: 71b6 9b3d b01a ff3d 64a4 0abe b717 9e3d
000002e0: deb5 353e cbeb 033e 29c0 04be d251 d5bd
000002f0: d646 5a3d f8f4 2a3e ea7b ae3d e6fd 113e
00000300: 4c77 bb3b 788a 0bbd 7c3e 2b3e bd7b 003e
00000310: bc17 30be e025 0e3e 52ac d9bd 0132 82bb
00000320: 80c1 93bd ec10 43be bee1 6e3c b6cb ddbd
00000330: 12ff 1f3e 8dd0 783e 5ac0 623d 09fd 103e
00000340: 8403 d8bd c347 0f3e 1a9f 673e 4cc0 45be
00000350: a54c 1e3e 68cb 363e 5459 05be c653 053e
00000360: 69ad 873d 7f09 483e 9f7d b03d cbd8 9e3d
00000370: 1616 363e dc58 4cbe fbc5 2a3c 706d f43d
00000380: 1c8e 3abe 0995 803d adad 2fbe d38f 723e
00000390: 3a35 023e 86a5 c2bd 9a7c 813e 4dcb 5fbe
000003a0: b4d7 7c3e e76f adbd 10e8 323d e501 e83d
000003b0: 5e45 cf3d db4f 0d3e 561a 40be f32a 32be
000003c0: 5bcc 34be ab7f d53d 58bd 62be 74f6 48be
000003d0: db56 5f3e 9209 f43d 8b2f 66bd 1f8f 1bbe
000003e0: ac28 a93e 6f01 fbbd 4c30 713e 0239 893d
000003f0: 4d31 23be 67f9 fcbd e68d c9bd 3af3 14be

encoder.blocks.0.pos_embed.pe f4 [1, 625, 16]
0.0 1.0 0.0 1.0 0.0 1.0 0.0 1.0
0.0 1.0 0.0 1.0 0.0 1.0 0.0 1.0
0.84147096 0.54030234 0.23492108 0.9720144 0.0562045 0.9984193 0.013334819 0.99991107
0.0031622727 0.999995 0.00074989436 0.9999997 0.00017782794 1.0 4.2169657e-05 1.0
0.9092974 -0.41614684 0.45669338 0.8896242 0.11223132 0.9936821 0.026667267 0.99964434
0.006324514 0.99998003 0.0014997883 0.99999887 0.00035565588 0.99999994 8.433931e-05 1.0
0.14112 -0.9899925 0.65290403 0.7574406 0.16790332 0.9858035 0.039994974 0.99919987
0.009486692 0.999955 0.0022496814 0.9999975 0.0005334838 0.9999999 0.00012650897 1.0
-0.7568025 -0.6536436 0.8125709 0.5828623 0.2230445 0.9748083 0.053315565 0.9985777
0.012648775 0.99992 0.0029995732 0.9999955 0.0007113117 0.99999976 0.00016867863 1.0
-0.9589243 0.2836622 0.92675734 0.37566063 0.27748054 0.96073127 0.06662668 0.99777794
0.015810732 0.999875 0.0037494632 0.99999297 0.0008891396 0.9999996 0.00021084829 1.0
-0.2794155 0.96017027 0.9890721 0.14743266 0.33103934 0.9436169 0.07992595 0.9968008
0.018972531 0.99982 0.004499351 0.99998987 0.0010669674 0.99999946 0.00025301793 1.0
0.6569866 0.75390226 0.9960274 -0.08904727 0.3835516 0.92351943 0.093210995 0.99564636
0.022134138 0.999755 0.0052492367 0.99998623 0.0012447953 0.9999992 0.0002951876 0.99999994
0.98935825 -0.14550003 0.947234 -0.32054302 0.43485126 0.9005023 0.10647947 0.9943149
0.025295526 0.99968004 0.0059991195 0.999982 0.001422623 0.999999 0.00033735725 0.99999994
0.4121185 -0.91113025 0.8454228 -0.5340976 0.48477614 0.87463826 0.11972901 0.9928066
0.02845666 0.99959505 0.0067489985 0.99997723 0.0016004507 0.99999875 0.0003795269 0.99999994
-0.5440211 -0.8390715 0.69629246 -0.7177582 0.53316844 0.8460091 0.13295726 0.99112177
0.03161751 0.99950004 0.007498874 0.99997187 0.0017782785 0.99999845 0.00042169658 0.99999994
-0.9999902 0.004425698 0.5081896 -0.8612452 0.57987523 0.8147053 0.14616187 0.9892607
0.034778044 0.9993951 0.008248745 0.99996597 0.0019561062 0.9999981 0.0004638662 0.9999999
-0.53657293 0.84385395 0.29164305 -0.95652723 0.6247487 0.7808259 0.15934049 0.9872237
0.03793823 0.9992801 0.008998612 0.9999595 0.0021339336 0.99999774 0.00050603587 0.9999999
0.42016703 0.9074468 0.05877292 -0.99827135 0.66764706 0.7444779 0.17249078 0.98501116
0.041098036 0.9991551 0.009748473 0.9999525 0.002311761 0.9999973 0.0005482055 0.9999999
0.9906074 0.13673721 -0.17738704 -0.9841412 0.7084347 0.70577633 0.18561038 0.9826234
0.044257432 0.99902016 0.010498329 0.99994487 0.0024895887 0.9999969 0.00059037516 0.9999998
0.65028787 -0.7596879 -0.40361822 -0.9149275 0.7469827 0.6648435 0.19869699 0.980061
0.047416385 0.9988752 0.011248179 0.99993676 0.002667416 0.9999964 0.0006325448 0.9999998
00000000: 0000 0000 0000 803f 0000 0000 0000 803f
00000010: 0000 0000 0000 803f 0000 0000 0000 803f
00000020: 0000 0000 0000 803f 0000 0000 0000 803f
00000030: 0000 0000 0000 803f 0000 0000 0000 803f
00000040: a46a 573f 4151 0a3f 278f 703e f0d5 783f
00000050: b136 663d 6898 7f3f 497a 5a3c 2cfa 7f3f
00000060: 223e 4f3b acff 7f3f 8f94 443a fbff 7f3f
00000070: 5377 3a39 0000 803f 53df 3038 0000 803f
00000080: b7c7 683f 3311 d5be b7d3 e93e 69be 633f
00000090: 89d9 e53d f361 7e3f 5075 da3c b1e8 7f3f
000000a0: de3d cf3b b1fe 7f3f 8b94 c43a edff 7f3f
000000b0: 5377 ba39 ffff 7f3f 53df b038 0000 803f
000000c0: c381 103e 2670 7dbf b824 273f a1e7 413f
000000d0: d9ee 2b3e 9e5d 7c3f c5d1 233d 90cb 7f3f
000000e0: 126e 1b3c 0dfd 7f3f 646f 133b d6ff 7f3f
000000f0: 7ed9 0b3a feff 7f3f 7ea7 0439 0000 803f
00000100: cfbd 41bf 3055 27bf a604 503f 7736 153f
00000110: c765 643e 098d 793f 6c61 5a3d caa2 7f3f
00000120: cf3c 4f3c c2fa 7f3f 7d94 443b b5ff 7f3f
00000130: 5277 3a3a fcff 7f3f 53df 3039 0000 803f
00000140: 107c 75bf 2c3c 913e f83f 6d3f 9756 c03e
00000150: ee11 8e3e 7cf2 753f 9273 883d 606e 7f3f
00000160: 8285 813c cff7 7f3f 8eb9 753b 8aff 7f3f
00000170: 2615 693a f9ff 7f3f 2817 5d39 0000 803f
00000180: 8c0f 8fbe b8cd 753f d433 7d3f 96f8 163e
00000190: fd7d a93e e190 713f 37b0 a33d 562e 7f3f
000001a0: 486c 9b3c 34f4 7f3f 4b6f 933b 56ff 7f3f
000001b0: 7cd9 8b3a f7ff 7f3f 7ea7 8439 0000 803f
000001c0: 4630 283f bdff 403f a7fb 7e3f 6a5e b6bd
000001d0: e060 c43e c56b 6c3f 68e5 be3d aee2 7e3f
000001e0: a752 b53c f2ef 7f3f ca01 ac3b 19ff 7f3f
000001f0: 6628 a33a f3ff 7f3f 69c3 9a39 ffff 7f3f
00000200: 9546 7d3f f6fd 14be ed7d 723f 371e a4be
00000210: d3a4 de3e 5287 663f e911 da3d 6c8b 7e3f
00000220: 9038 cf3c 08eb 7f3f 4394 c43b d2fe 7f3f
00000230: 4f77 ba3a efff 7f3f 53df b039 ffff 7f3f
00000240: 3201 d33e d53f 69bf a16d 583f 9fba 08bf
00000250: 9434 f83e 4be8 5f3f 7c34 f53d 9328 7e3f
00000260: f11d e93c 76e5 7f3f b426 dd3b 82fe 7f3f
00000270: 37c6 d13a ebff 7f3f 3dfb c639 ffff 7f3f
00000280: f844 0bbf 64cd 56bf 3940 323f 00bf 37bf
00000290: ba7d 083f 0d94 583f f325 083e 28ba 7d3f
000002a0: 5d81 013d 3cdf 7f3f 1db9 f53b 28fe 7f3f
000002b0: 2015 e93a e6ff 7f3f 2817 dd39 ffff 7f3f
000002c0: 5cff 7fbf 7205 913b b718 023f 917a 5cbf
000002d0: b472 143f 8790 503f 75ab 153e 3040 7d3f
000002e0: 6c73 0e3d 5bd8 7f3f bf25 073c c5fd 7f3f
000002f0: 0432 003b e0ff 7f3f 1133 f339 feff 7f3f
00000300: d85c 09bf d006 583f 3d52 953e f8de 74bf
00000310: 88ef 1f3f 35e4 473f 272a 233e b1ba 7c3f
00000320: 1e65 1b3d d2d0 7f3f ea6e 133c 59fd 7f3f
00000330: 77d9 0b3b daff 7f3f 7ea7 043a feff 7f3f
00000340: 2220 d73e 6f4e 683f e0bb 703d b68e 7fbf
00000350: ebea 2a3f 1b96 3e3f 6ca1 303e b129 7c3f
00000360: 6a56 283d a1c8 7f3f 0fb8 1f3c e3fc 7f3f
00000370: ea80 173b d3ff 7f3f 73b5 0f3a feff 7f3f
00000380: 7298 7d3f d704 0c3e f3a4 35be adf0 7bbf
00000390: fa5b 353f c2ad 343f a610 3e3e 358d 7b3f
000003a0: 4847 353d c9bf 7f3f 2f01 2c3c 63fc 7f3f
000003b0: 5e28 233b ccff 7f3f 68c3 1a3a fdff 7f3f
000003c0: 4479 263f e87a 42bf 0ca7 cebe b038 6abf
000003d0: 423a 3f3f 2f33 2a3f 3977 4b3e 47e5 7a3f
000003e0: af37 423d 49b6 7f3f 484a 383c dbfb 7f3f
000003f0: d0cf 2e3b c4ff 7f3f 5dd1 253a fdff 7f3f

encoder.blocks.1.q_proj.weight f4 [16, 16]
0.030283703 -0.015111413 0.019621415 0.014368317 0.231878 -0.010271805 -0.021349601 0.1328326
-0.014710099 0.0444214 -0.0021055392 0.024913935 -0.020676568 -0.07897882 0.07365809 -0.014961312
0.0011313214 -0.010051877 -0.031743437 0.026377713 0.09146103 0.0076270904 0.067285426 0.07704483
-0.09102946 -0.0039015776 -0.0016336857 -0.012020679 0.038471565 0.10605663 0.043688897 -0.12189769
-0.015391221 0.017947642 0.00298542 -0.012717126 -0.25738126 0.0060672313 0.06946902 -0.21034986
0.017865371 -0.056124404 -0.013093713 -0.033165157 0.037304364 0.03301584 0.0073352363 0.06881097
0.0014589296 0.0017724176 -0.016915921 -0.011335321 0.11328899 0.012247951 -0.039745092 0.17392863
-0.052472528 0.025316427 0.0036869294 0.045510296 0.010210718 -0.036405426 -0.07804547 -0.05421761
0.015530847 -0.021961657 0.024551101 0.036643352 -0.14166296 0.027826915 -0.032778803 -0.106175385
0.06850759 0.021505406 -0.021272734 -0.016300105 -0.0047725136 0.12964013 0.04144251 0.045972113
0.00910035 -0.0010377829 -0.014515314 0.025720302 0.19349635 -0.0016032985 0.0070941667 -0.051364236
-0.038838737 -0.005701671 0.00074695423 0.015200952 -0.03007061 0.11021737 -0.039594863 -0.0858838
-0.030676717 0.011119912 -0.053707376 -0.0036307254 -0.067441 -0.004278833 -0.03643854 0.054797612
-0.025841637 -0.0144726625 0.021348393 0.009486796 -0.0144619765 0.05924301 -0.10975909 -0.07518099
-0.0037070222 -0.0042153774 -0.02366327 0.030921996 0.14635812 -0.0034416511 0.02329211 -0.038043804
-0.06531099 -0.0033248684 -0.00014320665 0.00911316 0.020298053 0.11295045 0.0031174575 -0.11482115
0.0007910106 -0.0038825648 0.012593318 -0.02749173 -0.12059881 0.007802355 0.04011892 -0.22989169
0.06850655 -0.0059496886 -0.0066667804 0.053212665 -0.027375164 -0.07756155 0.0022083586 0.17306985
0.026756817 0.0014155054 0.023793316 0.009207431 0.18473253 -0.002541272 -0.0031330786 0.19319901
-0.054164335 0.019945748 -0.008120347 -0.007520889 0.0144882575 -0.06142505 0.06923604 -0.048619315
-0.014264138 0.005001433 -0.025414601 -0.028262677 -0.19926085 -0.007492088 0.06065479 -0.2129501
0.08713699 -0.04669696 0.015580243 -0.0029670207 -0.09668403 -0.074323 -0.035407122 0.13634883
-0.0027997345 -0.0070205415 0.024162581 -0.015103495 -0.14521883 0.004818578 0.11082535 -0.23366214
0.0626801 -0.04642274 -0.0133931665 -0.06992231 -0.0029205868 0.009951185 0.05328342 0.102577046
0.016183738 -0.020983964 0.0033317725 0.022508333 0.18524879 -0.010192807 0.008926086 0.04996014
-0.0487781 0.053579375 -0.010832216 0.06927916 0.04237084 0.026853772 0.111711964 -0.027855022
0.0008699453 0.027301284 -0.00070765737 -0.036748316 -0.2265706 0.072484285 0.15844484 -0.1765603
-0.010588181 -0.1267477 -0.016504072 -0.13282105 -0.018311558 -0.109450094 -0.14594011 0.04628683
0.02579112 -0.033983696 0.0071171178 0.027368553 0.15184624 -0.00083232543 -0.029505178 0.031759564
0.028466927 0.06558753 -0.0016469997 0.06939251 -0.035243876 0.043149058 0.09077136 0.026352748
-0.030743731 0.0337812 -0.044150833 -0.02376581 -0.10033178 -0.005345163 -0.026930848 0.025944056
-0.011942859 -0.049710017 0.026617352 -0.01765212 -0.027185574 -0.0014087292 -0.1435294 -0.05366594
00000000: 8715 f83c dc95 77bc 17bd a03c 1769 6b3c
00000010: 6d71 6d3e 134b 28bc 5ce5 aebc 4505 083e
00000020: a102 71bc 37f3 353d 16fd 09bb 4f18 cc3c
00000030: e861 a9bc a6bf a1bd 0dda 963d 4a20 75bc
00000040: d948 943a a1b0 24bc 6805 02bd 1316 d83c
00000050: ec4f bb3d acec f93b f1cc 893d aec9 9d3d
00000060: a76d babd 9cb1 7fbb 6521 d6ba 62f2 44bc
00000070: 5c94 1d3d 3834 d93d 21f3 323d 7fa5 f9bd
00000080: 762b 7cbc ef06 933c 09a7 433b 7e5b 50bc
00000090: 7ac7 83be a0cf c63b c645 8e3d f465 57be
000000a0: 665a 923c b4e2 65bd 0387 56bc 30d8 07bd
000000b0: 76cc 183d 9e3b 073d 6c5c f03b c4ec 8c3d
000000c0: 8e39 bf3a 7750 e83a 4293 8abc c8b7 39bc
000000d0: 0f04 e83d a1ab 483c c0cb 22bd 591a 323e
000000e0: 6fed 56bd 6564 cf3c 69a0 713b 0169 3a3d
000000f0: db4a 273c db1d 15bd 4ed6 9fbd 4913 5ebd
00000100: 1875 7e3c efe8 b3bc 641f c93c 5717 163d
00000110: 1810 11be 45f5 e33c 1143 06bd 7b72 d9bd
00000120: b54d 8c3d 1b2c b03c 2844 aebc cc87 85bc
00000130: bf62 9cbb 62c0 043e 9fbf 293d 414d 3c3d
00000140: a219 153c 3706 88ba a4d1 6dbc 62b3 d23c
00000150: e823 463e c525 d2ba 2f76 e83b 4e63 52bd
00000160: 5e15 1fbd 15d5 babb 40cf 433a 6a0d 793c
00000170: a456 f6bc a5b9 e13d 392e 22bd d9e3 afbd
00000180: bd4d fbbc 4b30 363c 44fc 5bbd 77f1 6dbb
00000190: 821e 8abd 7435 8cbb 9440 15bd 7673 603d
000001a0: d7b1 d3bc bf1e 6dbc d3e2 ae3c 826e 1b3c
000001b0: edf1 6cbc cca8 723d 60c9 e0bd 7ef8 99bd
000001c0: 83f1 72bb 2621 8abb 79d9 c1bc 2050 fd3c
000001d0: e7de 153e 538d 61bb 18cf be3c d2d3 1bbd
000001e0: c5c1 85bd 09e6 59bb be29 16b9 5d4f 153c
000001f0: 1a48 a63c 9152 e73d 424e 4c3b 5a27 ebbd
00000200: d35b 4f3a a172 7ebb 3454 4e3c 5636 e1bc
00000210: 82fc f6bd e6aa ff3b bd53 243d ba68 6bbe
00000220: 294d 8c3d 9bf5 c2bb 0275 dabb 86f5 593d
00000230: e141 e0bc 97d8 9ebd 1cba 103b 3939 313e
00000240: 1d31 db3c 7b88 b93a 33ea c23c c4da 163c
00000250: 862a 3d3e 788b 26bb 5654 4dbb f6d5 453e
00000260: 6cdb 5dbd 4465 a33c 340b 05bc ca71 f6bb
00000270: 2860 6d3c d598 7bbd a0cb 8d3d 0c25 47bd
00000280: 22b4 69bc 10e3 a33b 4832 d0bc 2187 e7bc
00000290: 090b 4cbe 3080 f5bb 2871 783d 970f 5abe
000002a0: e174 b23d 5045 3fbd 4744 7f3c 5972 42bb
000002b0: 4702 c6bd a836 98bd 0f07 11bd 079f 0b3e
000002c0: c07b 37bb 920c e6bb 9bf0 c53c a674 77bc
000002d0: 3fb4 14be 29e5 9d3b 67f8 e23d 2145 6fbe
000002e0: 6d5e 803d c525 3ebd 036f 5bbc 6e33 8fbd
000002f0: 5167 3fbb 4c0a 233c b73f 5a3d ea13 d23d
00000300: c293 843c 90e6 abbc de59 5a3b 6563 b83c
00000310: dcb1 3d3e bbff 26bc b83e 123c 01a3 4c3d
00000320: 8ccb 47bd 0c76 5b3d 9b79 31bc 3be2 8d3d
00000330: 0c8d 2d3d 71fc db3c 3ec9 e43d 3730 e4bc
00000340: 0a0d 643a f1a6 df3c 1582 39ba 6785 16bd
00000350: 2002 68be a472 943d 5d3f 223e 39cc 34be
00000360: 0d7a 2dbc 26ca 01be 8c33 87bc 3e02 08be
00000370: 1f02 96bc 5f27 e0bd 5371 15be 4297 3d3d
00000380: e647 d33c 7d32 0bbd b636 e93b 0434 e03c
00000390: 957d 1b3e 6a30 5aba d8b4 f1bc 5116 023d
000003a0: 7933 e93c c152 863d 24e0 d7ba a91d 8e3d
000003b0: e25b 10bd 11bd 303d 56e6 b93d b8e1 d73c
000003c0: 47da fbbc 285e 0a3d 81d7 34bd 84b0 c2bc
000003d0: c07a cdbd 7a26 afbb 159e dcbc a188 d43c
000003e0: fbab 43bc bb9c 4bbd a20c da3c 2e9b 90bc
000003f0: 48b4 debc 1ca5 b8ba 5ff9 12be d1d0 5bbd

encoder.blocks.1.k_proj.weight f4 [16, 16]
-0.05763697 0.11813714 -0.06602484 0.0059033018 0.07535638 -0.06282614 -0.13529912 0.111725554
-0.084216066 0.20785637 0.0021530986 -0.13409181 -0.0643895 0.12355727 0.07191938 -0.15353598
0.06966386 -0.089621 -0.20153946 -0.14715482 0.1468485 -0.13358158 0.07432727 0.037546966
-0.063226536 0.02296605 -0.0044686287 0.14488593 0.1312285 -0.0478815 0.03957462 -0.07352362
0.11649171 -0.0014245601 -0.0027577046 0.06106901 0.15667325 0.021078005 -0.031254902 -0.020207575
-0.12992814 -0.22248963 0.048187885 0.007251245 -0.04480552 0.08775704 0.04555108 -0.0145380385
-0.012602587 0.020027192 -0.12261397 -1.8901454e-05 0.05538995 0.11879569 -0.04562038 0.007092912
-0.12178084 0.009919526 0.101884454 0.02986768 -0.07827149 0.03058266 0.058795936 -0.0876792
-0.058037587 0.076663055 -0.07238221 0.116617076 -0.014937166 0.27809694 0.03344266 -0.16846609
-0.16256446 -0.018638622 0.23596884 -0.050657142 -0.086107254 -0.06178651 -0.08334839 -0.10734864
-0.03477711 0.15113883 -0.08700446 0.053497765 0.052618627 0.16349858 -4.490283e-05 0.037123904
-0.0043784273 -0.19356462 0.10135517 -0.019650217 -0.16653876 0.108435765 0.038299337 -0.11569381
0.011514141 0.050316896 0.06047816 0.12891978 0.13599692 -0.09280902 -0.041681983 0.0581477
-0.15773164 0.10369253 -0.051519852 -0.17070319 -0.031108648 0.065006875 -0.08386474 -0.052804608
-0.047569726 0.008274154 0.06704177 0.13678335 0.15136153 0.044051927 0.00038551373 -0.01653897
-0.20090286 -0.046395265 0.019744955 -0.07534205 -0.14802574 0.04027981 -0.051558442 -0.043800082
-0.1030964 0.036356788 -0.057205517 0.021111382 0.09940222 0.106137425 -0.001142769 0.13760668
0.038346343 -0.20305294 -0.024362635 0.11019861 -0.2590777 -0.013165156 -0.038004313 -0.10710821
-0.08536263 0.036404766 -0.01204529 0.033027563 0.04557749 -0.06957368 0.1221101 0.11597914
-0.1099177 0.1570426 -0.035093468 -0.1737976 -0.02650968 0.077828035 -0.16055636 -0.09887529
-0.10506461 0.16737106 -0.14925542 -0.012392666 0.12007019 0.007435013 0.067693405 0.07898123
-0.10479258 0.00018362375 0.056513645 -0.07614946 -0.13316151 0.1898968 0.094094664 -0.22098096
0.05908284 -0.12944396 0.054425973 -0.10234731 -0.19723813 -0.028074719 0.0024048225 0.080822825
0.13951844 0.11970337 0.029270593 -0.14095066 0.04849279 0.00997529 -0.14834264 0.09852416
0.016477592 0.063982576 0.12647049 0.11006096 -0.17045431 0.1318227 -0.1323559 -0.013587581
0.07006325 0.043956917 0.056761354 -0.08861809 -0.10759387 -0.018689658 -0.02751322 0.10716111
0.18625787 -0.09854346 -0.034688465 0.013799836 0.22133672 -0.13641569 -0.19656149 -0.01622749
-0.15494268 0.11393275 0.026320936 -0.10516878 0.036873817 0.04823459 0.09785815 0.05281524
0.012063554 0.10838772 -0.011334253 0.027729722 -0.10810645 0.1390315 0.11170593 -0.1251476
0.0071822596 -0.16997392 0.010284678 0.052569553 0.12895252 0.023851944 0.012281256 -0.029845623
-0.07004497 0.15838735 -0.11788395 0.049789645 0.11355926 0.036889087 0.03543171 0.17462902
-0.12843165 -0.02431917 -0.06470389 0.06248777 -0.12907878 0.056280497 -0.004074242 -0.17820494
00000000: be14 6cbd e3f1 f13d 0838 87bd 7c70 c13b
00000010: 7254 9a3d feaa 80bd da8b 0abe 5ed0 e43d
00000020: 7979 acbd 4dd8 543e 001b 0d3b 5d4f 09be
00000030: a4de 83bd 980b fd3d 784a 933d 8938 1dbe
00000040: edab 8e3d 378b b7bd 5c60 4ebe c1af 16be
00000050: 745f 163e 9cc9 08be e538 983d d9ca 193d
00000060: ea7c 81bd 4c23 bc3c 936d 92bb fa5c 143e
00000070: c460 063e 641f 44bd ff18 223d 8d93 96bd
00000080: 3593 ee3d 4eb8 baba 9bba 34bb 8023 7a3d
00000090: f46e 203e c8ab ac3c 2405 00bd 5b8a a5bc
000000a0: e20b 05be 52d4 63be a960 453d da9b ed3b
000000b0: fe85 37bd f7b9 b33d c593 3a3d f430 6ebc
000000c0: 157b 4ebc 1110 a43c 081d fbbd 908e 9eb7
000000d0: 92e0 623d 284b f33d 70dc 3abd a96b e83b
000000e0: 3c68 f9bd 8285 223c cca8 d03d 11ad f43c
000000f0: ce4c a0bd 7d88 fa3c 02d4 703d 2791 b3bd
00000100: d2b8 6dbd 8501 9d3d 203d 94bd efd4 ee3d
00000110: 04bb 74bc b962 8e3e 2cfb 083d 6082 2cbe
00000120: 4c77 26be 06b0 98bc d1a1 713e dd7d 4fbd
00000130: 0059 b0bd da13 7dbd 90b2 aabd 9bd9 dbbd
00000140: 7172 0ebd 23c4 1a3e 652f b2bd 7920 5b3d
00000150: a186 573d 2c6c 273e 0c56 3cb8 3c0f 183d
00000160: e978 8fbb ce35 46be 4d93 cf3d 7ef9 a0bc
00000170: 2389 2abe 9213 de3d c4df 1c3d e0f0 ecbd
00000180: cfa5 3c3c 1719 4e3d f2b7 773d 8c03 043e
00000190: c742 0b3e a812 bebd baba 2abd 482c 6e3d
000001a0: 6784 21be c05c d43d 7b06 53bd d1cc 2ebe
000001b0: 90d7 febc 5322 853d 47c1 abbd a549 58bd
000001c0: 79d8 42bd 5190 073c 324d 893d ef10 0c3e
000001d0: 84fe 1a3e cb6f 343d c71e ca39 bc7c 87bc
000001e0: 7bb9 4dbe f608 3ebd 2cc0 a13c ef4c 9abd
000001f0: 0f94 17be 71fc 243d f22e 53bd b767 33bd
00000200: 3524 d3bd dbea 143d 5550 6abd c7f1 ac3c
00000210: 6493 cb3d 945e d93d f7c8 95ba c4e8 0c3e
00000220: 0e11 1d3d 1ced 4fbe 2694 c7bc cfaf e13d
00000230: d5a5 84be abb2 57bc 69aa 1bbd 8d5b dbbd
00000240: 9ad2 aebd 2a1d 153d 9c59 45bc e947 073d
00000250: 76af 3a3d a57c 8ebd dc14 fa3d 7986 ed3d
00000260: 881c e1bd c6cf 203e 2bbe 0fbd 00f8 31be
00000270: d42a d9bc 4e64 9f3d e368 24be 217f cabd
00000280: 1d2c d7bd 5263 2b3e 6ad6 18be 9c0a 4bbc
00000290: 5ce7 f53d 69a1 f33b d7a2 8a3d e9c0 a13d
000002a0: 7e9d d6bd 208b 4039 da7a 673d 40f4 9bbd
000002b0: 7e5b 08be 4f74 423e b4b4 c03d d548 62be
000002c0: d900 723d f58c 04be c5ed 5e3d 779b d1bd
000002d0: cbf8 49be f4fc e5bc 3a9a 1d3b 7086 a53d
000002e0: ecdd 0e3e 0a27 f53d e2c8 ef3c 5f55 10be
000002f0: 60a0 463d 666f 233c 22e7 17be 09c7 c93d
00000300: 04fc 863c 4c09 833d 7b81 013e a467 e13d
00000310: 938b 2ebe 88fc 063e 4e88 07be 729e 5ebc
00000320: 527d 8f3d 2b0c 343d 987e 683d 677d b5bd
00000330: 2d5a dcbd 0e1b 99bc 6863 e1bc 4977 db3d
00000340: 62ba 3e3e 27d1 c9bd 7e15 0ebd b518 623c
00000350: 18a6 623e 8eb0 0bbe 6a47 49be 83ef 84bc
00000360: 4ba9 1ebe 9355 e93d 019f d73c bb62 d7bd
00000370: 0009 173d a291 453d db69 c83d cb54 583d
00000380: 36a6 453c 62fa dd3d 4db3 39bc 7129 e33c
00000390: ea66 ddbd 465e 0e3e 14c6 e43d b126 00be
000003a0: 2959 eb3b a50d 2ebe 1181 283c 2c53 573d
000003b0: 210c 043e 2765 c33c 5237 493c cf7e f4bc
000003c0: bd73 8fbd 4b30 223e 246d f1bd 3af0 4b3d
000003d0: c291 e83d 0319 173d d720 113d f3d1 323e
000003e0: 9683 03be ff38 c7bc 7983 84bd 2df3 7f3d
000003f0: 3a2d 04be 6186 663d 3881 85bb 5b7b 36be
